Models/Tensorflow/model_8x8.npz (npz, 552614 bytes, 8 tensors)

b_conv2 f4 [32]
0	0x3dcccccd	0.1
1	0x3dcccccd	0.1
2	0x3dcccccd	0.1
3	0x3dcccccd	0.1
4	0x3dcccccd	0.1
5	0x3dcccccd	0.1
6	0x3dcccccd	0.1
7	0x3dcccccd	0.1
8	0x3dcccccd	0.1
9	0x3dcccccd	0.1
10	0x3dcccccd	0.1
11	0x3dcccccd	0.1
12	0x3dcccccd	0.1
13	0x3dcccccd	0.1
14	0x3dcccccd	0.1
15	0x3dcccccd	0.1
16	0x3dcccccd	0.1
17	0x3dcccccd	0.1
18	0x3dcccccd	0.1
19	0x3dcccccd	0.1
20	0x3dcccccd	0.1
21	0x3dcccccd	0.1
22	0x3dcccccd	0.1
23	0x3dcccccd	0.1
24	0x3dcccccd	0.1
25	0x3dcccccd	0.1
26	0x3dcccccd	0.1
27	0x3dcccccd	0.1
28	0x3dcccccd	0.1
29	0x3dcccccd	0.1
30	0x3dcccccd	0.1
31	0x3dcccccd	0.1

b_out f4 [5]
0	0x3dcf0323	0.1010802
1	0x3dcb4107	0.09924512
2	0x3dd16449	0.10224206
3	0x3dcd2a5d	0.10017846
4	0x3dd491d5	0.10379378

W_conv2 f4 [3, 3, 16, 32]
0	0xbf34a4c8	-0.70563936
1	0x3fdbc936	1.717078
2	0xbe76daba	-0.24106875
3	0x3e8fc5ce	0.280806
4	0xbe004309	-0.12525572
5	0x3fde8473	1.738417
6	0x3b072213	0.0020619675
7	0xc0014d4e	-2.0203433
8	0x3fd0170d	1.6257035
9	0xbf40a302	-0.7524873
10	0xbef29b03	-0.4738389
11	0xbde0192a	-0.109423
12	0x3f7efc49	0.99603707
13	0x3f87c942	1.0608294
14	0x3f91dbdd	1.1395222
15	0x3f7d4d5b	0.9894616
16	0x3ee7d4e8	0.45279622
17	0x3e984472	0.2973972
18	0xbeac3b41	-0.33638957
19	0x3e9bff31	0.30468133
20	0xbf683307	-0.9070286
21	0x3f2b7249	0.6697126
22	0xbfa15584	-1.2604222
23	0xbd3d3994	-0.04619749
24	0xbf90706c	-1.1284308
25	0xbe81ed4f	-0.25376365
26	0x3e76fbe3	0.24119525
27	0x3fa0fe79	1.2577659
28	0xbfc71a0c	-1.5554824
29	0x3ebb3319	0.36562422
30	0xbf457b13	-0.7714092
31	0x3f112b59	0.5670677
32	0xbfb65873	-1.4245743
33	0x3f154e66	0.5832275
34	0x3e880630	0.2656722
35	0xbe743aab	-0.23850505
36	0x3e862e0e	0.26207012
37	0x3dea6726	0.11445455
38	0x3eecca99	0.4624832
39	0xbaca06d8	-0.0015413417
40	0xbeeb37c4	-0.45940983
41	0xbfa2d055	-1.2719828
42	0x40020295	2.0314076
43	0x3e8c47d2	0.27398545
44	0xbd833d8d	-0.06408224
45	0xbf95dee4	-1.1708646
46	0xbf0ba4ec	-0.54548526
47	0xc0296d43	-2.6472938
48	0x3f530493	0.82428855
49	0xbed00421	-0.4062815
50	0x3eefaf75	0.4681355
51	0xbfc4fc56	-1.5389507
52	0x3f3823f8	0.71929884
53	0x3f57bdcc	0.8427398
54	0xbf2c14d7	-0.672193
55	0xc001b9b8	-2.0269604
56	0x3e14ff2c	0.14550465
57	0xbff39f03	-1.9032902
58	0xbfa5c83d	-1.2951733
59	0x3f2b1126	0.6682304
60	0x3f969d2c	1.1766715
61	0x3da73276	0.081639215
62	0xbf8e3298	-1.110919
63	0x3f3df6f4	0.74204946
64	0x3e55ddbb	0.20885365
65	0xbfd21f4d	-1.6415802
66	0xbfcc28dc	-1.5949969
67	0xbfb7c0b5	-1.4355685
68	0x3facea29	1.350896
69	0x3ecd37f3	0.40081748
70	0x3efa01d5	0.48829523
71	0x3ea64172	0.32471806
72	0x3e609cfd	0.21934886
73	0xbf84f006	-1.0385749
74	0x3d8e9648	0.069622576
75	0x3f13a379	0.57671314
76	0x3e84db43	0.25948533
77	0xbfb9250f	-1.4464434
78	0xbec7837c	-0.38967502
79	0xbf436483	-0.76325244
80	0xbf82dc5c	-1.0223498
81	0xbf3a5cc8	-0.7279782
82	0x3f7a185f	0.9769344
83	0xbf012ede	-0.5046214
84	0xbe94270d	-0.28936043
85	0xbf541777	-0.82848305
86	0x400695ac	2.1028852
87	0xbf609c1e	-0.87738216
88	0x3fb75a9b	1.4324526
89	0x3eea781d	0.45794764
90	0x3d7b0184	0.061280742
91	0xbf978e79	-1.1840354
92	0x3fd75466	1.6822631
93	0xc01054df	-2.2551801
94	0xbdc8346e	-0.09775625
95	0xc04fdd86	-3.2478957
96	0xbe09f5ed	-0.1347272
97	0x3f680793	0.9063656
98	0xbeafc8d5	-0.3433291
99	0xc003d937	-2.0601327
100	0xbee6aefa	-0.45055372
101	0x3f62d73b	0.88609666
102	0x3f1ffc4c	0.6249435
103	0x3f4d3517	0.80159134
104	0x3f36d188	0.7141347
105	0x3dd6ddf3	0.10491552
106	0x3f44a1e1	0.7680951
107	0x3f7002c3	0.93754214
108	0x3edd5ce4	0.43234932
109	0xbe4cddf3	-0.20006542
110	0x3fd5caca	1.6702511
111	0xbf91fd6b	-1.1405462
112	0x3ea54d1a	0.32285386
113	0xbe10527b	-0.14093964
114	0xbf3f2873	-0.74671096
115	0xbfa4b2dc	-1.2867084
116	0xbf9dff95	-1.2343622
117	0xbf86410f	-1.0488604
118	0x3e786a38	0.24259269
119	0xbf29a498	-0.66266775
120	0x3fc50946	1.5393455
121	0xbc47662b	-0.012170355
122	0x3f2fd259	0.6868034
123	0xbff2b9d6	-1.8962963
124	0xbf7a40b4	-0.9775498
125	0xbd6f318a	-0.058396854
126	0xbf8fc7fa	-1.1232903
127	0x3e17fd95	0.14842828
128	0xbfb91b35	-1.4461428
129	0x3f05d494	0.52277493
130	0xbeca16b2	-0.3947044
131	0x3f79a304	0.9751437
132	0xbe0a81c8	-0.1352607
133	0xbed9ef6c	-0.42565477
134	0xbfe0ef29	-1.7572986
135	0x3f5b86be	0.85752475
136	0x3fb67d39	1.4256965
137	0xbc016bc6	-0.00789923
138	0xbfbc00bc	-1.4687724
139	0xbd4fe963	-0.050759684
140	0x3e2b4ed2	0.16729286
141	0x3f6ca4e6	0.92439115
142	0xbf961d14	-1.1727624
143	0xbd25adf0	-0.040449083
144	0xbd359258	-0.044329017
145	0xbcab8312	-0.020936523
146	0xbeb84c25	-0.35995594
147	0x3e4874aa	0.19575754
148	0x3f901169	1.1255313
149	0x3f5ae706	0.85508764
150	0xbf62804d	-0.8847702
151	0xbfdcb6f8	-1.7243338
152	0xbf12e855	-0.5738576
153	0xbf8744a5	-1.0567824
154	0x3f887140	1.0659561
155	0xbf2c0779	-0.671989
156	0x3fb7eea3	1.4369701
157	0x3c1813bd	0.00928205
158	0xbf9cbc1e	-1.2244909
159	0x3f2f68d2	0.6851932
160	0x3e39b752	0.18136337
161	0xbf295aef	-0.6615438
162	0x3f076221	0.5288411
163	0x3feb68d9	1.8391372
164	0xbed22abc	-0.4104823
165	0xbf469f90	-0.77587223
166	0x3e8a5f9a	0.27026063
167	0x3f904019	1.1269561
168	0x3ed7bd8d	0.42136803
169	0xbf313e8f	-0.6923608
170	0xbee87d07	-0.45407888
171	0xbf01f3d1	-0.5076266
172	0xbff1ca93	-1.8889946
173	0xbefb29de	-0.4905538
174	0xbfc11217	-1.5083646
175	0x3dc63785	0.09678558
176	0xbc0766a2	-0.008264216
177	0xbf909b15	-1.1297327
178	0xbf3646d8	-0.7120185
179	0x3ea4b427	0.32168695
180	0xbffe80c8	-1.9883051
181	0xbf8fd807	-1.1237801
182	0xbea30754	-0.31841528
183	0xbe79faaf	-0.24412034
184	0xbfb13f8b	-1.3847517
185	0xbfdc49bd	-1.7210003
186	0x3f44d75e	0.76891124
187	0x3f86145d	1.0474964
188	0x3fe92b5e	1.821636
189	0xbf149d33	-0.58052367
190	0x3f70e461	0.9409848
191	0x3ff77006	1.9331062
192	0x3f0a3fcb	0.5400359
193	0x3ee036aa	0.43791705
194	0xbf954d75	-1.1664263
195	0x3ea5154e	0.32242817
196	0xbfe9eb43	-1.8274921
197	0x3ddd4420	0.108040094
198	0xbf5139c6	-0.8172878
199	0x3e61c5f1	0.22048165
200	0xbf15adfb	-0.584686
201	0x3f8d2907	1.1028146
202	0x3f0008e5	0.5001357
203	0x3f3d5aae	0.7396649
204	0xbfa0c696	-1.2560604
205	0xbf8307ae	-1.0236719
206	0xbf3ad303	-0.7297823
207	0xbfee6000	-1.8623047
208	0xbf4e3534	-0.8054993
209	0x3f6d772c	0.92759967
210	0x3fc4f6a8	1.5387774
211	0x3f5b06cf	0.85557264
212	0x401531fa	2.3311753
213	0xbecf7a09	-0.40522793
214	0x3e64ec9c	0.22355884
215	0xbf8fb9c5	-1.1228567
216	0x3eb7dcb5	0.35910574
217	0x401744ef	2.3635824
218	0xbf306536	-0.68904436
219	0x401c5cf3	2.4431732
220	0x3f998f83	1.1996921
221	0xbe91588b	-0.28387865
222	0x3fa158d1	1.260523
223	0x3f2d2401	0.6763306
224	0xbfb8bebd	-1.4433209
225	0x3ff154b2	1.8853972
226	0xbe21b7cd	-0.1579277
227	0x3efa7515	0.48917452
228	0x400c8949	2.1958792
229	0xbd2ab93b	-0.041680556
230	0x3e1bf696	0.15230784
231	0xbda7fd25	-0.0820258
232	0x3e4adfa5	0.19811876
233	0xbff1a952	-1.8879797
234	0xbf21e35a	-0.63237536
235	0x3f94fbee	1.1639383
236	0x3e857f5b	0.26073727
237	0x40041d27	2.0642793
238	0xbdffda47	-0.12492805
239	0xbfa384f4	-1.2774949
240	0x3f82486b	1.017835
241	0x3f879229	1.059148
242	0xbedd50aa	-0.43225604
243	0xbeab24eb	-0.33426604
244	0x3fd5d2a3	1.6704906
245	0xbc05d5d6	-0.008168658
246	0x3d699ffa	0.05703733
247	0x3f93689d	1.15163
248	0x3f5be41e	0.85894954
249	0x3d41c0a2	0.04730285
250	0x3d738679	0.059454415
251	0x3ec3517c	0.38148105
252	0xbe816ab8	-0.25276732
253	0xbef93973	-0.48676643
254	0x3e7e2de9	0.24822201
255	0xbff0839a	-1.8790162

W_conv1 f4 [3, 3, 3, 16]
0	0xbf65cc1d	-0.8976458
1	0x3f8701bf	1.0547408
2	0x3f07456a	0.5284029
3	0x40055b8b	2.0837123
4	0xc049d748	-3.1537647
5	0xbe757c9b	-0.23973314
6	0x3f26d5fa	0.6517025
7	0x3f5dccd4	0.8664067
8	0x3fe33616	1.7750881
9	0xc00df3e6	-2.2180114
10	0xc0593464	-3.3938227
11	0xbffad08d	-1.9594895
12	0x3f6a42ee	0.91508377
13	0xbfa27c83	-1.2694248
14	0x3ff938ce	1.947046
15	0x3f045e14	0.5170605
16	0xc06f16db	-3.73577
17	0xbefbbfc1	-0.49169734
18	0xbf0d65be	-0.5523337
19	0xbf984547	-1.1896142
20	0x3eb435dd	0.35197344
21	0x402495cd	2.571643
22	0xbf9ee55e	-1.2413747
23	0x3e4d6cd3	0.20061044
24	0x4028bc4b	2.6364925
25	0x40016b2d	2.0221665
26	0xc07b2779	-3.9242842
27	0xc07a0c23	-3.9069908
28	0x3e034899	0.12820663
29	0x40656e87	3.584871
30	0x3f6d05d5	0.92587024
31	0x403c1a47	2.9391038
32	0x3f2a4fef	0.6652822
33	0x403be97b	2.9361255
34	0x3f8a8293	1.0821098
35	0x40293ad3	2.6442153
36	0xbd041c4f	-0.03225356
37	0xc0375e68	-2.865137
38	0xc068e8ac	-3.6392012
39	0x407989de	3.8990397
40	0xbe4e6fda	-0.20159855
41	0x4084a559	4.145184
42	0xc0049b3f	-2.0719755
43	0xc0213553	-2.5188797
44	0xbf7f5e4a	-0.9975325
45	0x3fae4a34	1.3616395
46	0x40723a96	3.7848258
47	0x4089c7d6	4.305644
48	0x4037d18e	2.8721652
49	0x3fec4906	1.8459785
50	0x3d362618	0.044469923
51	0xbf8e0070	-1.1093884
52	0x3fd91be6	1.6961639
53	0x3f8678e6	1.0505645
54	0xbf2cd1b4	-0.6750748
55	0x3f6804f0	0.90632534
56	0x3e28e6f2	0.16494349
57	0x3f4e9b61	0.8070584
58	0x401fcb01	2.4967654
59	0xc03edfa7	-2.9824007
60	0xbfc57c9c	-1.5428653
61	0x3d8a577b	0.06754967
62	0xbffb9569	-1.9654971
63	0xbf619233	-0.8811371
64	0xc00e4e59	-2.223532
65	0x3fa8d07c	1.3188624
66	0x4041ed2b	3.0301006
67	0x3f7d964f	0.9905748
68	0x3ec696a9	0.3878682
69	0xbfda6eaf	-1.7065028
70	0xbe931f1f	-0.2873468
71	0x3f1997e3	0.59997386
72	0x3f842349	1.0323268
73	0xbe889167	-0.26673433
74	0x400f4d8f	2.2391088
75	0x3fd167fc	1.6359859
76	0x40266409	2.5998557
77	0xc03aeda0	-2.9207535
78	0xbf0f5513	-0.5598919
79	0xbba841f0	-0.0051348135
80	0xbf6108be	-0.87903965
81	0xbf0a7ec7	-0.54099697
82	0x3f8e2511	1.1105062
83	0xbdae6086	-0.08514504
84	0x3fd1bd3c	1.6385875
85	0xbfbe8ac4	-1.4886098
86	0x400ac065	2.1679928
87	0xbe83ad24	-0.25718033
88	0xbfbc356c	-1.4703803
89	0xbf8dc118	-1.1074553
90	0x3f75a141	0.9594918
91	0x3e05b1df	0.13056134
92	0x3f239566	0.6389984
93	0x3f2cf26d	0.6755741
94	0xbf1c48a1	-0.6104832
95	0x3fad1e49	1.3524867
96	0xc06985a3	-3.6487815
97	0x3fbc926d	1.4732186
98	0x4029c0d6	2.6523948
99	0xbf244a5c	-0.64175963
100	0xbf7cc65a	-0.9874016
101	0xbcedc83a	-0.02902614
102	0x3d5a0cee	0.053234987
103	0xbfee4487	-1.8614663
104	0xbf0f68e4	-0.56019425
105	0xbd8b7908	-0.06810194
106	0x3f6ed330	0.93290997
107	0xc03fbef2	-2.9960294
108	0xc00d22dc	-2.2052526
109	0x3faef927	1.3669785
110	0xc04d80a2	-3.2109761
111	0xc0101add	-2.2516396
112	0xbd4d0e81	-0.05006266
113	0x401f0b48	2.4850636
114	0x401c5d51	2.4431956
115	0xc0225a3c	-2.5367575
116	0x40085a6b	2.1305187
117	0xbfcda7eb	-1.606687
118	0x404f2c2d	3.2370713
119	0x40b65cec	5.698843
120	0x405321a8	3.2989292
121	0xbe42e05c	-0.19030899
122	0xbda8f911	-0.08250631
123	0xc01d25d4	-2.4554338
124	0x3fa7a38d	1.3096787
125	0x3f3c73c0	0.7361412
126	0x3f985f3e	1.1904066
127	0xbe9cd786	-0.3063318
128	0xc00f4dc5	-2.2391217
129	0xbf540fa1	-0.8283635
130	0x400779a6	2.1167998
131	0x3f251b1e	0.644945
132	0xbe09a1e2	-0.1344066
133	0xbd3ae80e	-0.04563146
134	0x40333459	2.80007
135	0x3f6fb448	0.9363446
136	0x3fa8c0a8	1.3183794
137	0x3fd74c8d	1.6820236
138	0x400a87e9	2.1645453
139	0x3e907054	0.282107
140	0xc0115da8	-2.2713413
141	0xbeab210d	-0.33423653
142	0xbf5bc088	-0.85840654
143	0xc01a829d	-2.414222
144	0x3f253822	0.64538777
145	0xbeef7f72	-0.4677692
146	0xbf8bceae	-1.0922449
147	0xbe90c6c9	-0.2827666
148	0x3f2237c0	0.6336632
149	0x3f3b19d1	0.7308627
150	0xbf16783e	-0.58777225
151	0x3ebfd4ae	0.3746695
152	0xbee91248	-0.4552176
153	0xbec80ac3	-0.3907071
154	0x402b1022	2.6728597
155	0xc03bc651	-2.9339793
156	0x3fd0fc95	1.6327082
157	0x3f24432a	0.64164984
158	0x3e4756fb	0.19466774
159	0xbed1e96c	-0.409984
160	0xbf9bb754	-1.2165322
161	0x3f77c397	0.9678282
162	0x400507bc	2.078597
163	0x3f11247c	0.56696296
164	0xbfb3db61	-1.4051324
165	0xbf1738f0	-0.59071255
166	0xbfbc814b	-1.4726957
167	0xbf789d80	-0.97115326
168	0xbedca12d	-0.43091717
169	0x3f86eb43	1.0540546
170	0x3f0c05fd	0.5469664
171	0x3f51d626	0.8196739
172	0x3e8fb7a3	0.2806979
173	0xbeeb7045	-0.45984092
174	0x3f05a2ff	0.5220184
175	0xbf3c347c	-0.73517585
176	0xbff22a71	-1.8919202
177	0x400f5ba2	2.2399678
178	0xc00f0ad3	-2.2350357
179	0xbe49afd6	-0.19695982
180	0xbf37b5e0	-0.71761894
181	0x3c2d173d	0.0105646225
182	0x40242034	2.5644655
183	0x3f860c1d	1.0472447
184	0xbf81e433	-1.0147766
185	0x3e5efe47	0.21776687
186	0xbf81dbc6	-1.0145195
187	0xbe98ae47	-0.29820463
188	0x3f27c8e8	0.65540934
189	0x3f96f1cf	1.1792544
190	0x3e99ccaa	0.3003896
191	0x3f8e2542	1.110512
192	0x3fc61094	1.5473809
193	0xc02dafe7	-2.7138612
194	0x3e8779ec	0.26460207
195	0x3fad974d	1.3561798
196	0x3f60d250	0.8782091
197	0xbe750fcf	-0.23931812
198	0xbf509a56	-0.814855
199	0xbf0028f7	-0.5006251
200	0x3e8b02f8	0.27150702
201	0xbf0b0201	-0.5429993
202	0x3ee090ed	0.4386057
203	0x3febc747	1.842019
204	0x3e4c5dc3	0.19957642
205	0x3f9bfb8f	1.2186145
206	0xbfa8bf85	-1.3183447
207	0x3f053c0f	0.5204477
208	0x3fa45786	1.283921
209	0x3f8dbd1d	1.1073338
210	0xbf06970e	-0.5257424
211	0xbe2e2868	-0.17007601
212	0xc004d3f1	-2.0754359
213	0x3f2133ae	0.6296948
214	0xbed1f336	-0.41005868
215	0x3ec0dc6d	0.37668172
216	0xbf7cf407	-0.98809856
217	0x3fbbc9a4	1.4670911
218	0x3e46fb4c	0.194318
219	0x3e2cd420	0.16877794
220	0x3e71aba4	0.23600632
221	0xbfd85539	-1.6901008
222	0xbf41d13a	-0.7570988
223	0xbe157c08	-0.14598095
224	0xbfab4d8a	-1.3383038
225	0xbf6e7634	-0.93149114
226	0x40221407	2.5324724
227	0x3ee972d3	0.45595416
228	0xbfcdb84e	-1.607187
229	0x3eaff204	0.3436433
230	0xbf638b24	-0.88884187
231	0xbeaa11b9	-0.33216646
232	0x3fd47feb	1.6601537
233	0xbfb4704e	-1.4096773
234	0x3f7964c9	0.9741941
235	0x3e94372c	0.28948343
236	0x3e39a3da	0.1812891
237	0xbfd38b69	-1.652692
238	0x3ff75320	1.9322243
239	0x3ebb1353	0.3653818
240	0x3fc0a228	1.5049486
241	0x3eb77eb9	0.3583887
242	0xbf1393f4	-0.57647634
243	0xbf4292a1	-0.7600499
244	0xbee745fa	-0.45170575
245	0xbfc6aa0a	-1.5520642
246	0x3fda4045	1.7050864
247	0x3f8853d9	1.0650588
248	0xbfc0bea7	-1.5058182
249	0x3e120c21	0.1426244
250	0xbff375f0	-1.9020367
251	0x3ee1d237	0.44105694
252	0xbff0a6bc	-1.8800883
253	0x3dcfab33	0.101400755
254	0x3f2d9962	0.6781217
255	0x3f359755	0.7093404

b_conv1 f4 [16]
0	0x3dcccccd	0.1
1	0x3dcccccd	0.1
2	0x3dcccccd	0.1
3	0x3dcccccd	0.1
4	0x3dcccccd	0.1
5	0x3dcccccd	0.1
6	0x3dcccccd	0.1
7	0x3dcccccd	0.1
8	0x3dcccccd	0.1
9	0x3dcccccd	0.1
10	0x3dcccccd	0.1
11	0x3dcccccd	0.1
12	0x3dcccccd	0.1
13	0x3dcccccd	0.1
14	0x3dcccccd	0.1
15	0x3dcccccd	0.1

b_fc f4 [256]
0	0x3dc6995b	0.09697219
1	0x3dd50bff	0.10402679
2	0x3dc9da3e	0.098560795
3	0x3dd10abc	0.102071255
4	0x3ddb8291	0.10718263
5	0x3dcb079c	0.09913561
6	0x3dbe52d1	0.0929314
7	0x3dc77430	0.09738958
8	0x3dc433a9	0.09580166
9	0x3dc61f38	0.09673923
10	0x3dce4553	0.10071816
11	0x3dc1e9e3	0.094684385
12	0x3dc992b8	0.098424375
13	0x3dc3ef75	0.09567157
14	0x3dc6b4db	0.09702464
15	0x3dca19df	0.09868216
16	0x3dba22ac	0.090886444
17	0x3dc36fdc	0.0954282
18	0x3dc8d75c	0.098067015
19	0x3dc7380f	0.09727489
20	0x3dd60d6a	0.10451777
21	0x3dd3319a	0.10312195
22	0x3dcf29e8	0.10115415
23	0x3dd0d2dd	0.10196469
24	0x3dc685ca	0.09693487
25	0x3dc3a3f9	0.0955276
26	0x3dd11a55	0.102101006
27	0x3dd94aac	0.10609946
28	0x3dc91ea2	0.09820296
29	0x3dcd7fe9	0.100341626
30	0x3dd414c6	0.10355525
31	0x3dd4121f	0.10355019
32	0x3dcbf8bf	0.09959554
33	0x3dc8dbc8	0.09807545
34	0x3dc2fcc4	0.095208675
35	0x3dc8486d	0.09779439
36	0x3dc8abaf	0.09798371
37	0x3dd36ccd	0.103234865
38	0x3dd1cb04	0.102438
39	0x3ddb7832	0.10716285
40	0x3dcecac0	0.10097265
41	0x3dc48975	0.0959653
42	0x3dcca63e	0.09992646
43	0x3dc7c39b	0.09754106
44	0x3dc7406a	0.09729083
45	0x3dcd5677	0.100262575
46	0x3dc999e8	0.098438084
47	0x3dc420e1	0.09576584
48	0x3dd696dc	0.10477993
49	0x3dc33b45	0.09532789
50	0x3dbb36d9	0.09141321
51	0x3dbaa975	0.091143526
52	0x3dbffc6a	0.09374316
53	0x3dccfc19	0.10009021
54	0x3dc79835	0.09745828
55	0x3dcf513d	0.10122917
56	0x3dbdcf87	0.09268098
57	0x3dc205e0	0.09473777
58	0x3dcf5b00	0.10124779
59	0x3dd1b419	0.10239429
60	0x3dc9eed9	0.0986001
61	0x3dc23244	0.09482244
62	0x3dbc743b	0.09201857
63	0x3dc80115	0.097658314
64	0x3dc8fe90	0.09814179
65	0x3dc30792	0.09522928
66	0x3dc05eb5	0.09393064
67	0x3dbc18ec	0.09184441
68	0x3dc53075	0.09628383
69	0x3dca05f4	0.09864417
70	0x3dbfa6f4	0.09358016
71	0x3dc620d9	0.09674234
72	0x3dc4262e	0.09577595
73	0x3dce011b	0.100588046
74	0x3dcde912	0.1005422
75	0x3dc0d51d	0.09415648
76	0x3dc6e565	0.09711722
77	0x3dc90f50	0.09817374
78	0x3da3dc14	0.08000961
79	0x3dc75b68	0.09734231
80	0x3dbb49e0	0.0914495
81	0x3dc660da	0.09686442
82	0x3dc12122	0.09430148
83	0x3dc7d88c	0.097581
84	0x3dcd7731	0.100324996
85	0x3db21303	0.086950324
86	0x3dd312e3	0.10306337
87	0x3dce17ff	0.10063171
88	0x3dc439e9	0.09581358
89	0x3dce4534	0.10071793
90	0x3dc85638	0.0978207
91	0x3ddb4751	0.10706962
92	0x3dbe2586	0.09284501
93	0x3dc827c5	0.097732104
94	0x3dca232b	0.09869989
95	0x3dc8f35c	0.09812042
96	0x3dc45fb7	0.09588569
97	0x3dc06565	0.093943395
98	0x3db315fa	0.08744426
99	0x3dc97c8c	0.098382086
100	0x3dc7dc05	0.09758762
101	0x3dcc4eea	0.09975989
102	0x3dc139da	0.094348624
103	0x3dc7d636	0.09757654
104	0x3dbeee9b	0.09322854
105	0x3db4840b	0.08814248
106	0x3dcb1973	0.099169634
107	0x3dc579cc	0.096423715
108	0x3dcb598b	0.09929188
109	0x3dbfe1ae	0.09369217
110	0x3db410cb	0.087922655
111	0x3dc92017	0.09820574
112	0x3dc94d2d	0.09829173
113	0x3dd198bd	0.10234211
114	0x3dcce8d3	0.10005345
115	0x3dccd794	0.10002056
116	0x3dc53fbe	0.096312985
117	0x3dcd53a3	0.10025718
118	0x3dc6bb54	0.09703699
119	0x3dd031b9	0.10165734
120	0x3dce1815	0.10063187
121	0x3dcaaa69	0.098957844
122	0x3dc9280f	0.09822094
123	0x3dc66856	0.09687869
124	0x3dc68ae0	0.09694457
125	0x3dc01270	0.09378517
126	0x3dbba02b	0.09161409
127	0x3db7fd5f	0.089838736
128	0x3dd34d9b	0.103175364
129	0x3dcf66a0	0.10126996
130	0x3dcf071f	0.1010878
131	0x3dc4e6f1	0.09614361
132	0x3dc4b9e0	0.09605765
133	0x3dcb78e8	0.099351704
134	0x3dc15912	0.09440817
135	0x3db4680c	0.08808908
136	0x3dc973e2	0.09836556
137	0x3dc81fc6	0.09771685
138	0x3dc046f5	0.09388534
139	0x3dc55b8a	0.096366
140	0x3dc3e5ee	0.0956534
141	0x3dcd4bae	0.100242004
142	0x3dc753d1	0.097327836
143	0x3dbcfff1	0.092285044
144	0x3dcd97be	0.10038708
145	0x3dd15fe1	0.102233656
146	0x3dce1556	0.10062663
147	0x3dcd1ca5	0.10015229
148	0x3db348cf	0.087541215
149	0x3dc5fba3	0.096671365
150	0x3dcb6edf	0.09933256
151	0x3dc13397	0.09433668
152	0x3dd2972a	0.102827385
153	0x3dc75733	0.09733429
154	0x3dc8abd2	0.09798397
155	0x3dd411b9	0.10354943
156	0x3dc6b083	0.09701636
157	0x3dc0762d	0.0939754
158	0x3dd3dd23	0.10344913
159	0x3dc90ec9	0.09817273
160	0x3dc16af8	0.09444231
161	0x3dc42b08	0.0957852
162	0x3dd7e34f	0.105414025
163	0x3dcc59aa	0.099780396
164	0x3db3375d	0.08750794
165	0x3dc63a03	0.096790336
166	0x3dd6e10b	0.10492142
167	0x3dcab771	0.0989827
168	0x3dbcc575	0.092173494
169	0x3dc564e5	0.09638385
170	0x3dc2d83f	0.09513902
171	0x3dce472d	0.100721695
172	0x3dce7b70	0.100821376
173	0x3dc37175	0.095431246
174	0x3dbd42d2	0.092412606
175	0x3dc606b0	0.09669244
176	0x3dc22cbd	0.094811894
177	0x3dcad8eb	0.09904655
178	0x3dcbd8b4	0.09953442
179	0x3dc7008e	0.09716903
180	0x3dc125a8	0.094310105
181	0x3dca0e21	0.09865976
182	0x3dca3a76	0.09874432
183	0x3dd250a0	0.10269284
184	0x3dc5fcef	0.09667384
185	0x3dc2e68f	0.09516632
186	0x3dca22e5	0.09869937
187	0x3dcb0585	0.09913162
188	0x3dbd6ae6	0.09248905
189	0x3dcc695b	0.099810325
190	0x3dd0c5b8	0.10193962
191	0x3dbf1e8f	0.093320005
192	0x3dd13824	0.10215786
193	0x3dcb5a4d	0.09929333
194	0x3dc297bd	0.09501598
195	0x3dc5b484	0.09653571
196	0x3dbba329	0.0916198
197	0x3dc53724	0.09629658
198	0x3dcd976b	0.10038646
199	0x3dc8dd33	0.098078154
200	0x3dcbecf3	0.09957304
201	0x3dd36b52	0.10323204
202	0x3dc2aa70	0.095051646
203	0x3dc8a3be	0.09796856
204	0x3da7fba0	0.082022905
205	0x3dc7a564	0.09748343
206	0x3dcf67e9	0.10127241
207	0x3dbfb003	0.093597434
208	0x3dcef027	0.10104399
209	0x3dccc523	0.09998538
210	0x3dcc3536	0.09971087
211	0x3dd3920d	0.10330591
212	0x3dbfe291	0.09369386
213	0x3dc36202	0.09540178
214	0x3dbe6348	0.0929628
215	0x3ddbffca	0.10742147
216	0x3dca2845	0.09870962
217	0x3dd129d0	0.10213053
218	0x3dc9f314	0.098608166
219	0x3dc52816	0.096267864
220	0x3dbf0669	0.093273945
221	0x3dc9aaaa	0.09847005
222	0x3dbece39	0.093166776
223	0x3dc1b312	0.09457983
224	0x3dc2d6bd	0.09513614
225	0x3dc334dd	0.09531567
226	0x3dcc241a	0.09967823
227	0x3dbba014	0.09161392
228	0x3dcb6a3d	0.09932373
229	0x3dc2e0a2	0.095155016
230	0x3dca0002	0.09863283
231	0x3dd988e6	0.106218144
232	0x3dc3e543	0.095652126
233	0x3dc685e1	0.09693504
234	0x3dc5b6dc	0.09654018
235	0x3dd37e62	0.1032684
236	0x3dc868c3	0.09785607
237	0x3db943df	0.090461485
238	0x3dc93cc9	0.09826047
239	0x3dcbec13	0.09957137
240	0x3dc13407	0.094337516
241	0x3dced03b	0.100983106
242	0x3dd1e019	0.10247821
243	0x3dc8a239	0.097965665
244	0x3dc6ff9c	0.09716722
245	0x3dc76ade	0.0973718
246	0x3dc9629b	0.098332606
247	0x3dc0f310	0.094213605
248	0x3dccb100	0.099946976
249	0x3dc84440	0.09778643
250	0x3dd1ca53	0.102436684
251	0x3dc522be	0.09625767
252	0x3dca7c1f	0.098869555
253	0x3dc7aa2b	0.09749254
254	0x3dd3a793	0.103346966
255	0x3dc1a658	0.09455556

W_out f4 [256, 5]
0	0x3f976030	1.1826229
1	0xbec8ca16	-0.3921668
2	0x3e9259ea	0.28584224
3	0x3d482f75	0.048873384
4	0x3e91499c	0.28376472
5	0xbf9b0b32	-1.2112792
6	0xbf9ee407	-1.2413338
7	0x3f468529	0.77546936
8	0x3f5471f2	0.82986367
9	0x3f8d0162	1.1016047
10	0x3ec5e134	0.3864838
11	0xbf9daac0	-1.2317734
12	0xbeb541d2	-0.3540178
13	0x3f1f0959	0.6212364
14	0xbf1d5020	-0.61450386
15	0x3e949f17	0.29027626
16	0xbe11642c	-0.14198369
17	0xbeda4a46	-0.4263479
18	0xbfa254e6	-1.2682159
19	0x3ff88bbb	1.9417642
20	0x3f17845e	0.5918635
21	0xbfa30c9e	-1.2738225
22	0x3f5cf195	0.86306125
23	0x3f7fee6b	0.9997317
24	0xbfae17be	-1.3600996
25	0xbeea98e7	-0.4581978
26	0xbe8a1187	-0.26966497
27	0x3ea674a0	0.32510853
28	0xbfa4c327	-1.2872056
29	0x4020affe	2.5107417
30	0x3f8203f3	1.0157455
31	0xbda63740	-0.08116007
32	0xbfcda7ac	-1.6066794
33	0xbf53a562	-0.8267423
34	0x3d824552	0.06360878
35	0xbea55224	-0.3228923
36	0xbf27254a	-0.65291274
37	0x3ff6c680	1.9279327
38	0xbf1c247a	-0.6099316
39	0xbf2a215a	-0.6645714
40	0x3e8aacc6	0.2708494
41	0xbeaff62e	-0.34367508
42	0xbe8de032	-0.2771011
43	0xbfc59bc7	-1.5438164
44	0xbfd3a6d7	-1.653529
45	0x3f44a50e	0.76814353
46	0x3fdbc863	1.7170528
47	0x3f35ec61	0.7106381
48	0xbe556782	-0.20840266
49	0x3e415d03	0.18883137
50	0x3ed4cc87	0.41562292
51	0x3dc93f50	0.09826529
52	0x3f2a667b	0.6656262
53	0x3e319873	0.17343311
54	0xbee89153	-0.45423374
55	0xbd9daa83	-0.07698538
56	0xbf54bdf6	-0.8310236
57	0x3db9c80f	0.09071361
58	0x3fed8be9	1.8558322
59	0x3e5ad15b	0.21368925
60	0xbe9e03c4	-0.30862248
61	0xbf0ab46e	-0.54181564
62	0xbe0751d6	-0.13214812
63	0x3d020c48	0.031749994
64	0x3f006517	0.5015425
65	0xbf9c1271	-1.2193128
66	0xbf5b880d	-0.8575447
67	0xbef1b401	-0.47207645
68	0x3f299e1d	0.66256887
69	0xbf695093	-0.9113857
70	0x3f08fad8	0.5350776
71	0x3f8f033f	1.1172866
72	0xbcc14bdc	-0.023595743
73	0x3ef2847f	0.47366711
74	0x3f0f408e	0.5595788
75	0xbfa0519e	-1.2524908
76	0xbe220774	-0.15823156
77	0x3e552dd2	0.2081826
78	0x3f0569ea	0.5211474
79	0x3f0f3630	0.5594206
80	0x3f96fbda	1.1795609
81	0x3fc3e112	1.5303061
82	0xbdd3d9d9	-0.103442855
83	0x3f857010	1.0424824
84	0xbf0bc963	-0.54604167
85	0xbf911ad0	-1.1336308
86	0xbf82ef92	-1.0229361
87	0x3f690700	0.91026306
88	0x3f9a7c6d	1.2069222
89	0x3fbb63af	1.4639796
90	0x3ea57083	0.32312402
91	0x3eeeb6e4	0.4662391
92	0x3f505778	0.81383467
93	0xbf70c777	-0.9405436
94	0xbe8439d7	-0.25825378
95	0xbf6324db	-0.8872811
96	0x3f08ed60	0.53487206
97	0x3e45345f	0.19258259
98	0xbeacdcc7	-0.3376219
99	0x3fb1352f	1.3844355
100	0x3faa444f	1.3302096
101	0x3d866bd8	0.06563538
102	0x3eb2b977	0.34907123
103	0xbfe9cec6	-1.8266227
104	0xbf1dbbe9	-0.61614853
105	0x3f8d0961	1.1018487
106	0x3ed91f71	0.424068
107	0x3f934b6f	1.1507396
108	0x3f8fe0de	1.1240499
109	0xbf209891	-0.627328
110	0x3f37b856	0.7176565
111	0xbfb99ab1	-1.4500333
112	0x3fcd0f2c	1.6020255
113	0x3e55758d	0.20845623
114	0xbf86e963	-1.0539974
115	0x3f01c558	0.5069175
116	0x3f22403a	0.6337925
117	0x3fbceb37	1.4759282
118	0x3f7a2bb2	0.97722924
119	0xbfbc2390	-1.4698353
120	0xbc6f6147	-0.014610595
121	0xbfb817c3	-1.4382252
122	0x3f8fe471	1.124159
123	0x3d885fcb	0.06658896
124	0xbf2308b0	-0.6368513
125	0x3f923e33	1.1425232
126	0xbf85b29a	-1.044513
127	0x3eb1a874	0.34698832
128	0xbe5224d1	-0.20521857
129	0x3fd265ee	1.6437356
130	0xbed594b5	-0.41715017
131	0xbf01ab89	-0.50652367
132	0xbfc23f22	-1.5175517
133	0x3fd2db97	1.6473264
134	0x3e14a7af	0.14517091
135	0xbf9389f9	-1.1526481
136	0xbf432c02	-0.76239026
137	0xbf43e98b	-0.76528233
138	0xc04a3974	-3.1597567
139	0x40f08a2a	7.5168657
140	0x3ef42348	0.47683167
141	0xbea19b72	-0.31563908
142	0x3fbeda2b	1.491033
143	0xbff49ce6	-1.9110382
144	0x3e972c51	0.29525998
145	0xbf9f11c9	-1.2427303
146	0xbfbd1a05	-1.4773566
147	0xbe7eccd6	-0.24882826
148	0xbfd391d9	-1.6528884
149	0x3f30d2fd	0.6907194
150	0x3e697c1d	0.22801252
151	0x3e432a2a	0.19059053
152	0xbfafa1dd	-1.3721272
153	0xbe02cd47	-0.1277362
154	0x3ff019e7	1.8757905
155	0x3fc05ca4	1.5028272
156	0xbfd5c553	-1.6700844
157	0x3fb17580	1.3863983
158	0xc00bf1b7	-2.186628
159	0x3f568e29	0.8381067
160	0xbe6e2675	-0.23256858
161	0xbf52342f	-0.82110876
162	0x3ea7c332	0.3276611
163	0xbeb60c20	-0.35556126
164	0x400c8fd9	2.1962798
165	0x3ce485f2	0.027895901
166	0xbdacb500	-0.084329605
167	0x3d91176a	0.07084544
168	0xbd7f069b	-0.06226216
169	0xbe797b10	-0.24363351
170	0xbec711e0	-0.38880825
171	0x3fa7ce6d	1.3109871
172	0x3eac4dbc	0.33653057
173	0x3e277c38	0.1635598
174	0xc01c3add	-2.4410927
175	0xbf1da911	-0.615861
176	0xbe08f90e	-0.13376257
177	0x3f78e04d	0.97217256
178	0xbf30ce76	-0.69065034
179	0x3fc6bcd1	1.5526372
180	0xbfaafb70	-1.3357983
181	0xbfc80293	-1.5625786
182	0x3e2350ca	0.15948787
183	0xbf9eb347	-1.2398461
184	0xbee2b43f	-0.44278142
185	0x3eda842e	0.4267897
186	0xbea7b281	-0.32753375
187	0x3fc0557c	1.5026088
188	0x3e507036	0.20355305
189	0xbfadc059	-1.3574325
190	0xbd89af6c	-0.06722912
191	0xbf507984	-0.8143542
192	0xbca3b4b7	-0.019983632
193	0x3ff3ffc8	1.9062433
194	0x3f0326c5	0.5123103
195	0xbedc751d	-0.430581
196	0xbf6385ea	-0.8887621
197	0x4054dd7c	3.3260183
198	0xbfa20e20	-1.2660561
199	0xbfaf33da	-1.3687699
200	0x3eaa8d82	0.33311087
201	0xbfa4ae0c	-1.2865615
202	0xbef9e2cf	-0.48805854
203	0x3d36c53d	0.044621695
204	0xbd21cdb8	-0.03950283
205	0x3f176740	0.5914192
206	0xbbe39e12	-0.0069463337
207	0x3e3356a6	0.17513523
208	0x3e2bf1f4	0.16791517
209	0x3b62bf01	0.003459871
210	0x3fa322f7	1.2745045
211	0x3eb3e352	0.3513437
212	0x3e07b6e8	0.13253367
213	0x3f1685f8	0.5879817
214	0xbfccfc5b	-1.6014513
215	0xbef7ae2a	-0.48375064
216	0xbcba9bc8	-0.02277936
217	0xbe75c47e	-0.24000737
218	0xbdb2e051	-0.08734191
219	0x3f2bf781	0.67174536
220	0x3f052f59	0.5202537
221	0xbfc715d5	-1.5553538
222	0x3eae48f0	0.34040022
223	0xc014fec0	-2.3280487
224	0xbcf3c1f3	-0.029755568
225	0x3e972740	0.29522133
226	0x3eaf9c96	0.34299153
227	0x3f421d63	0.7582609
228	0xbe88425c	-0.26613128
229	0xbf2dbf10	-0.67869663
230	0x3f91e838	1.1398993
231	0xbe934fce	-0.28771824
232	0x3e6037b9	0.21896257
233	0x3eaa26ee	0.33232826
234	0x3f6110df	0.8791637
235	0xbf996578	-1.1984091
236	0x3f87fa69	1.0623294
237	0xbe9b9d2c	-0.3039335
238	0xbfc3b111	-1.5288411
239	0xbfb225fc	-1.3917842
240	0x3e18eb68	0.1493355
241	0x3f0589ad	0.521632
242	0x3f935887	1.1511391
243	0xbf894f68	-1.0727358
244	0xbf88439e	-1.0645635
245	0x3eb88f91	0.36047032
246	0x3fd6d9b5	1.6785189
247	0x3f11b90f	0.56923
248	0x3f2adcba	0.6674305
249	0x3fd2f241	1.648018
250	0x3f851c2d	1.0399224
251	0x4009f85f	2.1557844
252	0x3f159f36	0.5844606
253	0xbe18c790	-0.14919877
254	0xbe8c9202	-0.27455145
255	0x3e8e9062	0.2784453

W_fc f4 [512, 256]
0	0xbf629125	-0.8850272
1	0xbe5220a8	-0.2052027
2	0x3e06cdab	0.13164394
3	0xbf927c41	-1.1444169
4	0xbedaf206	-0.42762774
5	0xbfd11097	-1.6333188
6	0xbf1475c3	-0.5799219
7	0xbe485ed9	-0.19567432
8	0xbf876116	-1.0576503
9	0x3ee08953	0.4385477
10	0xbdfaa245	-0.12237982
11	0xbd599243	-0.053118
12	0xbd129c92	-0.03579385
13	0x3f4a9eb9	0.7914844
14	0x3e7f48ba	0.24930087
15	0x3f0dd498	0.5540252
16	0xbe09dc97	-0.13463055
17	0xbe3d060c	-0.18459338
18	0x3dd505bc	0.10401484
19	0x3ffb943f	1.9654616
20	0x3ec3d273	0.38246498
21	0xbe1157fb	-0.14193718
22	0xbe4b9746	-0.19881925
23	0x3fd07ece	1.6288698
24	0x3e99665e	0.29960912
25	0xbe629cf3	-0.22130184
26	0x3e956981	0.29182056
27	0xbdaa1af8	-0.08305925
28	0x3f2b333b	0.66875046
29	0x40055e7c	2.0838919
30	0x3e47ff99	0.19531097
31	0x3f566fb9	0.83764225
32	0x3e6e4d9f	0.23271798
33	0xbe5f17c8	-0.21786416
34	0x3ec297b8	0.38006377
35	0xbeffb516	-0.49942845
36	0xbedb3722	-0.428155
37	0x3fb9c328	1.4512682
38	0xbff172c3	-1.8863147
39	0xbf9a43e7	-1.2051972
40	0x3fd15c36	1.6356266
41	0xbfcb0566	-1.5861022
42	0xbee47165	-0.44617763
43	0x3aada300	0.001324743
44	0xbf8d19b4	-1.1023469
45	0x3e3a49cd	0.18192215
46	0x3d2f7cef	0.042843755
47	0x3eecdc34	0.46261752
48	0xbe882d39	-0.26597002
49	0xbffff884	-1.9997716
50	0xbfe15f5d	-1.7607228
51	0xbea8f4b6	-0.329992
52	0xbf612f0e	-0.87962425
53	0x3fd40db7	1.6566685
54	0xbf2a7a54	-0.6659291
55	0xbea4b9e7	-0.32173082
56	0xbf847db1	-1.0350858
57	0xbe568020	-0.20947313
58	0x3f3544f7	0.70808357
59	0xbde1a177	-0.11017125
60	0x3fa57eae	1.2929285
61	0x3fd85c19	1.6903106
62	0xbe41fa74	-0.18943197
63	0x3f5e48b3	0.8682968
64	0xbe519d9d	-0.20470281
65	0xbe8936f0	-0.26799726
66	0x3f892671	1.0714856
67	0x3f0fe549	0.56209236
68	0xbfd635bf	-1.6735152
69	0x3f7d4cba	0.989452
70	0x3f92dc1c	1.1473422
71	0x3dc86b90	0.09786141
72	0xbfa158a8	-1.2605181
73	0x3f0844ab	0.5322978
74	0x3fdae002	1.7099612
75	0xbd8abdbd	-0.06774471
76	0xbf68599e	-0.90761745
77	0x3ef08b03	0.46981058
78	0x3f19510d	0.598893
79	0x3f8a3b01	1.0799257
80	0x3f68a53a	0.90877116
81	0x3efb804e	0.49121326
82	0x3fad3e9c	1.3534732
83	0x3f8e1ab6	1.1101902
84	0x3cc2eb24	0.023793764
85	0xbf8c9c61	-1.0985223
86	0xbef5e6c9	-0.48027638
87	0x3f487135	0.7829774
88	0xbf6e7189	-0.9314199
89	0xbde3d71d	-0.11125014
90	0xbedf90e0	-0.43665218
91	0xbf8fe7bb	-1.1242594
92	0x3fae9d99	1.3641845
93	0xbf5cfbc0	-0.8632164
94	0x3e558873	0.20852832
95	0xbfff9711	-1.9967977
96	0x3f24c1ac	0.6435802
97	0xbedb303a	-0.4281023
98	0xbea970ca	-0.33093864
99	0x3f756095	0.958505
100	0x3d40491a	0.046944715
101	0x3f68f188	0.9099355
102	0x3f6e5d30	0.9311094
103	0x3e018166	0.12647018
104	0x3e0f4f81	0.13995172
105	0xbec0e4c0	-0.37674522
106	0x3f0aa34c	0.5415542
107	0xbfd1481e	-1.6350133
108	0xbf6be55e	-0.9214686
109	0xbead5f2e	-0.3386168
110	0x3f86f713	1.0544151
111	0x3f47274e	0.7779435
112	0xbf516e04	-0.81808496
113	0x3f328201	0.6972962
114	0x3f5ed4e3	0.8704359
115	0x3db4a87f	0.088212006
116	0x3f8e2da6	1.1107681
117	0xbd9d3793	-0.076766156
118	0xbfcd0649	-1.6017543
119	0x3fe2c5f4	1.771666
120	0x3e751c4c	0.23936576
121	0xbf29ea11	-0.6637278
122	0xbfbe9bd8	-1.489131
123	0xbe137679	-0.14400662
124	0xbec27af8	-0.37984443
125	0xbf19f213	-0.60135
126	0x3e56ef98	0.20989835
127	0xbf6cb232	-0.92459404
128	0x3f37fc79	0.7186962
129	0x3eda2abb	0.42610726
130	0x3f99ef30	1.2026119
131	0xbe09d77d	-0.13461109
132	0x3f3779e5	0.7167037
133	0xbd76e036	-0.060272418
134	0x3f341e21	0.70358473
135	0x4001146b	2.0168712
136	0x3fccdab9	1.6004249
137	0x3f2f33fc	0.68438697
138	0xbfdbba61	-1.7166253
139	0xbe05fd40	-0.13084888
140	0xbe8c39f5	-0.27387968
141	0x3f69cd00	0.9132843
142	0x3f75b106	0.9597324
143	0xbe00cd7c	-0.12578386
144	0xbef397be	-0.47576708
145	0xbe9d7ddf	-0.30760095
146	0x3e8a20bd	0.26978102
147	0xbf4daf50	-0.8034563
148	0xbf20ff39	-0.6288944
149	0x3e400c56	0.18754706
150	0x3f6a4006	0.9150394
151	0x3ed1eb8a	0.41000015
152	0x3f326a14	0.6969311
153	0x3fa6035e	1.2969778
154	0x3f62cfd1	0.8859835
155	0x3f71f204	0.9450991
156	0x3faa3f54	1.3300576
157	0xbf296fec	-0.66186404
158	0x3e6d6692	0.23183659
159	0xbfb1ec09	-1.3900157
160	0x3f2bdaf4	0.6713097
161	0x3f40f294	0.75370145
162	0xbee5c3ba	-0.4487589
163	0x3f7dc79d	0.9913271
164	0x3f923ab1	1.1424161
165	0x3f1acdc6	0.60470235
166	0xbe1762b1	-0.14783742
167	0xbeb9ab31	-0.3626342
168	0xbe4988a9	-0.19681038
169	0x3f76a458	0.9634452
170	0xbf8a0727	-1.0783433
171	0xbe83446d	-0.25638142
172	0x3e6eca2b	0.23319308
173	0x3fd4b3b7	1.6617345
174	0xbf36b264	-0.7136595
175	0xbf8aea41	-1.0852739
176	0xbe3d0e09	-0.18462385
177	0xbd7d0399	-0.06177101
178	0x3e7ff7b6	0.24996838
179	0x3eff02f1	0.49806932
180	0xbe3b2aa0	-0.18277979
181	0xbf39720d	-0.7243965
182	0xbf2d96c3	-0.6780817
183	0xbf25987c	-0.646858
184	0x3ddf7c57	0.10912388
185	0xbec30b5f	-0.38094613
186	0xbeabba3a	-0.33540517
187	0x3fe0a605	1.7550665
188	0x3e9d5a0f	0.30732772
189	0xbf09c2fe	-0.5381316
190	0xbf9370fc	-1.1518855
191	0x3f4a92a3	0.7913
192	0xbecf7201	-0.40516666
193	0xbef9a6d4	-0.48760092
194	0x3e826a10	0.25471544
195	0xbf1ec0a0	-0.6201267
196	0xbed962f4	-0.42458308
197	0x3ed45fce	0.41479343
198	0xbf34bc87	-0.7060017
199	0x3eb73a1d	0.35786524
200	0xbe4e48f2	-0.20145014
201	0xbec3cdfd	-0.38243094
202	0xbf9a72fb	-1.2066339
203	0x3ebda500	0.37039948
204	0x3f98a5ed	1.1925637
205	0xbe033299	-0.1281227
206	0xbd940c04	-0.07228854
207	0xbe27fb1c	-0.16404384
208	0xbedadbb8	-0.42745757
209	0x3f59f394	0.85137296
210	0x3f3fa697	0.7486357
211	0xbfa113e2	-1.2584193
212	0xbf14182e	-0.57849395
213	0xbf87d669	-1.0612308
214	0x3e64eb19	0.22355308
215	0x3f47d78b	0.7806327
216	0x3f8e423a	1.1113961
217	0x3d38780e	0.045036368
218	0xbfc7b393	-1.5601677
219	0x3f1fc3ba	0.6240803
220	0x3f89ac73	1.0755752
221	0x3dbcfcf6	0.09227936
222	0xbcb6aabe	-0.022298213
223	0xbf9a271a	-1.2043183
224	0x3f8e24f9	1.1105033
225	0x3d723081	0.05912829
226	0xbddd6fac	-0.10812315
227	0xbf7607c1	-0.9610558
228	0x3ef628dc	0.48078048
229	0xbf30ed9f	-0.6911258
230	0xbf8db4d6	-1.1070812
231	0xbf08f687	-0.5350117
232	0xbf5771e6	-0.8415817
233	0x3fca4dfb	1.5805048
234	0xbf92a0b8	-1.1455297
235	0x3fd0ace6	1.6302764
236	0x3f95f028	1.1713915
237	0x3fba682d	1.4563042
238	0xbe23e961	-0.16006996
239	0x3f9ee4c1	1.241356
240	0x3e2d6d1a	0.1693615
241	0x3f79e792	0.97618973
242	0x3e617b0d	0.22019596
243	0x3f55b397	0.8347716
244	0xbfb82ee2	-1.4389307
245	0xbf7aa215	-0.9790357
246	0x3e891e21	0.267808
247	0xbff2783a	-1.894294
248	0xbdfab32f	-0.12241208
249	0x3f12ed00	0.57392883
250	0x3c4185b3	0.0118116615
251	0xbfaf93fc	-1.3717036
252	0xbf96f8e8	-1.179471
253	0xbfb0b642	-1.3805621
254	0xbe9a14b6	-0.30093926
255	0x3ffda34c	1.9815459
