Models/Tensorflow/model_7x7_zombie.npz (npz, 552614 bytes, 8 tensors)

W_conv1 f4 [3, 3, 3, 16]
000000 ff 8c 93 be f0 42 70 3e ce c2 ec 3e 05 cd 46 3e
       -0.2881851 0.23463035 0.46242374 0.19414146
000010 3f 77 b0 bf e4 2e c6 be 74 d4 5f 3f 9a 4d b2 3e
       -1.3786391 -0.3870765 0.8743355 0.3482483
000020 27 30 92 3f 88 cf a7 bf 6c fd a2 bf 1c d7 a9 bf
       1.1420945 -1.3110209 -1.2733588 -1.3268771
000030 d2 07 43 3f b2 4d d2 be d2 74 31 be 06 f4 06 bf
       0.7618381 -0.41074902 -0.1732972 -0.527161
000040 40 6e b1 bf 32 23 09 3f 96 b5 5f be 1e 82 3b bd
       -1.3861771 0.5356933 -0.21846613 -0.045778386
000050 6a c4 2c 3f 39 2b b6 3f 09 2a 86 3e a2 67 05 be
       0.67487204 1.423194 0.26203945 -0.13027814
000060 26 b1 d5 3f 19 31 84 3f 84 e9 e8 bf 61 d4 e0 bf
       1.6694686 1.0327483 -1.8196263 -1.7564813
000070 b3 1f 79 bf 71 a0 f0 3f ca 98 03 bf d2 af 4c 3f
       -0.97313994 1.8798963 -0.5140501 0.7995578
000080 60 24 3a 3f 2b d4 83 3f 6f a7 c6 3f 0e 47 cf 3f
       0.72711754 1.0299124 1.5519847 1.6193559
000090 89 49 05 3f 16 ea 53 bf b5 76 bc bf d4 9e 8c 3f
       0.5206533 -0.8277906 -1.4723727 1.098597
0000a0 f4 be 96 bf 52 af d8 3f 3d 33 30 bf f3 50 48 bf
       -1.1777024 1.6928504 -0.68828183 -0.7824852
0000b0 05 6d 9a 3d 1c 9c 22 3e f6 9a 7a 3f f6 ad 9b 3f
       0.07540325 0.15879864 0.978927 1.2162464
0000c0 f7 5c 00 40 bb e9 a3 be cd b6 c0 be e1 08 4d bf
       2.0056741 -0.3201426 -0.37639466 -0.80091673
0000d0 8d 0a f6 3d 7f 9a ad bd a7 94 20 3d e0 e4 5e 3e
       0.12013731 -0.084767334 0.039204266 0.21766996
0000e0 cf 91 c7 be c3 c0 d2 be b6 fe a1 3f 1b 45 b3 bf
       -0.3897843 -0.4116269 1.2655857 -1.4005464
0000f0 51 d7 22 bf 7d 8c b2 bd c4 18 e5 bf 49 16 f1 bf
       -0.63609797 -0.08718202 -1.7898183 -1.8834926
000100 c6 0b e9 bf 4b ff 92 3f 62 44 dd 3f 12 8e ab 3e
       -1.8206718 1.1484159 1.7286494 0.3350683
000110 b0 f3 a2 3f fd 51 47 bf f2 1c c1 be 6c 36 ee be
       1.2730618 -0.7785948 -0.37717396 -0.46525896
000120 5f 9c cc 3f 11 9b 0a 3e 78 11 45 3f 37 b4 cb 3e
       1.5985221 0.13535716 0.7697978 0.3978593
000130 b9 30 e4 3f f5 96 85 bf 02 3f 3a bf 40 7a 8c bf
       1.7827369 -1.0436693 -0.7275239 -1.0974808
000140 81 2a 8f be a5 78 a0 bf cc 86 68 3f 97 a6 8d 3d
       -0.27962115 -1.2536818 0.90830684 0.0691654
000150 5d 7b 7c 3f f0 f3 a5 bf 70 f4 ae 3f 70 13 eb be
       0.9862574 -1.2965069 1.3668346 -0.45913267
000160 93 10 36 bf c6 ec 8b bf 68 a8 f7 be de 39 f1 be
       -0.7111904 -1.0931633 -0.4837067 -0.47114462
000170 3b e8 be ba 92 70 3b 3e 6f 93 9e be 7d ba f5 3e
       -0.001456506 0.18304661 -0.30971858 0.47993842
000180 75 09 5e bf 19 78 52 be 7b 42 35 3f 8f 0d fc 3d
       -0.8673318 -0.20553626 0.70804566 0.123072736
000190 7f 83 b2 be 16 44 a0 bf 7a be 2b bc 8c fb a6 bf
       -0.3486595 -1.2520778 -0.010482425 -1.3045516
0001a0 f9 e0 73 bf 50 06 01 3f 5a 62 23 3e d2 5f 6e bf
       -0.95265156 0.5040026 0.15955487 -0.9311496
0001b0 f2 6e d5 bf 4d 22 b6 3f 91 59 a2 bf fd b5 6e bf
       -1.6674483 1.4229218 -1.2683583 -0.9324644
0001c0 ac 18 c9 3e 9d 93 7c 3f 63 19 c9 3f ec 58 83 bf
       0.39276636 0.9866274 1.5710872 -1.0261512
0001d0 c3 ab bf 3f 22 d9 07 3d 1a 13 a9 3f da c8 90 3f
       1.4974293 0.03316606 1.3208954 1.1311295
0001e0 37 52 d1 3f 8e 47 a0 3e a3 74 35 bf 3c 52 6e bf
       1.6353215 0.31304592 -0.708811 -0.9309423
0001f0 2a 51 6a 3f bf fb 43 3f 05 af 31 3e ef fc 01 be
       0.91530097 0.7655601 0.17351921 -0.12694143
000200 e9 30 8e bf ab 10 19 bf 4c fa 2b 3f 46 2c 09 bf
       -1.1108676 -0.5979106 0.671788 -0.5358318
000210 fc 94 21 3e 21 dc c4 3d 6b ec e4 3d 76 9f 65 3e
       0.1577949 0.09612299 0.11177906 0.22424111
000220 32 15 b0 be 2b 3d 89 3f 00 7e d4 3f da 60 80 3f
       -0.3439117 1.0721792 1.6600952 1.0029557
000230 ed a6 94 bf 09 a9 84 bf 9a 97 6f be 4b 60 fa bf
       -1.1613442 -1.0364085 -0.23397675 -1.9560636
000240 b6 61 c4 3e 14 0b 84 bf 6e 99 53 bf ad f2 b3 bf
       0.38355798 -1.0315881 -0.8265599 -1.4058434
000250 0e 75 d9 3e 67 7f 0c 3f 51 e9 39 bf 58 33 4d 3f
       0.42472118 0.548819 -0.7262164 0.8015647
000260 2f 3c 08 3e 72 e3 43 3f bc df 18 3f e8 07 e1 bf
       0.13304208 0.7651893 0.5971639 -1.7580538
000270 2d 45 ad be 31 3a 53 3f ef f3 4f 3f ff 1b ce bf
       -0.3384184 0.8251067 0.8123159 -1.6102294
000280 44 33 19 be d0 af fa bd 87 c4 e4 3e 3a 18 22 3f
       -0.14960963 -0.12240565 0.44681188 0.63318217
000290 e4 65 d9 bd 57 35 24 bf 3e a6 9c be 23 4b 8e bf
       -0.10615137 -0.6414389 -0.30595583 -1.111668
0002a0 95 44 3a bf 41 6e b1 3f e1 01 05 3f ef 03 75 3f
       -0.727609 1.3861772 0.5195599 0.9570913
0002b0 a2 01 bf 3b 8f 61 03 bf 08 d1 98 3e 09 97 d3 3c
       0.005829052 -0.5132074 0.29846978 0.025828855
0002c0 79 d3 41 be 4b 44 e6 3e ad 43 35 be ce dc 80 bf
       -0.18928327 0.44973978 -0.17701598 -1.0067384
0002d0 2b 06 2b bf 1e 46 bb be f8 e9 00 3f ce cc 9b 3f
       -0.66806287 -0.36576933 0.5035701 1.2171876
0002e0 bb a9 00 bf 21 3c a9 3f 3e dc 40 3f b2 4c 15 bf
       -0.5025899 1.3221475 0.7533606 -0.5832015
0002f0 78 68 8a 3e 59 8a 0e bf 3a 83 99 bd b0 ae 7b 3f
       0.27032828 -0.5567985 -0.074957326 0.98313427
000300 bd 76 f7 3f 95 fa d1 bf d8 65 21 3f 4b 05 f2 3e
       1.9333111 -1.6404597 0.63046026 0.47269663
000310 7d dd f7 3c 71 ee 0f bf 02 7e d0 bf 8b bc 6f be
       0.030256981 -0.5622321 -1.6288455 -0.23411767
000320 da 73 a8 bf 54 17 2a 3e 6d 30 9f 3f 26 b3 ae 3e
       -1.3160355 0.16610461 1.2436653 0.34121054
000330 ee 86 a1 be 6f c3 54 be 17 12 a6 be cf d7 05 3f
       -0.31548256 -0.20777677 -0.32435676 0.5228242
000340 84 4c a7 3f d4 a9 85 3f fd 7a 78 bf 33 85 0b 3e
       1.3070226 1.0442452 -0.97062665 0.1362503
000350 6f 10 5a bf 34 45 7a 3f 39 95 dd 3e 2b 62 26 3f
       -0.85181326 0.97761846 0.4327791 0.6499354
000360 e7 b8 63 bf ad 1b 9d 3f 81 94 d7 be 01 76 ab 3f
       -0.88954014 1.2274071 -0.42105487 1.3395387
000370 58 cf ad 3e dc 06 09 bf 26 ba bc bf 79 17 49 bf
       0.33947253 -0.5352609 -1.4744308 -0.7855144
000380 07 89 e7 bf 34 f4 ef be af 20 44 3f 93 4a 09 3f
       -1.8088692 -0.46866 0.7661237 0.53629416
000390 30 ad 52 bf b9 9e bb 3e e6 48 15 be 9e cd b5 bd
       -0.82295513 0.36644533 -0.1457859 -0.08877109
0003a0 ad 7c 21 3f a9 cd 96 bf a1 84 16 bf 7f d7 21 bf
       0.63080865 -1.1781512 -0.58796126 -0.63219446
0003b0 24 df 0c 3f 6a 32 6a bf f4 1e d6 3f d2 21 23 3f
       0.55027986 -0.91483176 1.6728196 0.6372348
0003c0 b1 40 54 3f 60 32 75 be 02 97 cb 3d 3f 91 b8 bf
       0.8291121 -0.23944998 0.09940912 -1.4419326
0003d0 29 21 cb bd 2d df 92 bf 0b b6 f8 3e 9a d6 f4 3d
       -0.09918434 -1.1474358 0.48576388 0.119549945
0003e0 b9 c0 d3 bf 86 e1 14 3e 13 e6 3e bf 33 6b 59 3b
       -1.6543189 0.14539155 -0.74569815 0.0033175468
0003f0 f7 e6 b2 bf 2c 5c ec 3e 58 bf 15 3f f8 a1 42 3f
       -1.3976735 0.46164072 0.5849509 0.76028395

W_conv2 f4 [3, 3, 16, 32]
000000 aa 1e 5a bf 81 16 c0 3f fd 01 1d 3d e8 92 86 3d
       -0.8520304 1.5006868 0.038331974 0.06570989
000010 ab c2 21 3f 8b d4 cd 3f 18 c6 3c 3e 3e 19 be bf
       0.63187665 1.6080488 0.18434942 -1.4851453
000020 f6 4b af 3f a2 3b 0a 3f 71 09 5a bf f1 95 0f bc
       1.3695056 0.5399724 -0.85170656 -0.008763776
000030 7c 71 08 3f b2 41 ae bd d4 ae 29 bd da 4a 2a 3f
       0.53298163 -0.08508624 -0.041426495 0.66520464
000040 c7 7e 63 be 4d ca 1f 3d cf 05 97 3e 87 91 17 3f
       -0.2221633 0.03901129 0.2949662 0.5920643
000050 25 f2 b8 be 07 91 bc bd 72 d8 04 bf 51 99 bd 3d
       -0.36122242 -0.09207349 -0.5189277 0.092577584
000060 59 17 31 bf 91 bc 81 3e da 1f 68 3e d1 5a 9b 3f
       -0.6917625 0.25339177 0.226684 1.213709
000070 c3 8d b2 bf 16 28 37 3d 21 9e b8 be dd b8 9c 3e
       -1.3949512 0.044715963 -0.36058143 0.3060979
000080 ab 23 c9 bf e2 b7 89 3e bb 21 18 3f d5 65 cb be
       -1.571401 0.26898104 0.5942647 -0.3972613
000090 f7 c9 a2 3f b4 fe ee 3e 38 89 9f 3e ca 54 37 3e
       1.2717885 0.46678698 0.31159377 0.17903438
0000a0 70 f4 20 bf bc aa c2 be 62 f5 e5 3f 97 3e 2a 3f
       -0.6287298 -0.38020885 1.796551 0.66501755
0000b0 07 ae e4 be c5 e8 86 bf d4 f7 57 bf fe 8d f2 bf
       -0.44664022 -1.0539786 -0.8436253 -1.8949583
0000c0 a8 e0 c7 3e f7 b8 62 3c 38 bf 0e 3e cf 07 c1 bf
       0.39038587 0.013838044 0.13940132 -1.5080508
0000d0 b6 80 22 3f 37 30 47 3f 1c a6 59 be c5 88 cc bf
       0.6347765 0.77807945 -0.21254772 -1.5979239
0000e0 89 d9 23 3f cc 4e db bf d3 57 c8 bf 9e cf 25 3f
       0.6400381 -1.7133422 -1.5651802 0.64769924
0000f0 a4 d9 94 3f ea c2 25 3e 92 ba 36 bf fb 79 ac 3f
       1.1628919 0.16187635 -0.71378434 1.3474725
000100 b5 b8 8f 3e 36 f3 fa bf 8c 0b bd bf 65 24 ac bf
       0.28070608 -1.9605472 -1.4769149 -1.3448607
000110 76 89 d5 3f 39 8c 15 3f f3 0f f2 3e 2f 4c 3b 3f
       1.6682575 0.5841709 0.47277793 0.7316312
000120 bb ce bc 3e 27 ad 7d bf c0 43 a7 bc 49 ae f2 3d
       0.36876473 -0.99092335 -0.020418048 0.118496485
000130 fa 18 97 3e 21 94 4f bf eb 53 87 bf 26 81 95 bf
       0.29511243 -0.810854 -1.0572485 -1.1680038
000140 1e 85 40 bf 11 a6 c5 be 76 dc e5 3e d5 2f 84 be
       -0.7520312 -0.3860326 0.4489476 -0.25817743
000150 6c 51 f5 be d5 01 a7 be 19 a4 1c 3f 59 ec 17 bf
       -0.47913682 -0.32618585 0.61187893 -0.5934501
000160 2d 85 0d 3f 4d e9 b6 3e 38 78 5c 3e d4 7b 3a be
       0.55281335 0.3572487 0.21530235 -0.18211299
000170 c3 4c e4 3f 66 a8 da bf 35 78 36 3d c7 53 e3 bf
       1.7835926 -1.7082641 0.044548232 -1.7759942
000180 5c 43 9f be df dd 47 3f ad 72 d0 3e 45 9a f5 bf
       -0.3110608 0.78072923 0.4071249 -1.9187704
000190 87 c8 a3 be c1 ab 6d 3f 15 42 23 3e 06 f2 a2 3f
       -0.31988928 0.928402 0.15943177 1.273011
0001a0 26 c3 fd 3e bd 01 05 3f 82 07 c6 3e 8d 5f 86 3e
       0.4956295 0.5195578 0.38677603 0.26244774
0001b0 b8 f5 b4 3e c8 ca 77 be c5 f8 9f 3e ad 84 8b bf
       0.3534372 -0.24198449 0.31244484 -1.0899864
0001c0 f8 28 c0 3c 30 27 18 be 10 9e 24 bf fd b9 6f bf
       0.023457035 -0.14858699 -0.64303684 -0.9364317
0001d0 50 23 8f bf ce af 97 bf 61 4a a3 be 74 58 52 be
       -1.1182652 -1.1850526 -0.31892684 -0.20541555
0001e0 4c a5 b1 3f 29 2b 76 3e f3 3c 5a 3f 80 4f a6 bf
       1.387857 0.24039902 0.8524925 -1.2993011
0001f0 24 b5 46 bf de 6b 89 be 22 eb 2d bf 52 d4 82 3f
       -0.7762015 -0.2684011 -0.6793691 1.0221045
000200 1c c0 89 bf 4f a9 db 3e f1 c8 8f bf 8a 22 31 3f
       -1.0761752 0.4290261 -1.1233197 0.6919333
000210 9d fb 4f be fe 8d 51 3d 14 17 b4 bf 60 e7 91 3f
       -0.20310827 0.051160805 -1.4069543 1.1398735
000220 2b 0f b4 3f d6 67 54 be e7 60 a0 bf 08 67 b1 3e
       1.4067129 -0.20742735 -1.2529572 0.3464892
000230 25 e6 5d be bd 76 10 3e ed f4 f0 be 40 e1 f6 3e
       -0.21669824 0.14107795 -0.47061864 0.48218727
000240 3c 09 79 3e 79 1d 6d be cc 8f 06 be 00 fa 7e 3d
       0.24319929 -0.23155774 -0.13140792 0.062250137
000250 26 49 88 3f b3 8c 30 3f b1 c3 1b bf e4 0f a8 bf
       1.0647323 0.6896469 -0.60845476 -1.312985
000260 53 52 0a be 8a 3c ae bf 31 a2 4c 3f a4 98 78 bf
       -0.13507967 -1.3612225 0.79934984 -0.9710791
000270 d4 04 81 3f 6a 06 7b 3b 21 f9 bb bf b5 e5 91 3f
       1.0079598 0.0038303384 -1.4685403 1.1398226
000280 f0 7a 1e 3f af 25 4b bf 6c 29 1c 3f 13 8a eb 3f
       0.6190634 -0.79354376 0.61000705 1.8401512
000290 ca 5c 66 bf 79 7f 85 bf cd 51 d8 3c fd 72 50 3f
       -0.89985335 -1.0429527 0.026406193 0.8142546
0002a0 f2 f4 00 3f 8a 91 33 bf be 23 b0 bd d0 20 4f bd
       0.50373757 -0.7014395 -0.08600567 -0.0505684
0002b0 e1 5c c9 bf cc 28 71 bf 98 32 57 bf 0b 68 9b 3c
       -1.5731469 -0.94202876 -0.84061575 0.01897051
0002c0 e9 96 a3 be 5c 1c a3 bf 9e 94 21 bf dc af 0e be
       -0.31951073 -1.274303 -0.63117397 -0.13934273
0002d0 9d 6c c3 bf 69 be 64 bf 48 4a 24 3d a2 b4 62 bf
       -1.5267521 -0.8935304 0.040109903 -0.88556874
0002e0 97 54 af bf 14 5b f8 bf e0 c9 3a 3f ef e1 ad 3e
       -1.369769 -1.9402795 0.72964287 0.33961436
0002f0 01 60 ca 3f 49 c9 e1 be 1f 4a 65 3f 96 38 5e 3f
       1.5810548 -0.4409888 0.89566225 0.86805093
000300 36 92 93 3f 53 72 6b 3f cd 85 b2 bf bb 4d 06 be
       1.1528995 0.9197132 -1.3947083 -0.1311559
000310 e9 87 a6 bf c6 be d1 bb a9 0f fc be ae 06 75 3d
       -1.3010226 -0.006400916 -0.49230698 0.059820823
000320 9f 57 83 be a7 9b 78 3f 0d f0 5c 3f 24 5f 39 3f
       -0.25652787 0.97112507 0.8630379 0.724108
000330 6c dd 61 bf 5d 7b 1a bf ef fd 25 3f c6 00 dd bf
       -0.8822849 -0.6034449 0.64840597 -1.7265861
000340 2b 95 29 bf 99 59 6c 3f 04 f6 5e 3f cb 33 9f 3e
       -0.6624324 0.92324215 0.8709414 0.31094202
000350 37 4e c8 3f 79 94 a7 be ed 93 ad 3e 3d 04 aa bf
       1.5648869 -0.32730463 0.3390192 -1.3282543
000360 95 21 1f 3e d5 b4 99 3f 29 a6 44 bf ff 02 00 40
       0.15540154 1.200831 -0.7681604 2.0001829
000370 f4 52 80 3f a8 14 1b 3e e1 99 8e 3f 85 52 a7 3d
       1.0025315 0.15144598 1.114071 0.08170036
000380 7f 8c 9d bf 2d 55 e2 3f 0f 2e c6 bd e1 4c a7 3e
       -1.2308501 1.7682244 -0.09676754 0.3267584
000390 79 c0 ef 3f 51 53 17 3e 4d ea ed bd 70 c4 33 3f
       1.8730613 0.14777876 -0.11616955 0.70221615
0003a0 89 e1 37 be 60 f0 af bf a4 31 76 bf d5 2a 8f 3f
       -0.17957129 -1.3745232 -0.96169496 1.1184946
0003b0 1e 1b f7 be 91 96 d1 3f 4f f1 5e bf 08 82 9d bf
       -0.48262876 1.6374074 -0.8708696 -1.2305307
0003c0 97 44 4f 3f 92 91 76 3f e8 ab 2f bf 86 09 09 bf
       0.80964035 0.9631587 -0.68621683 -0.53530157
0003d0 72 9c c0 3f 1c ae 94 be 88 12 10 3f c7 d3 98 3f
       1.5047743 -0.29039085 0.56278276 1.1939629
0003e0 50 e8 1a 3f 64 75 dc be cf f8 4b be 94 fa f9 3e
       0.6051073 -0.43058312 -0.19919132 0.48823988
0003f0 0f bd d7 be 31 d7 d5 be 01 99 3b bd 57 76 e4 bf
       -0.42136428 -0.4176574 -0.045800213 -1.7848614

W_fc f4 [512, 256]
000000 4d 26 58 bf 89 57 49 be b3 f6 0d 3e cc 52 9c bf
       -0.8443344 -0.19662298 0.1386364 -1.2212768
000010 18 1e 42 be da fb e3 bf 20 e5 db be d1 9f e9 bd
       -0.18956792 -1.7811234 -0.42948246 -0.11407436
000020 29 97 8c bf 4e c1 e0 3e 24 27 2f bd cb e8 85 3e
       -1.098363 0.4389748 -0.042761937 0.2615417
000030 25 39 b8 bc 32 c0 52 3f 71 5b 83 3e c6 ef 15 3f
       -0.022488186 0.82324517 0.25655702 0.5856899
000040 af 99 74 bd 73 bf 2d be d4 8f c0 3d 3f 50 fc 3f
       -0.059716877 -0.16967563 0.09402433 1.9711989
000050 62 88 94 3e 8c b6 81 bd a0 d4 8f bd 59 aa e8 3f
       0.29010302 -0.06333646 -0.07022977 1.8176986
000060 f7 bd c0 3e 6d 31 45 be dc 13 d8 3e 2f a0 08 bf
       0.37644932 -0.19257136 0.42202652 -0.5336942
000070 99 71 37 3f fa 57 f5 3f 2b e5 48 3d e0 7d 22 3f
       0.7165771 1.9167473 0.049046677 0.6347332
000080 8b 39 a7 3e 9f 37 4c be 8b c5 af 3e 33 08 0f bf
       0.3266109 -0.19943093 0.343304 -0.55871886
000090 5f 00 df be ca c9 be 3f 00 2f e0 bf cb a5 9d bf
       -0.4355497 1.4905331 -1.7514343 -1.2316221
0000a0 44 81 d2 3f 4c 0e c0 bf f4 9f 73 be 55 a5 17 bd
       1.6445699 -1.5004363 -0.23791486 -0.037022907
0000b0 8f 55 89 bf 1d 0e 32 3e f5 e1 a9 3d ab 81 dd 3e
       -1.0729235 0.17388196 0.08295051 0.4326299
0000c0 28 09 ca be d0 a1 fc bf 71 4b dc bf ff 6d 90 be
       -0.3946011 -1.9736881 -1.7210523 -0.2820892
0000d0 a4 cd 58 bf 5e 75 db 3f 6b 4c ed be d7 66 d2 be
       -0.8468878 1.7145193 -0.46347365 -0.41094086
0000e0 4e b5 82 bf 20 13 2f be eb 1e 3e 3f 57 85 08 be
       -1.021158 -0.1709714 0.7426593 -0.13332115
0000f0 26 c9 8c 3f 29 4f e2 3f e9 60 3c bd 38 ad 5b 3f
       1.0998886 1.7680408 -0.04599086 0.85811186
000100 e9 5f 3e be 9a c9 96 be 5e cb 87 3f 40 63 0c 3f
       -0.18591274 -0.29450685 1.0608938 0.54838943
000110 63 2b cd bf bb d4 7b 3f 57 28 84 3f 09 76 49 3e
       -1.6028866 0.98371476 1.0324811 0.19673933
000120 ca 20 a2 bf 08 b5 e2 3e ff 92 d4 3f c1 d2 a1 bd
       -1.2666256 0.4427874 1.660736 -0.07901526
000130 6d 7b 55 bf ac b3 d9 3e 61 e4 2d 3f 24 6d 87 3f
       -0.8339146 0.4251989 0.67926604 1.0580182
000140 31 ee 5f 3f 2b 55 0f 3f 31 98 b5 3f 3f 63 49 3f
       0.87472826 0.5598933 1.418707 0.7866706
000150 27 72 db 3c 79 04 7a bf 54 41 04 bf f7 1a 3b 3f
       0.02678783 -0.97663075 -0.5166218 0.7308802
000160 b0 22 4c bf d5 e7 01 be d9 04 71 be 34 9c 9f bf
       -0.7974043 -0.12686093 -0.23537005 -1.2469544
000170 80 df be 3f f9 db 58 bf 71 13 63 3e a6 0f fc bf
       1.4911957 -0.8471065 0.22175385 -1.9692276
000180 ae 56 38 3f 28 f0 bc be cd 8e d8 be c8 d1 74 3f
       0.7200726 -0.36901975 -0.42296448 0.956326
000190 b8 b4 71 3e 58 00 60 3f 2d a6 97 3f 62 7a 2d 3e
       0.23604095 0.87500525 1.1847588 0.16941217
0001a0 ec 3e 0d 3e eb 56 80 be 30 42 22 3f 5e 7e d0 bf
       0.13793534 -0.25066313 0.63382244 -1.6288564
0001b0 fc ab 54 bf 00 b5 70 be a6 46 9f 3f 71 9a 48 3f
       -0.8307493 -0.23506546 1.2443435 0.7836066
0001c0 f7 73 53 bf ec b5 28 3f 40 f1 63 3f ac 9d a3 3d
       -0.82598823 0.6590259 0.89039993 0.07989058
0001d0 ac 6c 95 3f 8f e8 c5 bd 40 a3 c7 bf 82 fc d1 3f
       1.1673789 -0.09663498 -1.5596695 1.6405184
0001e0 73 98 b4 3e 35 3c 1c bf 52 36 ba bf 11 5b ad bb
       0.3527256 -0.6102937 -1.4547827 -0.005290397
0001f0 d8 00 c6 be 81 24 04 bf 1a 5c 7b 3e d2 0c 5d bf
       -0.3867252 -0.516182 0.24546853 -0.8634769
000200 9f 36 2f 3f 2e b0 e5 3e fc b6 95 3f 98 8a 34 be
       0.6844272 0.44860977 1.1696467 -0.17630994
000210 fe ef 47 3f 22 91 53 bd c9 c6 34 3f 06 c0 e0 3f
       0.78100574 -0.05165208 0.7061582 1.7558601
000220 cb 18 b5 3f ec 33 31 3f e5 0b d8 bf a3 31 d3 3c
       1.4148191 0.6921985 -1.687863 0.025780505
000230 07 6b 91 be b4 4f 7e 3f 37 36 82 3f a4 5a 0b be
       -0.28401968 0.9934037 1.0172795 -0.13608795
000240 8f 8f 71 be 9d cf e3 bd 5e 63 d6 3e 9a 87 27 bf
       -0.2358992 -0.111235835 0.41872686 -0.65441287
000250 10 32 c6 be ce 23 7c 3e 72 ad 41 3f 11 07 d8 3e
       -0.3871007 0.24623033 0.7565528 0.4219289
000260 60 c7 27 3f da 6c b2 3f 0e a4 5a 3f 54 7e 63 3f
       0.655386 1.3939469 0.8540658 0.88864636
000270 04 fa ad 3f 0b 1c 22 bf 2b a5 cf 3d 89 2b ab bf
       1.3591924 -0.6332404 0.10138925 -1.3372661
000280 76 56 2f 3f 29 cd 3a 3f 38 88 d8 be 8c 86 63 3f
       0.68491304 0.729693 -0.42291427 0.8887718
000290 c4 07 a1 3f 25 9a 1a 3f a0 33 cb 3d de 77 ce be
       1.2580495 0.60391456 0.09921956 -0.40325826
0002a0 46 c1 55 be 41 30 84 3f 06 9d 91 bf af 09 9c be
       -0.20874509 1.0327226 -1.1376045 -0.30476138
0002b0 f8 b5 c8 3e e2 a6 d0 3f 5f f8 40 bf 72 5b 88 bf
       0.3920133 1.6300929 -0.75378984 -1.0652907
0002c0 b5 a9 2c be 13 85 f4 3c ff 30 83 3e dc 27 b2 3e
       -0.16861613 0.029848611 0.2562332 0.34796035
0002d0 fe 33 94 bd b5 e8 2d bf 4b da 29 bf cb 82 30 bf
       -0.07236479 -0.6793321 -0.66348714 -0.68949574
0002e0 68 0e 19 3e 81 2d b3 be c8 90 9d be 51 b3 d4 3f
       0.14946902 -0.34995654 -0.30774522 1.6617223
0002f0 da c3 6e 3e b7 b0 b0 be 47 7f 8e bf 1f 9b 55 3f
       0.23316899 -0.34509823 -1.1132592 0.8343982
000300 eb 43 30 bf 7f fa ec be 06 79 84 3e 35 cf 0d bf
       -0.68853635 -0.46284863 0.25873584 -0.553943
000310 3b 59 d6 be 32 1a d5 3e 5c e8 2a bf 84 62 9b 3e
       -0.41864952 0.41621548 -0.667608 0.303486
000320 34 05 2a be 4d 22 f5 bd c0 28 97 bf 34 dd bc 3e
       -0.16603547 -0.11969433 -1.1809311 0.36887515
000330 cc 32 ac 3f 75 df 85 bc 46 67 f6 bd d5 ec e7 bd
       1.3453002 -0.016341904 -0.120314166 -0.11324469
000340 da 8d e7 be 6d 25 4e 3f a7 e6 32 3f 7e bb ae bf
       -0.45225412 0.8052586 0.698832 -1.3650968
000350 9f 32 19 bf 49 e0 81 bf f1 ea 49 3e 47 17 12 3f
       -0.59842867 -1.0146571 0.1971853 0.5706677
000360 80 29 86 3f 27 b6 1b 3c ec b6 c9 bf ff 76 24 3f
       1.0481415 0.009503878 -1.5758948 0.64244074
000370 32 6c 87 3f 5e 85 30 3e e7 4a 5c 3d 05 9c 9c bf
       1.0579894 0.17238376 0.05378237 -1.2235113
000380 d5 33 ad 3f 30 5a c4 3d 92 ae 77 3e fd c0 67 bf
       1.3531443 0.095875144 0.24187687 -0.9052885
000390 e1 35 02 3f 1e 64 51 bf ac 93 90 bf 52 ce ef be
       0.5086346 -0.8179339 -1.1295066 -0.46837097
0003a0 a5 01 4b bf 3a 47 c9 3f bb 7c 89 bf 8f 1e da 3f
       -0.79299384 1.5724862 -1.074119 1.7040576
0003b0 0b b8 a4 3f 3e d0 cf 3f 2c 38 3d be f0 e0 97 3f
       1.2868665 1.6235425 -0.18478459 1.186552
0003c0 12 fb 5d 3e dc 3a 8a 3f b4 77 4b 3e a9 1c 51 3f
       0.21677807 1.0799212 0.19869882 0.81684357
0003d0 5d 03 b4 bf 31 d8 63 bf d2 22 b9 3e 17 51 eb bf
       -1.4063526 -0.89001757 0.36159378 -1.8384122
0003e0 b7 e0 b3 bd a1 da 1a 3f bb e9 36 3e 33 e5 9c bf
       -0.08783095 0.6048985 0.17862599 -1.2257446
0003f0 15 b1 95 bf 90 23 b0 bf 25 7e c9 bd 14 2b fb 3f
       -1.1694666 -1.3760853 -0.09838513 1.9622521

W_out f4 [256, 5]
000000 16 37 57 40 97 cf 44 bf 00 04 c2 3b cc b9 0b 3d
       3.3627372 -0.76879257 0.005920887 0.034112737
000010 f9 6d 07 be e0 31 64 bf 4a 0f 51 bf d9 6b 1d 3f
       -0.13225545 -0.89138603 -0.81663954 0.6149269
000020 f3 bd 53 3f bd 81 cd 3f 46 ef d8 3e 94 a1 87 bf
       0.82711715 1.6055218 0.4237005 -1.0596185
000030 c6 fb 38 be a5 6e a1 be a9 fc a1 bf e1 79 21 3f
       -0.18064794 -0.31529728 -1.2655231 0.630766
000040 9e 3a 13 be 9a 78 c6 3e a7 73 8c bf 5a fe a1 3f
       -0.1437783 0.38763887 -1.0972794 1.2655747
000050 69 f4 15 40 ef 98 aa be 2b ea 8d 3e 09 10 dd 3d
       2.3430426 -0.33319804 0.27717718 0.10794074
000060 9b ea 78 bf 9a 4c 83 bf a5 f0 b9 bd fd a6 b5 3e
       -0.9723298 -1.0257752 -0.090791024 0.35478964
000070 cd 12 f9 bf 1b d3 87 3f 16 8e 1e 40 35 1b ad bd
       -1.9458863 1.0611299 2.4774222 -0.08452455
000080 7b e9 a2 bf 63 46 4a be 22 91 06 bf f0 c9 e6 be
       -1.2727503 -0.19753413 -0.52565205 -0.4507594
000090 2d ff 01 bf 71 67 a8 3f 76 9c 3f 3d e2 06 46 bf
       -0.5077999 1.3156568 0.046780072 -0.7735425
0000a0 d2 53 22 3f fa 6d a6 be 54 37 37 3e 26 8f a2 bf
       0.6340915 -0.3250578 0.178922 -1.2699935
0000b0 97 9c d2 bf be 27 a6 3f 53 7a 8a 3f d0 d0 00 3f
       -1.6454037 1.2980878 1.081858 0.5031862
0000c0 af 71 97 be bc 02 51 be be 5a ff 3e 1b bf 7a be
       -0.2957892 -0.204112 0.49873918 -0.24486963
0000d0 aa d8 a4 3f a9 d8 00 3f 8e af 8a be 20 89 0b 3f
       1.2878621 0.503306 -0.27087063 0.5450611
0000e0 8c 5e 11 bf e7 cd 25 bc e8 87 ad 3f 3a a6 41 be
       -0.5678489 -0.010119892 1.35571 -0.18911067
0000f0 bf 87 4c be a3 cf 9a be ae a7 eb be 29 13 81 3e
       -0.19973658 -0.3023654 -0.46026367 0.2520993
000100 76 a7 98 3e 10 32 9b bf 4d 53 ba be 9e f7 63 bf
       0.29815263 -1.2124653 -0.36391678 -0.8904971
000110 1a 32 08 3f 71 83 47 bf 08 74 7a 3e ba 7c 48 3f
       0.5320145 -0.7793494 0.24458325 0.7831532
000120 83 3f 4c 3e 6e ff 48 bf bc 7b 65 3f 79 52 a7 bf
       0.19946103 -0.78514755 0.8964193 -1.3072044
000130 4f 8d 75 3e 90 ec a5 3e 16 36 88 3f 56 4c c2 be
       0.23979686 0.32407045 1.0641506 -0.37948865
000140 74 18 f8 3f 89 0d 3e 3f 9c ec 30 3d c7 66 0b 3f
       1.9382463 0.74239403 0.0431944 0.544537
000150 63 15 50 3d f9 c9 b9 bf 8b 74 84 bf 7b 79 89 3f
       0.050801646 -1.4514762 -1.0348066 1.0740198
000160 81 07 49 3f d8 b2 c6 3f 99 ce 72 3e fb 33 8f bf
       0.78527075 1.5523329 0.23711623 -1.1187738
000170 52 ec ff 3d f9 4e 92 be 76 55 34 3e 60 f3 be bf
       0.124962464 -0.28575876 0.17610726 -1.4918022
000180 32 8e 86 be 23 d6 6f 3e e8 30 77 3f 24 cd 6d 3f
       -0.2628036 0.2342153 0.96559 0.92891145
000190 de a8 a4 3f 96 4a 39 bf a8 04 c3 be a2 9c c2 bf
       1.2864034 -0.72379434 -0.3808949 -1.520405
0001a0 78 19 f4 be 2d e0 58 3f 08 65 36 bf e7 93 19 3f
       -0.4767568 0.84717065 -0.7124791 0.59991306
0001b0 38 53 a9 3e d4 c8 93 be d0 67 a3 3f 9f fd a2 bf
       0.33071303 -0.28864157 1.2766056 -1.2733649
0001c0 1f 5b 78 3f c1 1a ba 3e 45 0f 39 bf 60 b9 b4 bd
       0.9701404 0.36348537 -0.72288924 -0.0882442
0001d0 3c 95 19 3f a7 a4 90 3f e9 b7 d7 3e bf c9 54 bf
       0.5999334 1.1300248 0.421325 -0.8312034
0001e0 17 ec e5 bd bf 04 af bf 49 1f da 3e ee 58 fe 3e
       -0.11226671 -1.3673323 0.42601994 0.49677223
0001f0 85 ee b7 be 2f 29 28 40 25 ba 2d bf b2 66 97 3d
       -0.35924163 2.6275136 -0.6786216 0.073926345
000200 c2 66 c8 bd a1 27 95 3f 15 d2 fa be 75 2d b6 be
       -0.097852245 1.1652719 -0.48988405 -0.35581556
000210 89 fc 7e bf 23 34 89 3f 0d e6 49 3e bf 8a 40 bf
       -0.9960409 1.0719036 0.19716664 -0.7521171
000220 d5 01 2c 3e 1c a8 46 bf 8d 05 b5 bf 56 5c f0 3f
       0.16797574 -0.77600265 -1.4142319 1.8778179
000230 1e 45 12 40 b3 63 83 bf 3e 3a 13 3f 1c 87 33 bf
       2.2854686 -1.0264801 0.57510746 -0.70128036
000240 74 23 3f 3e 31 5d f7 be 0b 26 8c bf 86 19 8c 3d
       0.18665868 -0.48313287 -1.094911 0.06840806
000250 b2 0a a7 bf 0b 05 1a be cc d3 c2 3f 77 ab 00 3e
       -1.3050139 -0.15040986 1.5220885 0.12565409
000260 c6 97 c0 bf 47 77 ab 3e f8 7f 54 3f 14 df ef 3f
       -1.5046318 0.3348944 0.83007765 1.8739953
000270 89 4e b9 bf 3c 90 f8 3e 91 1e e1 bf 20 32 22 3f
       -1.4477092 0.48547542 -1.7587453 0.63357735
000280 d4 66 64 bf 82 6d c2 bf 51 0d 66 3f 99 0c 0c be
       -0.89219403 -1.5189669 0.8986407 -0.1367668
000290 8c bb df 3f d5 53 89 3d 92 7a c9 3d 8d 7f d0 3e
       1.747911 0.06705443 0.098378316 0.40722314
0002a0 67 88 86 be 33 2e 2b bf 33 55 35 bd 94 ce 52 3f
       -0.26275942 -0.6686737 -0.044270705 0.82346463
0002b0 65 ed b3 3e ba cb 40 3c 24 57 e9 bf 0a 20 7a bf
       0.35142055 0.011767322 -1.8229718 -0.9770514
0002c0 36 e9 13 be 47 24 05 3f bb 7f 03 bf 31 b8 68 3f
       -0.14444432 0.5200848 -0.51366776 0.90906054
0002d0 24 1d 6b bf e3 a7 45 bf a6 9e 03 bf 9b de 6a bf
       -0.9184134 -0.772093 -0.51413953 -0.9174592
0002e0 66 91 2b be ad c0 dc 3e 3c 0c 35 bf fc fa ba 3f
       -0.16754684 0.4311575 -0.70721793 1.4607844
0002f0 9f 63 1b 3d cd 65 a2 bf d6 53 95 3e b9 6c af be
       0.037936803 -1.2687317 0.29165524 -0.34262636
000300 9d 4d e2 3e c9 6b d1 3f 12 b7 0a 3f 50 d1 e6 be
       0.4419984 1.6361018 0.54185593 -0.45081568
000310 eb c1 33 bf 0d c0 94 3f cc 68 47 be b3 ba dd bf
       -0.7021777 1.1621109 -0.1947357 -1.7322601
000320 36 97 24 3f fd 2b 35 bf a5 06 12 bf 07 fe 27 3e
       0.6429323 -0.70770246 -0.5704139 0.16405497
000330 d7 c6 9e be 6a 0c 74 3f 29 bd 5d bc 15 20 50 3e
       -0.31011078 0.9533144 -0.013533869 0.20324738
000340 2f 3d 32 3e f4 a7 1c bf b8 bc b4 3f fb 8d f9 3d
       0.17406152 -0.61193776 1.4120092 0.12185284
000350 86 cf 99 3e e8 c4 61 3f 75 b6 b7 bf d2 49 16 3e
       0.3004114 0.8819108 -1.4352556 0.14676598
000360 56 25 9b 3d 2e 0f 0a 3d 3f 3d 06 bf 12 2d fb be
       0.07575481 0.033705883 -0.52437204 -0.49057823
000370 2a 06 82 3f 43 87 a9 bf 56 2f 28 be ef 61 bb bf
       1.0158131 -1.3244404 -0.16424307 -1.4639262
000380 c3 97 89 be 62 0a 97 3e 0b b9 71 3e 92 90 52 3f
       -0.26873598 0.2950011 0.23605745 0.82251847
000390 9d 44 bf 3c e3 79 09 bf c4 8d 8d 3f 4c 53 5d be
       0.023348147 -0.5370161 1.1058888 -0.21613806
0003a0 51 f5 a2 3d 52 62 63 3e 72 17 bc 3c bf 90 9b bf
       0.07956947 0.22205475 0.022960398 -1.2153548
0003b0 09 86 a2 3e cf d8 0c bf 8c c5 64 bf 68 f9 88 bf
       0.31742886 -0.55018324 -0.8936393 -1.0701113
0003c0 0b 86 32 3f 83 a4 06 3f 29 33 47 3f 89 53 49 bf
       0.69735783 0.52594775 0.7781244 -0.7864309
0003d0 de c6 03 bf 61 ad eb 3e 4d cf e6 3f 7d e6 35 3f
       -0.5147532 0.46030715 1.8032013 0.7105482
0003e0 f8 d0 b3 3f 31 f4 8b 3f a2 5f d7 3f 96 4e c2 3f
       1.4048147 1.0933896 1.682606 1.5180233
0003f0 87 c7 1c 3f 36 85 41 bf 76 ca f8 3d 0d 9b 56 3f
       0.61241955 -0.7559389 0.12147991 0.8383034

b_conv1 f4 [16]
000000 cd cc cc 3d cd cc cc 3d cd cc cc 3d cd cc cc 3d
       0.1 0.1 0.1 0.1
000010 cd cc cc 3d cd cc cc 3d cd cc cc 3d cd cc cc 3d
       0.1 0.1 0.1 0.1
000020 cd cc cc 3d cd cc cc 3d cd cc cc 3d cd cc cc 3d
       0.1 0.1 0.1 0.1
000030 cd cc cc 3d cd cc cc 3d cd cc cc 3d cd cc cc 3d
       0.1 0.1 0.1 0.1

b_conv2 f4 [32]
000000 cd cc cc 3d cd cc cc 3d cd cc cc 3d cd cc cc 3d
       0.1 0.1 0.1 0.1
000010 cd cc cc 3d cd cc cc 3d cd cc cc 3d cd cc cc 3d
       0.1 0.1 0.1 0.1
000020 cd cc cc 3d cd cc cc 3d cd cc cc 3d cd cc cc 3d
       0.1 0.1 0.1 0.1
000030 cd cc cc 3d cd cc cc 3d cd cc cc 3d cd cc cc 3d
       0.1 0.1 0.1 0.1
000040 cd cc cc 3d cd cc cc 3d cd cc cc 3d cd cc cc 3d
       0.1 0.1 0.1 0.1
000050 cd cc cc 3d cd cc cc 3d cd cc cc 3d cd cc cc 3d
       0.1 0.1 0.1 0.1
000060 cd cc cc 3d cd cc cc 3d cd cc cc 3d cd cc cc 3d
       0.1 0.1 0.1 0.1
000070 cd cc cc 3d cd cc cc 3d cd cc cc 3d cd cc cc 3d
       0.1 0.1 0.1 0.1

b_fc f4 [256]
000000 34 8d d0 3d cd cc cc 3d da a5 cb 3d cd cc cc 3d
       0.10183182 0.1 0.09943743 0.1
000010 1c 3a d0 3d 6a 38 cb 3d 8b ae cf 3d 19 96 cb 3d
       0.101673335 0.099228695 0.10140713 0.09940738
000020 ff 65 ca 3d 2b d9 cd 3d cd cc cc 3d 7d ea cc 3d
       0.098827355 0.10051187 0.1 0.100056626
000030 cd cc cc 3d cd cc cc 3d 12 42 cc 3d 1d d8 cc 3d
       0.1 0.1 0.099735394 0.10002158
000040 bd fc cd 3d cd cc cc 3d 97 b8 cc 3d e2 ca cc 3d
       0.100579716 0.1 0.09996145 0.09999634
000050 cd cc cc 3d 85 eb cd 3d 48 6c cf 3d b7 18 cd 3d
       0.1 0.100546874 0.10128075 0.100144796
000060 cd cc cc 3d 92 13 d2 3d cd cc cc 3d 86 ac ca 3d
       0.1 0.10257639 0.1 0.098961875
000070 f4 00 d0 3d f7 a8 c8 3d ef 8d cf 3d cd cc cc 3d
       0.10156432 0.097978525 0.101344936 0.1
000080 06 3a cb 3d 41 f4 cb 3d 3e 7c ca 3d c7 93 cc 3d
       0.099231765 0.09958697 0.098869786 0.09989124
000090 29 8a c9 3d 85 cd cc 3d ce 6a cd 3d f8 7b cc 3d
       0.09840805 0.10000137 0.10030137 0.09984583
0000a0 5f 3d cb 3d cd cc cc 3d cd cc cc 3d a4 4e cb 3d
       0.09923815 0.1 0.1 0.09927109
0000b0 83 23 cb 3d cd cc cc 3d ff 21 cf 3d cd cc cc 3d
       0.09918883 0.1 0.10113906 0.1
0000c0 cd cc cc 3d fe c4 cc 3d 66 79 d0 3d b0 a7 cd 3d
       0.1 0.09998511 0.10179405 0.100417495
0000d0 6b ec ce 3d cd cc cc 3d cd cc cc 3d 5a d5 ca 3d
       0.10103687 0.1 0.1 0.09903975
0000e0 cd cc cc 3d 9e aa c9 3d cd cc cc 3d de fe cb 3d
       0.1 0.09846996 0.1 0.099607214
0000f0 68 ae cc 3d ba bf cf 3d c3 46 cd 3d a7 7a cb 3d
       0.09994203 0.10143991 0.10023262 0.099355035
000100 cd cc cc 3d 8d 5b d0 3d 9f e1 cd 3d b5 9d c9 3d
       0.1 0.10173712 0.100527994 0.09844533
000110 3d 87 cc 3d cd cc cc 3d 5e d4 cc 3d 04 31 ce 3d
       0.09986732 0.1 0.10001443 0.10067943
000120 26 b4 ca 3d 8b aa cc 3d d8 e5 cb 3d cd cc cc 3d
       0.09897642 0.09993466 0.099559486 0.1
000130 3a 1e cb 3d cd cc cc 3d 7c b5 ce 3d dd c7 cd 3d
       0.09917875 0.1 0.10093209 0.100478865
000140 9d 77 cc 3d b9 4a ce 3d cd cc cc 3d c5 3d cb 3d
       0.09983752 0.10072846 0.1 0.09923891
000150 cd cc cc 3d 44 61 cd 3d f2 94 cc 3d c7 95 ce 3d
       0.1 0.100283176 0.099893466 0.100871615
000160 7e 35 cb 3d 43 e9 cc 3d cd cc cc 3d ea c2 d2 3d
       0.09922312 0.10005429 0.1 0.10291083
000170 9b 36 ce 3d cd cc cc 3d cd cc cc 3d 13 43 ce 3d
       0.10069009 0.1 0.1 0.10071387
000180 79 d0 cc 3d 5c 32 d2 3d 53 65 d1 3d cd cc cc 3d
       0.100007005 0.102635115 0.10224404 0.1
000190 cd cc cc 3d 9c e5 ca 3d 2d 5b cf 3d cd cc cc 3d
       0.1 0.09907076 0.10124812 0.1
0001a0 02 c8 cc 3d 37 ad cc 3d bb f8 cc 3d 0b b8 ce 3d
       0.09999086 0.099939756 0.10008379 0.10093697
0001b0 8c 0b cd 3d 15 85 d3 3d 19 cb cb 3d ff 97 cc 3d
       0.10011968 0.10328118 0.09950847 0.099899285
0001c0 cd cc cc 3d e9 ef cc 3d cd cc cc 3d cd cc cc 3d
       0.1 0.10006697 0.1 0.1
0001d0 cd cc cc 3d 93 88 ce 3d 34 0f cd 3d cd cc cc 3d
       0.1 0.10084643 0.100126654 0.1
0001e0 85 44 ce 3d 0f 0d cb 3d 4f d8 cb 3d be c0 ca 3d
       0.10071663 0.099146 0.09953367 0.09900044
0001f0 8d 4e cd 3d 29 82 cb 3d e9 8d cc 3d e6 f2 ca 3d
       0.10024748 0.099369355 0.09988005 0.099096105
000200 cd cc cc 3d cd cc cc 3d ed 1a d1 3d 76 1d cc 3d
       0.1 0.1 0.10210214 0.09966557
000210 e8 25 cb 3d cd cc cc 3d 01 82 ca 3d 55 8d cc 3d
       0.099193394 0.1 0.098880775 0.099878944
000220 e3 5f cc 3d 8b 26 d2 3d b3 61 cc 3d e3 b7 c8 3d
       0.099792264 0.10261258 0.09979572 0.098006986
000230 cd cc cc 3d cd cc cc 3d 8a e5 ca 3d 64 bb c8 3d
       0.1 0.1 0.09907062 0.09801367
000240 89 e8 d3 3d a2 cb cb 3d db ab c6 3d 7b 47 cf 3d
       0.10347087 0.09950949 0.097007476 0.10121056
000250 e4 dd ca 3d cd cc cc 3d cd cc cc 3d fb da cb 3d
       0.099056035 0.1 0.1 0.099538766
000260 57 47 cb 3d 9b e9 ca 3d cd cc cc 3d b0 a1 cc 3d
       0.09925716 0.09907838 0.1 0.09991777
000270 e1 a5 cc 3d 5f c1 cb 3d f8 fe cc 3d 4a 8c d2 3d
       0.099925764 0.09948992 0.10009569 0.10280664
000280 cd cc cc 3d 90 a2 cb 3d 91 fc cb 3d ee d8 cc 3d
       0.1 0.09943116 0.099602826 0.100023136
000290 fd 73 cb 3d 0e c1 cb 3d 45 cd cc 3d 73 ad cc 3d
       0.099342324 0.09948932 0.100000896 0.0999402
0002a0 09 d1 ca 3d 96 c6 cc 3d 6f d6 c8 3d 81 52 cf 3d
       0.099031515 0.09998815 0.09806525 0.10123158
0002b0 3a 9b cd 3d bc d0 c9 3d 97 08 cc 3d 62 be d0 3d
       0.10039373 0.09854266 0.09962576 0.10192563
0002c0 26 d7 cc 3d cd cc cc 3d cd cc cc 3d 5f 7a cb 3d
       0.10001974 0.1 0.1 0.0993545
0002d0 cd cc cc 3d 6b b7 cb 3d 66 76 cc 3d 6b 6f c9 3d
       0.1 0.099470936 0.0998352 0.098357044
0002e0 cd cc cc 3d cd cc cc 3d 49 0c ca 3d e5 b1 cc 3d
       0.1 0.1 0.098656245 0.09994868
0002f0 f2 94 c9 3d 59 b8 cc 3d cd cc cc 3d 48 a9 d0 3d
       0.09842862 0.09996099 0.1 0.10188538
000300 d1 24 cb 3d f8 81 d2 3d 9c 23 cb 3d 78 e5 cb 3d
       0.099191315 0.10278696 0.09918901 0.09955877
000310 18 4a cb 3d 28 23 cb 3d 7a 48 cd 3d 18 e8 cb 3d
       0.09926242 0.09918815 0.100235894 0.09956378
000320 cd cc cc 3d d5 bf cd 3d 5b d0 cc 3d 67 59 cb 3d
       0.1 0.10046355 0.10000678 0.099291615
000330 d1 e9 cf 3d cd cc cc 3d cd cc cc 3d 42 b2 cc 3d
       0.10152019 0.1 0.1 0.099949375
000340 f2 8d cf 3d 26 9c cd 3d cd cc cc 3d 90 f7 cb 3d
       0.10134496 0.100395486 0.1 0.09959328
000350 4f 01 d0 3d 09 f6 cc 3d 63 23 cf 3d cd cc cc 3d
       0.101564996 0.10007865 0.10114171 0.1
000360 14 21 d3 3d 65 86 cc 3d 22 11 cd 3d 00 76 cb 3d
       0.103090435 0.09986571 0.100130334 0.09934616
000370 cd cc cc 3d cd cc cc 3d 06 6c cc 3d d9 ac cc 3d
       0.1 0.1 0.09981541 0.099939056
000380 bd 6d cb 3d 44 8c ce 3d b5 83 cc 3d cd 16 cb 3d
       0.0993304 0.10085347 0.099860586 0.09916458
000390 cd cc cc 3d f1 0b cf 3d 0e 31 d0 3d cd cc cc 3d
       0.1 0.101096995 0.101656064 0.1
0003a0 cd cc cc 3d 97 a5 cc 3d 33 01 d1 3d 4f 2f cd 3d
       0.1 0.09992521 0.10205307 0.10018789
0003b0 63 d9 ce 3d 92 60 ce 3d 45 b7 cc 3d cd cc cc 3d
       0.10100057 0.10077013 0.099958934 0.1
0003c0 3a a2 cc 3d 7e 8d ce 3d 47 64 cc 3d 79 11 cc 3d
       0.0999188 0.10085581 0.09980064 0.0996427
0003d0 4f f1 cb 3d 0e c2 cc 3d 7c c0 cc 3d e1 bc ce 3d
       0.09958135 0.099979505 0.09997651 0.100946195
0003e0 5c db cb 3d cd cc cc 3d 2d f0 d1 3d 42 ca cc 3d
       0.09953949 0.1 0.10250888 0.09999515
0003f0 5e de cb 3d ac c9 cc 3d eb c6 c9 3d af 06 cb 3d
       0.099545226 0.09999403 0.09852394 0.09913384

b_out f4 [5]
000000 6f 5b d0 3d 0f 04 cd 3d d7 03 cd 3d a5 f5 cc 3d
       0.101736896 0.1001054 0.10010498 0.100077905
000010 eb 32 cd 3d
       0.100194775
