Models/Tensorflow/model_local9_diamond.npz (npz, 552614 bytes, 8 tensors)

W_conv1 f4 [3, 3, 3, 16]
000000 a8 cb 04 bf 4d 4d ae 3e ee d6 0d 3f 05 31 d7 3d
       -0.51873255 0.3404335 0.5540608 0.105073966
000010 61 f2 7a bf 49 bb 8f be 0a f5 68 3f 99 8a 0c 3f
       -0.9802609 -0.28072575 0.909989 0.54898983
000020 cb 5f be 3f 51 0b 64 bf 46 ea b1 bf 42 9a 03 c0
       1.4872984 -0.8907977 -1.389962 -2.0562901
000030 29 e6 48 3f d0 26 ba be d4 fc ee 3d 39 a1 d1 be
       0.78476197 -0.36357737 0.11669317 -0.40943316
000040 70 fc a5 bf 8b ee 26 3e 11 47 8b 3e 75 d6 b2 3e
       -1.2967663 0.16301934 0.27202657 0.34929243
000050 78 b7 a8 3f 70 c9 ce 3f d8 37 37 be ef 2d a7 bd
       1.318099 1.6155224 -0.17892396 -0.08163058
000060 42 7f f3 3f f3 f8 8e 3f f9 5a db bf 6e f5 0b c0
       1.9023211 1.1169723 -1.7137138 -2.1868548
000070 98 9f 29 bf 0c e9 d9 3f 9b 2c 20 bf 6a 17 33 3f
       -0.66259146 1.7024245 -0.6256806 0.699576
000080 95 72 c7 3e 06 6b 81 3f 83 95 fa 3f 74 78 e5 3f
       0.38954607 1.0110786 1.9576877 1.7927384
000090 78 da 18 3f 99 70 df be c7 3d b1 bf a3 07 b2 3f
       0.59708357 -0.43640593 -1.3846978 1.390858
0000a0 c1 78 75 bf e2 91 0a 40 c3 8d 26 bf b0 a6 97 bf
       -0.9588738 2.165154 -0.6506006 -1.1847744
0000b0 8a 77 0b 3f 8c 6b 37 3d 6d 00 90 3f df c1 8a 3f
       0.5447928 0.0447803 1.125013 1.0840415
0000c0 7d 71 f2 3f 5e a1 99 be f0 c3 d1 bd f5 40 8a bf
       1.8940884 -0.30005926 -0.1024245 -1.0801073
0000d0 89 b9 69 3e 38 62 4e 3e d8 d8 38 be f2 36 e3 3e
       0.22824682 0.20154655 -0.1805147 0.44377857
0000e0 6c a5 15 bf c1 be 9e be 86 38 9e 3f 93 e7 c2 bf
       -0.5845554 -0.3100491 1.2361 -1.5226921
0000f0 74 c0 58 be a6 ab 14 be 53 c5 ef bf 40 9e da bf
       -0.21167165 -0.14518604 -1.8732094 -1.7079544
000100 7b 3b e8 bf 0a 3e 65 3f bb ca ff 3f 84 02 87 bd
       -1.8143152 0.8954779 1.9983743 -0.06592277
000110 33 ca 4f 3f dc 90 63 bf 5a 6c 75 bd 80 14 6d be
       0.81167907 -0.8889291 -0.059917785 -0.23152351
000120 46 fc a9 3f f6 5f 1a 3f ed 64 28 3f 3c 56 23 3f
       1.3280113 0.60302675 0.65779 0.6380346
000130 0e 3d 13 40 a9 a8 61 bf d7 53 37 bf 6b 8c 9f bf
       2.3006015 -0.8814798 -0.71612304 -1.2464727
000140 89 03 bd be a8 70 9a bf 90 62 22 3f 92 54 87 3e
       -0.3691676 -1.206563 0.63431644 0.2643171
000150 53 87 ef 3e 1c db b1 bf 30 69 b4 3f c8 8e db be
       0.46782932 -1.3894992 1.4094601 -0.4288237
000160 b9 e9 4d bf f0 f9 79 bf f1 3f ed be ac 02 45 bf
       -0.8043476 -0.97647 -0.46337846 -0.769572
000170 5b c9 fd 3d f6 51 59 3e e6 74 27 bf 26 f6 e7 3e
       0.12391921 0.21222672 -0.6541275 0.45304984
000180 ce 10 78 bf ee 61 db be e9 da 13 3f cd e3 81 3e
       -0.9690064 -0.42848152 0.57755905 0.2536911
000190 b4 ba 76 bd f1 52 b2 bf eb 0a 49 bd 1f 23 ba bf
       -0.060236648 -1.3931562 -0.049082678 -1.4541968
0001a0 cc 57 05 bf ad 04 1e 3f d4 f2 7c 3e 2c b3 96 bf
       -0.5208709 0.61725885 0.24702007 -1.1773429
0001b0 0b 6d 0a c0 0e db a7 3f 7d e3 dc bf d3 07 8a bf
       -2.1629055 1.3113725 -1.7256924 -1.0783638
0001c0 c5 aa 02 3f 27 ba 7d 3f 4d dc 9d 3f 15 fa 62 bf
       0.51041824 0.9911217 1.2332855 -0.88662845
0001d0 f1 d8 a1 3f 7b 7d f2 be bd 34 a9 3f 71 33 5c 3f
       1.264433 -0.4736136 1.321922 0.86015993
0001e0 a9 3f bd 3f 09 d2 59 3e c9 67 fb be 32 30 cc bf
       1.4785053 0.21271528 -0.4910262 -1.5952208
0001f0 aa 2c e3 3e eb 74 d8 3e 0b 34 4b be ee 6e 98 be
       0.44370013 0.422767 -0.19844072 -0.29772133
000200 3c e5 50 bf 16 df 36 bf ec 8d 32 3f 37 d3 d2 be
       -0.81599784 -0.7143415 0.69747806 -0.4117677
000210 7f a0 b2 3e 06 d5 eb be 80 5b 84 3e 63 2e 0c bd
       0.34888074 -0.4606096 0.2585106 -0.034223925
000220 f8 c5 a2 be a3 e4 87 3f 9b a4 ef 3f 44 2d 19 3f
       -0.31791663 1.0616649 1.8722109 0.59834695
000230 c9 78 8d bf a3 a0 73 bf 45 20 19 bf 1c f5 fd bf
       -1.1052486 -0.9516699 -0.59814864 -1.9840426
000240 f4 3d 67 bd ef da fe be 08 8c 87 bf de 5a 71 bf
       -0.056455567 -0.49776408 -1.0589609 -0.9427928
000250 16 16 37 3e bf 33 0f 3f b4 97 75 bf 32 4b 47 3f
       0.17879519 0.55938333 -0.95934606 0.77849114
000260 69 08 97 3e e7 21 03 3f 70 79 8f 3e d5 89 dc bf
       0.29498604 0.51223606 0.28022337 -1.7229563
000270 7c 03 52 be ab 2c be 3f 63 79 f4 3e f8 95 ab bf
       -0.20509142 1.4857382 0.4774886 -1.3405142
000280 7b f4 df 3c 93 d8 29 be 4e 91 22 3f d9 78 24 3f
       0.027338257 -0.16586523 0.6350297 0.642469
000290 c7 6e 84 be ec 7c 91 3d d1 82 74 bf 23 3c a7 bf
       -0.25865766 0.07103905 -0.9551211 -1.3065227
0002a0 61 58 c9 be 77 17 8e 3f aa 89 5b 3d 96 85 2b 3f
       -0.3932524 1.1100911 0.053598084 0.6700071
0002b0 b4 2e 27 be 1a 3d 2b be f8 f7 4c 3e ae 9d c2 bd
       -0.1632641 -0.16722527 0.20016468 -0.09502731
0002c0 fc ea 9f bd 1d 0e c5 3e 0f 74 a5 be 32 bd 85 bf
       -0.078084916 0.3848733 -0.32315108 -1.0448363
0002d0 a9 b7 86 bf 6b 66 2c be 8f 6d 41 3f 0f 5a 31 3f
       -1.0524799 -0.16835944 0.755578 0.69278044
0002e0 95 0e b4 be 3c 18 be 3f e3 68 0a 3c 25 ba 52 bf
       -0.35167375 1.4851146 0.0084478585 -0.82315284
0002f0 8b 52 4c 3f 68 ce 89 bd fc cd 06 3f 66 cc 5c 3f
       0.7981345 -0.06728822 0.5265806 0.8624939
000300 06 3f 04 40 9e 31 ad bf 04 d3 7b 3f 2f 74 34 3f
       2.0663466 -1.3530767 0.9836886 0.7048978
000310 fb e5 30 3c 2d c3 6d be 8e 9d aa bf 79 55 0f bf
       0.010797019 -0.23218985 -1.3329332 -0.55989796
000320 34 d2 ad bf 65 0a e5 3e a3 7d 5e 3f fb f9 bc 3d
       -1.3579774 0.44734493 0.86910456 0.092273675
000330 31 cd 51 3e ac 13 9f 3d ab 04 56 bf fd 64 eb 3e
       0.2048843 0.07767424 -0.8360087 0.45975485
000340 b9 6c ac 3f f9 5a b2 3f 14 71 9b bf 7f 22 28 3f
       1.347068 1.3934013 -1.2143884 0.65677637
000350 de 5a 3b bf 98 2f d0 3f da 87 f1 3e f8 50 6c 3f
       -0.7318553 1.6264524 0.4717396 0.9231105
000360 99 26 85 bf 11 f0 a0 3f 0d 48 09 bf 2c 58 33 3f
       -1.0402404 1.2573262 -0.53625566 0.70056415
000370 06 ab 6e 3e 44 fe 06 bd 77 e3 d6 bf 93 51 96 bf
       0.23307428 -0.03295733 -1.6788167 -1.1743644
000380 e1 be e1 bf 1f cd 21 bf c7 ef 9e 3f e1 d1 57 3f
       -1.7636377 -0.63203615 1.2416924 0.84304625
000390 35 a8 ce be 2c 9d 5b 3e 29 25 48 be c7 60 cd 3c
       -0.40362707 0.21446675 -0.19545425 0.025070561
0003a0 1c 19 81 3f f5 32 97 bf 81 9c 69 bf 7e 03 8f bf
       1.0085788 -1.1812426 -0.9125443 -1.1172941
0003b0 17 29 1a 3e 56 86 8d bf 4d 77 96 3f e7 68 e4 3e
       0.15054737 -1.1056621 1.1755158 0.44611284
0003c0 e7 30 8f 3f ba ab b8 be b6 86 0a 3f a9 7e 74 bf
       1.1186799 -0.36068517 0.541118 -0.9550577
0003d0 46 1b a8 3c 6f d0 44 bf 9b dc 58 3f e8 80 e1 3e
       0.020520817 -0.76880544 0.8471162 0.4404366
0003e0 ec 5a a2 bf db 8a ee 3e be dc 56 bf 33 dc 04 be
       -1.2683997 0.46590313 -0.83930576 -0.12974624
0003f0 c8 b0 c7 bf 39 f0 8c 3e 55 19 b6 3e 6a 51 35 3f
       -1.5600824 0.27527025 0.35566202 0.70827353

W_conv2 f4 [3, 3, 16, 32]
000000 62 38 7c bf 90 cd c4 3f b0 99 71 3e 3a 8d 57 bc
       -0.98523533 1.5375233 0.23593783 -0.01315623
000010 97 ff 00 3f 84 4f cb 3f 9a 75 86 3e aa 07 c2 bf
       0.5039 1.5883641 0.26261598 -1.5158589
000020 14 cd ad 3f b3 33 07 3f 7d 29 69 bf be a4 46 3e
       1.357821 0.5281326 -0.9107893 0.19398782
000030 a5 2b 42 3f a5 ae 8d be 27 e0 a9 bd cc 3a 4f 3f
       0.75847846 -0.27672306 -0.08294707 0.8094909
000040 fa 5d 32 be d8 57 c1 bc 1a 93 93 3e c5 c2 02 3f
       -0.17418662 -0.023601457 0.28823167 0.51078445
000050 b8 30 cb be a3 7b 4a bd 84 f1 fd be 96 c5 3a 3e
       -0.39685607 -0.049434315 -0.49598324 0.18239436
000060 fb af 40 bf 77 96 9e 3e d6 e7 ca 3e 09 d0 8c 3f
       -0.75268525 0.3097417 0.39630002 1.1000987
000070 f4 93 9f bf 67 40 8b 3d d9 07 d2 be 32 52 6b 3e
       -1.2467027 0.06799393 -0.41021612 0.22980574
000080 5b 13 c3 bf 77 3d 83 3e f4 33 28 3f 86 7c b6 be
       -1.5240282 0.2563283 0.65704274 -0.3564188
000090 3e f2 96 3f 9d c5 e7 3e e0 18 c2 3e e8 26 33 3e
       1.1792676 0.45267954 0.37909603 0.1749531
0000a0 bd 60 03 bf cc 4d d2 be d5 43 e5 3f dc 36 37 3f
       -0.51319486 -0.4107498 1.7911326 0.71568084
0000b0 ed 4d de be 09 71 7f bf 84 92 54 bf c1 c0 00 c0
       -0.43418828 -0.9978185 -0.83036065 -2.0117648
0000c0 b5 6c ca 3e 64 6f c5 3c 99 61 4b 3e 91 4f c9 bf
       0.39536062 0.024100967 0.1986145 -1.5727407
0000d0 ff 1c 26 3f f2 52 60 3f ea 64 8e be 64 7b c1 bf
       0.64887995 0.87626565 -0.27811366 -1.5115781
0000e0 2e 76 14 3f d0 04 db bf 45 90 b6 bf 07 f7 2b 3f
       0.5799283 -1.7110844 -1.4262778 0.6717381
0000f0 34 5e 92 3f 1b 01 b5 3d c9 a4 40 bf 13 1a b6 3f
       1.1434999 0.088381015 -0.7525144 1.4226707
000100 10 58 80 3e 4d 76 05 c0 72 ed c7 bf ed 5d b5 bf
       0.25067186 -2.0853455 -1.5619338 -1.4169289
000110 0f 43 cc 3f 42 a1 47 3f 29 69 0b 3f 78 63 40 3f
       1.5957965 0.77980435 0.54457337 0.7515178
000120 3b 5d 85 3e d1 22 7c bf 1e 98 69 3d 28 69 d3 3d
       0.26047692 -0.98490626 0.057029836 0.10322791
000130 68 05 d2 3e 81 e1 3a bf be 90 90 bf d3 84 a0 bf
       0.4101975 -0.7300034 -1.1294172 -1.2540535
000140 e6 b9 42 bf 33 86 a4 be 2c 16 bf 3e 96 53 96 be
       -0.7606491 -0.32133636 0.37321603 -0.29360646
000150 6f b8 f9 be 14 86 c2 bd 71 7b 34 3f ed 92 0a bf
       -0.48773524 -0.094982296 0.70500857 -0.5413044
000160 c2 5d e0 3e b5 b7 cd 3e 52 5f 21 3e 8c a9 b4 be
       0.43821532 0.4017922 0.15759018 -0.35285604
000170 8d 44 f9 3f 7c 39 ec bf 59 21 0f 3e ca 8f de bf
       1.9474045 -1.8455043 0.13977565 -1.7387631
000180 4d fe da be 7c b5 43 3f 3c 40 dd 3e f9 1d e5 bf
       -0.4277214 0.764488 0.4321307 -1.7899772
000190 46 48 99 be 21 73 8a 3f 44 5d f6 3d 26 7e 99 3f
       -0.29937953 1.0816385 0.12029508 1.1991622
0001a0 10 0f 08 3f 46 a0 f5 3e 1f 4d c0 3e e6 1c 8b 3e
       0.53147984 0.4797384 0.3755884 0.27170485
0001b0 39 f5 15 3e 96 f9 f2 bd ed 29 36 3e 73 65 80 bf
       0.14644326 -0.11864011 0.17789431 -1.003096
0001c0 b3 fc 12 bb 6f 4d 35 be d2 50 22 bf 53 62 43 bf
       -0.0022428453 -0.1770532 -0.6340457 -0.76321906
0001d0 af 50 97 bf 45 9d 8e bf 43 24 9a be c7 70 3e be
       -1.1821498 -1.1141745 -0.3010579 -0.18597709
0001e0 43 b9 b0 3f 4e e5 61 3e f1 4f 7a 3f 78 78 a3 bf
       1.3806537 0.22060129 0.9777823 -1.2771139
0001f0 16 27 41 bf f4 9e ea be 18 08 23 bf 4d 74 87 3f
       -0.75450265 -0.45824397 -0.63684225 1.0582367
000200 ad 3a 5b bf e9 5e ca 3e 54 59 a7 bf c8 21 20 3f
       -0.8563641 0.39525536 -1.3074136 0.62551546
000210 44 38 64 be 2d 6f 1c bc cf 60 ae bf 2b 0d 97 3f
       -0.22287089 -0.009547991 -1.3623294 1.1800894
000220 8f 36 b6 3f 84 81 8c bd e9 b1 97 bf d8 09 b1 3e
       1.42354 -0.06860641 -1.1851169 0.34577823
000230 e1 7e 4a be af 65 6a 3d 63 11 db be 50 57 ad 3e
       -0.19774963 0.05722588 -0.42786703 0.33855677
000240 34 ec 7d 3e 52 2e ad bd de 95 41 bd 0f 72 28 3d
       0.24797136 -0.084561005 -0.047262065 0.0411244
000250 da 60 8e 3f 55 d4 5f 3f e0 aa 2d bf d1 d5 a3 bf
       1.1123307 0.8743337 -0.6783886 -1.2799627
000260 09 08 a9 bd 27 bf b4 bf 0d 37 35 3f 00 15 83 bf
       -0.08253486 -1.4120835 0.70787126 -1.0240784
000270 27 c1 61 3f bc fd 3f bd c4 f5 d8 bf e2 28 9b 3f
       0.8818535 -0.04687284 -1.6950002 1.2121851
000280 5a f1 ec 3e cf c1 31 bf 63 b8 27 3f 8e 23 f8 3f
       0.46277887 -0.69436353 0.65515727 1.938585
000290 fe 21 3e bf 7e 49 80 bf 58 b6 c3 bd b6 ab 45 3f
       -0.7427062 -1.0022428 -0.09556264 0.77215135
0002a0 a5 2e 1d 3f c9 2f 35 bf 1e 3d 8e be ba 63 3e bd
       0.613993 -0.7077604 -0.27781004 -0.046481825
0002b0 39 7a cf bf 6d a4 5c bf 2e 4f 46 bf ad db ec 3d
       -1.6209174 -0.86188394 -0.7746457 0.11565337
0002c0 57 64 8a be 5e 62 a8 bf d7 f3 00 bf 6a 84 ae bd
       -0.27029678 -1.3155019 -0.5037207 -0.0852135
0002d0 2f 47 c6 bf 70 65 5f bf 9e 9e c8 3b 1c d6 40 bf
       -1.5490474 -0.87264156 0.0061224243 -0.75326705
0002e0 39 3a b5 bf d9 79 e8 bf a1 b1 4d 3f d8 2b ea 3e
       -1.4158393 -1.8162185 0.80349165 0.45736575
0002f0 9b 66 c5 3f a3 2c e3 be 0c 14 55 3f 4e d4 50 3f
       1.5421938 -0.44369993 0.83233714 0.8157395
000300 4e c9 9a 3f f3 68 7f 3f 7f d2 b4 bf b4 a2 84 bd
       1.2092683 0.99769515 -1.4126738 -0.06476346
000310 62 40 b7 bf d3 0e 03 bc 6e 92 e3 be e3 ae 02 3e
       -1.4316523 -0.00799914 -0.44447654 0.12762026
000320 25 cd be bd 7f f7 7d 3f b9 de 71 3f e1 86 2c 3f
       -0.09316472 0.99205774 0.9448047 0.6739331
000330 5e 80 0d bf 3e 9b 44 bf 47 dc 51 3f 85 32 f2 bf
       -0.55274 -0.7679938 0.8197674 -1.8921667
000340 05 7d 23 bf 41 12 67 3f c5 7b 5e 3f ef e1 5e 3e
       -0.6386264 0.9026223 0.8690761 0.21765874
000350 4e 0e e4 3f 20 8a b5 be 54 b2 ab 3e f8 cf a8 bf
       1.7816865 -0.35456944 0.3353449 -1.3188467
000360 b9 48 20 3e 57 7e a4 3f 20 f5 55 bf de 6a f8 3f
       0.15652741 1.2851056 -0.83577156 1.9407613
000370 8f 67 86 3f d5 11 2a 3e b5 03 8b 3f ff 7e 1d 3e
       1.0500354 0.16608365 1.0860506 0.15380476
000380 ee 89 9f bf 3a 80 f1 3f af c9 94 3b bb ce ab 3e
       -1.2463968 1.8867257 0.004540644 0.3355616
000390 78 87 e5 3f 33 e5 3b 3e c4 be 18 bd 8f 3b 37 3f
       1.7931967 0.18349151 -0.037291303 0.71575254
0003a0 b2 44 a2 3d 6c d6 ab bf b9 16 5b bf fe 9c 9b 3f
       0.07923259 -1.3424811 -0.8558155 1.2157285
0003b0 e6 63 f9 be 3b d5 cb 3f fb ef 4b bf 70 87 a8 bf
       -0.4870903 1.5924448 -0.79663056 -1.3166332
0003c0 1a 4c 5b 3f b7 8c 80 3f 2a 2d 19 bf ee 94 f2 be
       0.85662997 1.0042943 -0.5983454 -0.4737925
0003d0 1f 37 cb 3f 97 b5 5d bd 75 ab e4 3e b3 3b 9d 3f
       1.5876197 -0.054128256 0.4466206 1.2283844
0003e0 3c 0e 18 3f df f0 be be 0a 5e 7f be 43 fc df 3e
       0.5939672 -0.37293145 -0.24938217 0.43747148
0003f0 e8 17 da be df bd ad be 53 32 1f be 9c ab de bf
       -0.42596364 -0.33933923 -0.15546541 -1.7396121

W_fc f4 [512, 256]
000000 d5 2e 4e bf 89 57 49 be 77 ba 0a 3e a9 a9 9c bf
       -0.8054021 -0.19662298 0.13547693 -1.2239276
000010 b0 c5 52 be f4 b1 e4 bf 71 68 ed be e5 a2 c7 bd
       -0.20583224 -1.7866807 -0.46368745 -0.097478665
000020 50 41 8a bf d9 68 c1 3e 24 27 2f bd fd 48 9f 3e
       -1.0801182 0.37775305 -0.042761937 0.31110373
000030 3b 90 ac bc d6 67 4b 3f 52 7c 74 3e e6 b7 12 3f
       -0.021064868 0.79455316 0.2387555 0.57311857
000040 c2 40 85 bd 82 3e 2e be 2a 66 c1 3d 08 63 fb 3f
       -0.06506492 -0.17016032 0.094433144 1.9639597
000050 62 88 94 3e a7 ca 39 bd fe 06 1a 3c 40 e8 e8 3f
       0.29010302 -0.04535928 0.009401081 1.8195877
000060 e9 dc c3 3e 98 cf 50 be cc f5 d8 3e 39 d2 0a bf
       0.3825448 -0.2039169 0.42375028 -0.54227024
000070 8f 9d 48 3f 42 8d f8 3f 0d 29 06 3d 52 cf 26 3f
       0.78365415 1.9418108 0.032753993 0.65160096
000080 e5 2e c0 3e 0c ac 62 be cb 59 8b 3e 52 54 10 bf
       0.37535778 -0.22135943 0.27216944 -0.5637866
000090 d7 37 e3 be 93 6e bf 3f eb 05 e4 bf 89 b4 9d bf
       -0.4437854 1.495562 -1.7814306 -1.232072
0000a0 e4 b5 d5 3f 4c 0e c0 bf 52 9d 70 be 44 0e 5d bd
       1.6696134 -1.5004363 -0.23497513 -0.053968683
0000b0 53 59 8a bf 39 dd 31 3e 45 ea a3 3d ab 81 dd 3e
       -1.080851 0.17369546 0.08003668 0.4326299
0000c0 20 09 ca be b4 ec 02 c0 14 fc df bf e0 ff a5 be
       -0.39460087 -2.0456972 -1.7498803 -0.3242178
0000d0 6f cc 53 bf 5e 75 db 3f 78 e8 e2 be c3 88 b8 be
       -0.82733816 1.7145193 -0.44317985 -0.3604184
0000e0 93 ba 82 bf 31 7a 54 be eb 1e 3e 3f 20 6e 72 bd
       -1.0213188 -0.20749737 0.7426593 -0.059187055
0000f0 03 11 8c 3f 50 a9 e5 3f af db eb bd ea 60 5c 3f
       1.0942692 1.7942295 -0.11516511 0.8608538
000100 e9 5f 3e be 89 72 94 be 81 31 94 3f 14 f3 05 3f
       -0.18591274 -0.28993633 1.1577607 0.5232403
000110 fc 83 d1 bf bb d4 7b 3f a2 63 71 3f 99 82 5e 3e
       -1.6368403 0.98371476 0.9429265 0.21729507
000120 c0 4e a3 bf ea 4c df 3e 8d d0 ce 3f af ab a7 bd
       -1.2758408 0.43613368 1.6157395 -0.08187043
000130 27 3e 3a bf ac b3 d9 3e d0 fe 26 3f bd 77 7e 3f
       -0.72751087 0.4251989 0.65232563 0.99401456
000140 cd 76 65 3f d9 40 17 3f 46 02 b6 3f 6c 15 55 3f
       0.896344 0.59083325 1.4219444 0.8323581
000150 30 e6 05 3d bc 31 7b bf 62 b4 03 bf 42 57 3c 3f
       0.032690227 -0.98122764 -0.5144712 0.73570645
000160 62 ac 48 bf 17 a1 03 be d9 04 71 be 6b 66 a3 bf
       -0.78388035 -0.1285442 -0.23537005 -1.276563
000170 18 50 bf 3f a7 52 5b bf ab 83 58 3e ca 0e fc bf
       1.4946318 -0.8567299 0.21143977 -1.9692013
000180 24 04 38 3f 8f 5e c1 be 53 94 07 bf 41 0c 73 3f
       0.7188132 -0.37767455 -0.529607 0.9494057
000190 8e f7 6f 3e b0 71 61 3f 03 a5 97 3f c1 a7 2a 3e
       0.23434278 0.880641 1.1847233 0.16665556
0001a0 8a 5e 07 3e 8e 20 88 be 5f 57 23 3f 8a 32 cd bf
       0.13219658 -0.26587337 0.6380519 -1.6031048
0001b0 a9 d2 54 bf 94 c8 2d be 89 7e 9f 3f 30 cc 48 3f
       -0.8313394 -0.16971046 1.246049 0.78436565
0001c0 6c fb 52 bf 0c fd 27 3f 5e ca 63 3f ac 9d a3 3d
       -0.8241489 0.65620494 0.8898066 0.07989058
0001d0 c3 6d 95 3f 5a 7b e2 bc e6 e4 d0 bf 88 fe d1 3f
       1.1674122 -0.02764671 -1.6319854 1.6405802
0001e0 8f 3d aa 3e a4 1a 24 bf 67 76 ba bf 34 8e 37 bd
       0.3325009 -0.6410315 -1.4567384 -0.04481335
0001f0 5c 25 cf be 58 c1 05 bf 2e 97 76 3e d1 21 63 bf
       -0.4045819 -0.52248144 0.24081108 -0.88723475
000200 a6 36 2f 3f 97 af e5 3e 1f 0e 9c 3f 1e 10 0c be
       0.6844276 0.44860527 1.219181 -0.13678023
000210 48 8f 44 3f 54 93 53 bd 6d 8a 31 3f e4 b1 d9 3f
       0.7678113 -0.051654175 0.69351846 1.7007413
000220 7e fc b4 3f c2 8e 30 3f 35 a3 dd bf e6 5d a3 3c
       1.4139555 0.6896783 -1.7315432 0.019942235
000230 07 6b 91 be a1 f1 7c 3f 81 22 83 3f e6 be 73 be
       -0.28401968 0.98806196 1.0244905 -0.2380329
000240 0c 69 f6 bd f6 cb ce bd 46 d4 b9 3e c0 ea 26 bf
       -0.12031755 -0.10097496 0.36294764 -0.6520195
000250 ff 84 c2 be da 59 7c 3e 18 aa 41 3f c9 da cb 3e
       -0.37992093 0.2464365 0.7565017 0.39815357
000260 45 2a 28 3f b8 2e b6 3f 27 a0 5a 3f 55 ce 62 3f
       0.656895 1.4233007 0.85400623 0.8859609
000270 d8 c9 b4 3f cb c1 21 bf 75 9f 0f 3e 0d 62 b6 bf
       1.4124098 -0.6318633 0.14025672 -1.4248673
000280 76 56 2f 3f 8b a5 26 3f ad 54 dc be 71 a4 63 3f
       0.68491304 0.6509635 -0.43033352 0.8892279
000290 5f a5 9a 3f e8 be 12 3f e7 a0 4e 3e c5 2e cf be
       1.2081717 0.5732255 0.20178567 -0.4046537
0002a0 2a 77 64 be 76 9b 84 3f 7e 5c 8c bf cb ed 93 be
       -0.22311082 1.0359943 -1.0965726 -0.2889236
0002b0 7b d2 de 3e 5c 85 ca 3f 6e 90 46 bf 50 46 8d bf
       0.4351996 1.5821948 -0.7756413 -1.1037083
0002c0 77 72 1c be 13 85 f4 3c ff 30 83 3e ef 58 ac 3e
       -0.1527804 0.029848611 0.2562332 0.336616
0002d0 fe 33 94 bd aa 71 2b bf 06 13 2e bf 04 af 2d bf
       -0.07236479 -0.6697031 -0.6799778 -0.6784518
0002e0 68 0e 19 3e 3e f0 b3 be 60 10 b4 be 3a cd d4 3f
       0.14946902 -0.35144228 -0.35168743 1.662513
0002f0 14 8e 6b 3e 52 b7 ae be 96 dc 8d bf 31 8f 4d 3f
       0.23003417 -0.34124237 -1.1082942 0.8029662
000300 45 16 35 bf 74 fd d5 be 02 73 83 3e ee 22 0e bf
       -0.70737106 -0.41794932 0.25673681 -0.5552205
000310 db 32 ed be a1 a0 f7 3e 71 ad 2c bf 80 8c 9a 3e
       -0.46327862 0.48364738 -0.6745215 0.30185318
000320 77 7d 2a be d6 1e 8e bd f5 03 97 bf a9 e7 be 3e
       -0.16649424 -0.06939475 -1.1798083 0.37286118
000330 f1 81 a6 3f b7 13 67 3a 46 67 f6 bd 99 07 02 be
       1.3008405 0.00088148884 -0.120314166 -0.12698211
000340 9a 57 fb be 7a f9 4f 3f b8 fa 32 3f 4b 5f ae bf
       -0.49090272 0.81240046 0.69913816 -1.3622831
000350 db 53 12 bf ff d5 6e bf 88 d1 4e 3e 47 17 12 3f
       -0.57159203 -0.9329528 0.20197117 0.5706677
000360 27 e3 76 3f de 30 8f 3b eb 00 ca bf bb ea 1a 3f
       0.96440357 0.004369839 -1.578153 0.6051442
000370 04 a5 86 3f 5e 85 30 3e 9f c5 90 3d 03 18 9d bf
       1.0519109 0.17238376 0.07068943 -1.2272953
000380 ff ca b0 3f 96 15 bb 3d d3 8c 8f 3e e6 0f 72 bf
       1.381195 0.091349766 0.28037128 -0.9455551
000390 e1 35 02 3f 09 d6 68 bf 15 78 97 bf 52 ce ef be
       0.5086346 -0.9095159 -1.1833521 -0.46837097
0003a0 a5 01 4b bf b1 c9 ca 3f 79 d6 83 bf a0 ae d9 3f
       -0.79299384 1.5842801 -1.0299827 1.7006416
0003b0 b0 3c b0 3f d1 82 d0 3f 47 cc 27 be f0 e0 97 3f
       1.376852 1.6289922 -0.1638652 1.186552
0003c0 0f 78 7b 3e bf 43 a7 3f 92 7a 56 3e b2 d8 4d 3f
       0.24557517 1.306755 0.20945194 0.80408776
0003d0 e1 64 b6 bf db 1b 64 bf 0c e5 ba 3e 17 b2 eb bf
       -1.4249536 -0.89105004 0.36502874 -1.8413724
0003e0 a7 1e b3 bd a1 da 1a 3f fd 27 5f 3e 77 00 9d bf
       -0.08746081 0.6048985 0.21792598 -1.2265767
0003f0 bb d3 95 bf c6 c0 b0 bf d5 4b b5 bd ae 5c f9 3f
       -1.170524 -1.380883 -0.088523544 1.9481409

W_out f4 [256, 5]
000000 1d 85 9a 3f cb df 6f bf 69 8e 34 3e c9 9f 84 3d
       1.2071873 -0.93700856 0.1763245 0.06475789
000010 95 22 3d 3d e0 31 64 bf 4a 0f 51 bf d9 6b 1d 3f
       0.046175558 -0.89138603 -0.81663954 0.6149269
000020 f3 bd 53 3f bd 81 cd 3f c1 13 bd 3e 44 55 88 bf
       0.82711715 1.6055218 0.36929134 -1.0651021
000030 73 43 16 be 49 d8 94 be d6 4b a2 bf e5 71 24 3f
       -0.14674167 -0.29071262 -1.2679393 0.6423629
000040 b0 5e 13 be bc 7e c9 3e 6a eb 8a bf 79 bf a1 3f
       -0.14391589 0.39354503 -1.0853093 1.2636558
000050 3a 8d 8a 3f 16 c2 a3 be 86 24 ae 3e b8 48 0c 3e
       1.0824349 -0.31984013 0.3401224 0.13699615
000060 3c c8 9c bf 0d 3f 8d bf c9 21 b7 3e 49 e1 ce bd
       -1.2248607 -1.1034867 0.35767964 -0.101015635
000070 18 50 10 c0 ce a3 86 3f fe 60 4f 3f 7b 51 5e bd
       -2.2548885 1.0518739 0.81007373 -0.054276925
000080 a8 82 b6 bf 12 a7 1f bf 4d 9d 25 bf d2 46 d0 be
       -1.4258623 -0.62364304 -0.64693147 -0.40679032
000090 4e 28 2f bf d4 81 8f 3f 59 08 20 3e 97 72 41 bf
       -0.68420875 1.1211495 0.15628184 -0.75565475
0000a0 67 f2 09 3f 3a 46 d0 be fa 34 14 3e 41 5a 96 bf
       0.538855 -0.4067858 0.14473334 -1.1746293
0000b0 c7 aa d8 bf 18 79 a6 3e 26 a3 c2 3f ad c3 97 3e
       -1.6927117 0.32514262 1.5206039 0.29641476
0000c0 2d 97 6e be 48 59 db 3d be 5a ff 3e 1b bf 7a be
       -0.23299856 0.107103884 0.49873918 -0.24486963
0000d0 aa d8 a4 3f a9 d8 00 3f 8e af 8a be d9 32 22 be
       1.2878621 0.503306 -0.27087063 -0.1583971
0000e0 77 d9 2e bf dc b6 04 3c fc 97 e1 3f c7 d4 9d be
       -0.68300575 0.008100238 1.7624507 -0.308264
0000f0 05 52 4a be d3 83 a8 be 79 b6 ec be 1f 99 7a 3e
       -0.1975785 -0.32913074 -0.46232966 0.24472474
000100 f5 a6 96 3e ab 94 a4 bf 9f e5 b9 be 1f 9a 74 bf
       0.29424253 -1.285787 -0.36308 -0.9554767
000110 a9 56 28 3f e8 15 51 bf 23 d5 46 3e da 10 e7 3e
       0.6575723 -0.8167405 0.19417243 0.45130044
000120 86 09 e7 3e de 6f 60 bf 77 b8 94 3f 82 1e 9a bf
       0.45124453 -0.87670696 1.1618794 -1.204056
000130 ac 9b 15 3e 5e e2 87 3e 29 e6 8e 3f 5f ff b9 be
       0.14610165 0.26539892 1.1163989 -0.36327645
000140 7c 21 b6 3e 25 85 45 3f 56 68 a4 3e 88 0f 08 3f
       0.35572422 0.7715629 0.32110852 0.531487
000150 ab 29 99 3d f4 80 b9 bf 9c f2 83 bf fe 93 89 3f
       0.07478651 -1.4492478 -1.0308414 1.0748289
000160 f9 11 4a 3f f2 87 c6 3f 5a 80 73 3e 6e 92 8f bf
       0.78933674 1.5510237 0.23779431 -1.1216562
000170 0c 4d ed 3d aa 77 94 be be 2c 38 3e 08 f3 bf bf
       0.11586961 -0.28997546 0.17985818 -1.4996042
000180 2e 7b 86 be db e6 6c 3e 83 07 82 3f 43 8b 5a 3f
       -0.26265854 0.2313494 1.0158542 0.85368747
000190 de a8 a4 3f 96 4a 39 bf a8 04 c3 be a2 9c c2 bf
       1.2864034 -0.72379434 -0.3808949 -1.520405
0001a0 78 19 f4 be e0 4c 01 3e ec 99 1a bf c4 b6 2e 3f
       -0.4767568 0.12626982 -0.60391116 0.6824763
0001b0 9d 07 01 3e 0f 31 04 be bf 4b 20 3f 76 8a bc bf
       0.1260056 -0.1290934 0.6261558 -1.4729755
0001c0 18 46 9c 3f 82 3f 17 3e 5e e9 d6 be 6f ec dd b9
       1.2208891 0.1477032 -0.4197492 -0.00042328562
0001d0 2b f1 14 3f 8e e8 8b 3f a3 5b da 3e 77 d0 58 bf
       0.58180493 1.0930345 0.42648038 -0.8469309
0001e0 6b 82 32 be bb d3 ad bf 78 96 c8 3e 81 33 1b 3f
       -0.17432563 -1.358024 0.391773 0.60625464
0001f0 15 a8 ba be 93 5d bc 3f 98 9e 61 bf fd ed 90 3d
       -0.3645636 1.4716057 -0.8813262 0.07076643
000200 ad d8 09 be 67 2c bd 3f 45 25 f9 be 6c a6 b6 be
       -0.13461562 1.4779176 -0.48661247 -0.35673845
000210 05 a1 80 bf f2 b4 89 3f 9d ba 4e 3e 82 6b 3f bf
       -1.0049139 1.0758345 0.20188375 -0.7477342
000220 96 83 bc 3d 9e d5 85 bf 4f a8 b3 bf 8d de fc 3f
       0.092047855 -1.0455816 -1.4035739 1.9755417
000230 2b 62 88 3f 79 31 a5 bf 46 76 27 3f 0d ca 54 bf
       1.0654958 -1.2905723 0.65414846 -0.83120805
000240 8f 17 64 3e 3b bb 4d bf b2 62 d2 bf 21 36 6f bc
       0.22274612 -0.80363816 -1.643637 -0.014600308
000250 0b 6a c4 bf 32 6a 87 3c 5c 44 67 3f 9e 55 cd 3e
       -1.5344862 0.01653013 0.90338683 0.40104383
000260 7c 74 f7 bf d7 53 12 3f 1a 40 83 3f 86 9d f0 3f
       -1.9332423 0.5715918 1.0253937 1.8798072
000270 73 0c bd bf 90 4f 00 3f 39 9c de bf ad 1c 26 3f
       -1.4769424 0.501214 -1.7391425 0.64887506
000280 d3 a4 63 bf 5d fd c7 bf 60 e1 6b 3f 71 f1 e5 bc
       -0.88923377 -1.5624195 0.9214077 -0.02806923
000290 6b 59 cf 3f 28 92 74 3d 83 b9 e0 3e b1 9d eb 3e
       1.6199163 0.059709698 0.43891534 0.46018746
0002a0 8c bf c9 be 7c 5a 84 bf 6f 88 dd be 1b 7d ae 3f
       -0.3940395 -1.0340114 -0.43268153 1.3631929
0002b0 ee 82 13 3f 1c 2a 39 be b3 18 0b c0 99 81 7d bf
       0.5762166 -0.1808247 -2.1733825 -0.99025875
0002c0 a5 de 11 be 72 d0 00 3f d5 f0 02 bf 51 b3 2b 3f
       -0.14245088 0.5031806 -0.5114873 0.6707049
0002d0 e9 d3 6a bf 4a 82 96 bf 65 75 ec be e2 42 93 bf
       -0.917296 -1.1758511 -0.46183315 -1.1504786
0002e0 86 c1 37 3b ea 7b 09 3e 40 fd 1f bf 72 91 cc 3f
       0.0028038933 0.13426176 -0.62495804 1.5981886
0002f0 46 50 4d 3d 18 db ba bf 7c e2 96 3e 0f 42 23 be
       0.050125383 -1.4598112 0.2946967 -0.15943168
000300 0f 3b 7c 3e 41 13 d8 3f d4 2e d4 3e e8 c2 e3 be
       0.24631904 1.6880876 0.41441977 -0.4448464
000310 2a bb 43 bf 46 9e 93 3f 2e d3 17 be c5 68 d2 bf
       -0.76457465 1.1532676 -0.14826652 -1.6438223
000320 09 bd 39 3f cb 7b 8d bf 5b 6c f4 be de c2 7b 3e
       0.7255407 -1.1053404 -0.4773892 0.24586055
000330 77 ad b2 be 6a 0c 74 3f 29 bd 5d bc 15 20 50 3e
       -0.34897968 0.9533144 -0.013533869 0.20324738
000340 2f 3d 32 3e f4 a7 1c bf b9 49 aa 3f 27 32 28 3d
       0.17406152 -0.61193776 1.3303748 0.041063454
000350 f6 fa be 3e 7a 2b 66 3f 27 7e b5 bf 51 58 8c be
       0.37300843 0.8991009 -1.4179124 -0.2741113
000360 f2 31 4d bc 7e 1b 66 3e 62 38 5f bf 08 84 0f bf
       -0.012524115 0.22471425 -0.8719541 -0.5606084
000370 a3 69 4e 3f eb ff b5 bf 44 fa ae be 27 04 be bf
       0.8062994 -1.4218725 -0.34175313 -1.4845017
000380 24 6b d5 be fb 90 98 3e 3a a9 6f 3e 34 25 53 3f
       -0.41683304 0.2979811 0.23404399 0.8247864
000390 f4 66 89 3c a0 0a 09 bf 7a 6b 2b 3f 10 c3 17 be
       0.016772725 -0.5353184 0.6696087 -0.14820504
0003a0 32 b6 cc 3e fc da d1 3e 86 aa f9 3d bf 90 9b bf
       0.39982754 0.40987384 0.12190728 -1.2153548
0003b0 09 86 a2 3e cf d8 0c bf 8c c5 64 bf 68 f9 88 bf
       0.31742886 -0.55018324 -0.8936393 -1.0701113
0003c0 ed 2b 32 3f a0 b3 06 3f d8 fb 46 3f 81 be 48 bf
       0.69598275 0.52617836 0.77728033 -0.78415686
0003d0 81 e0 03 bf 42 90 e8 3e d8 6c 15 40 68 af 02 3f
       -0.5151444 0.4542256 2.3347683 0.510489
0003e0 8a 34 6e 3f 2e 2a 8c 3f ce c4 10 3f 1d 40 ea 3f
       0.9304892 1.0950372 0.565503 1.8300816
0003f0 00 c0 87 3f f2 8e 6b bf 98 0f a2 be ab 69 a9 3d
       1.0605469 -0.9201499 -0.31652522 0.08272108

b_conv1 f4 [16]
000000 cd cc cc 3d cd cc cc 3d cd cc cc 3d cd cc cc 3d
       0.1 0.1 0.1 0.1
000010 cd cc cc 3d cd cc cc 3d cd cc cc 3d cd cc cc 3d
       0.1 0.1 0.1 0.1
000020 cd cc cc 3d cd cc cc 3d cd cc cc 3d cd cc cc 3d
       0.1 0.1 0.1 0.1
000030 cd cc cc 3d cd cc cc 3d cd cc cc 3d cd cc cc 3d
       0.1 0.1 0.1 0.1

b_conv2 f4 [32]
000000 cd cc cc 3d cd cc cc 3d cd cc cc 3d cd cc cc 3d
       0.1 0.1 0.1 0.1
000010 cd cc cc 3d cd cc cc 3d cd cc cc 3d cd cc cc 3d
       0.1 0.1 0.1 0.1
000020 cd cc cc 3d cd cc cc 3d cd cc cc 3d cd cc cc 3d
       0.1 0.1 0.1 0.1
000030 cd cc cc 3d cd cc cc 3d cd cc cc 3d cd cc cc 3d
       0.1 0.1 0.1 0.1
000040 cd cc cc 3d cd cc cc 3d cd cc cc 3d cd cc cc 3d
       0.1 0.1 0.1 0.1
000050 cd cc cc 3d cd cc cc 3d cd cc cc 3d cd cc cc 3d
       0.1 0.1 0.1 0.1
000060 cd cc cc 3d cd cc cc 3d cd cc cc 3d cd cc cc 3d
       0.1 0.1 0.1 0.1
000070 cd cc cc 3d cd cc cc 3d cd cc cc 3d cd cc cc 3d
       0.1 0.1 0.1 0.1

b_fc f4 [256]
000000 1e 5e c9 3d cd cc cc 3d ca e5 cb 3d 61 57 cc 3d
       0.098324046 0.1 0.09955938 0.09977604
000010 35 99 cc 3d 7b 18 cf 3d a3 1a c5 3d 81 6b cd 3d
       0.099901594 0.10112091 0.09624221 0.1003027
000020 1b cc ce 3d 59 80 ce 3d cd cc cc 3d 04 e7 c9 3d
       0.10097524 0.10083074 0.1 0.09858516
000030 08 9b cc 3d e5 cf cc 3d 8f c8 c8 3d 40 82 cd 3d
       0.09990507 0.1000059 0.098038785 0.10034609
000040 c0 0f c6 3d 53 59 cc 3d dc c5 cc 3d cd 9c cd 3d
       0.09670973 0.09977975 0.09998676 0.10039673
000050 cd cc cc 3d 78 85 d0 3d 51 00 d4 3d 96 80 cc 3d
       0.1 0.10181707 0.10351623 0.09985463
000060 88 6d cb 3d a6 c8 cc 3d 59 46 cd 3d 0a f8 ce 3d
       0.09933001 0.09999208 0.100231834 0.101059034
000070 57 5b d1 3d 15 7d cd 3d 25 31 ce 3d 32 19 ce 3d
       0.102225 0.10033623 0.10067967 0.100633994
000080 f2 41 c7 3d af 64 cd 3d 8f ed cd 3d f3 81 c9 3d
       0.09729375 0.100289695 0.10055076 0.09839239
000090 4c 63 c8 3d 72 d3 ce 3d 0b 3b c4 3d ec cf cb 3d
       0.097845644 0.10098924 0.09581574 0.09951767
0000a0 89 a1 cb 3d cd cc cc 3d 9d 2b cc 3d 05 b4 ca 3d
       0.0994292 0.1 0.09969256 0.09897617
0000b0 2b 03 ce 3d 82 c4 cc 3d 29 7b cd 3d cd cc cc 3d
       0.10059198 0.099984184 0.100332566 0.1
0000c0 a9 8b cc 3d 38 23 d0 3d 34 ee d2 3d 53 f3 c8 3d
       0.099875756 0.101629674 0.1029934 0.098120354
0000d0 38 0f cf 3d cd cc cc 3d 57 8a ca 3d ae 8a c7 3d
       0.101103246 0.1 0.098896675 0.09743248
0000e0 bb ae cc 3d 5c d8 c7 3d cd cc cc 3d 46 7f c9 3d
       0.09994265 0.09758064 0.1 0.098387286
0000f0 45 0a ca 3d 70 f5 cf 3d 0b 16 d2 3d 86 ba ca 3d
       0.0986524 0.10154235 0.102581106 0.09898858
000100 cd cc cc 3d 05 8b cd 3d 26 3d cc 3d 2d 9f c8 3d
       0.1 0.100362815 0.09972601 0.09795985
000110 15 7c cc 3d cd cc cc 3d 35 47 c6 3d 4b c9 ce 3d
       0.09984604 0.1 0.096815504 0.10096987
000120 00 7c d1 3d 59 91 cb 3d bf 2e c4 3d 99 18 cc 3d
       0.10228729 0.09939832 0.095792286 0.09965629
000130 f3 c1 cd 3d cd cc cc 3d 8a 8c ce 3d 6c ac cb 3d
       0.100467585 0.1 0.100853994 0.09944996
000140 18 44 d5 3d 6e 01 d1 3d 2f 41 cd 3d 0d 31 c8 3d
       0.104133785 0.10205351 0.100221984 0.09774981
000150 b1 9f ce 3d 12 cf cb 3d 29 f5 c7 3d cf 5f d2 3d
       0.100890525 0.09951605 0.097635575 0.1027218
000160 ce 6c c9 3d 0a 02 ce 3d cd cc cc 3d a6 b8 cd 3d
       0.09835206 0.10058983 0.1 0.100449845
000170 b9 99 cb 3d 95 ec c9 3d 15 bc cc 3d 9a cb cb 3d
       0.0994143 0.098595776 0.09996811 0.09950943
000180 9f 97 cc 3d bc 2c d2 3d 74 61 cd 3d f5 6e cc 3d
       0.09989857 0.10262439 0.10028353 0.09982101
000190 88 36 cc 3d bf a1 cb 3d 10 61 cc 3d a2 41 cc 3d
       0.099713385 0.0994296 0.09979451 0.09973456
0001a0 65 81 ca 3d 1d ba d0 3d 4c 5e cc 3d cd c3 ce 3d
       0.09887961 0.10191748 0.09978923 0.1009594
0001b0 43 93 cc 3d 86 bb cc 3d 07 a0 cd 3d cd cc cc 3d
       0.099890254 0.09996705 0.100402884 0.1
0001c0 64 f5 cc 3d cf d2 cb 3d 45 53 cc 3d cd cc cc 3d
       0.10007742 0.09952318 0.0997682 0.1
0001d0 7f ce cc 3d bd 86 cb 3d ed 50 d4 3d 04 cb cc 3d
       0.100003235 0.09937809 0.10366998 0.0999966
0001e0 39 2f cc 3d b3 23 c8 3d 86 de c8 3d 2c 93 cb 3d
       0.099699445 0.09772434 0.09808068 0.0994018
0001f0 55 23 c7 3d b1 f1 d0 3d a6 8d cb 3d 97 5c c6 3d
       0.09723536 0.10202349 0.09939127 0.09685629
000200 21 cc cc 3d 69 cc cc 3d 20 25 cb 3d f5 5c c9 3d
       0.09999872 0.09999926 0.099191904 0.09832183
000210 c6 84 cc 3d 12 cd cc 3d 88 68 c9 3d 71 6c c8 3d
       0.09986262 0.100000516 0.09834391 0.097863086
000220 5e c4 cc 3d e9 23 ce 3d a5 ab cb 3d 6b 6a cd 3d
       0.099983916 0.10065443 0.09944848 0.10030063
000230 cd cc cc 3d af fe c6 3d 15 5e cb 3d 1b 24 cf 3d
       0.1 0.09716546 0.09930054 0.101143084
000240 76 ba cc 3d d3 c5 cd 3d e1 32 d2 3d 35 ea cb 3d
       0.09996502 0.100474976 0.10263611 0.09956781
000250 8a 9d c4 3d ab 0f cd 3d 5f c5 cc 3d da 25 ce 3d
       0.09600361 0.10012754 0.09998583 0.10065813
000260 dd cb cd 3d 68 b5 d0 3d 30 c4 cc 3d a1 c0 cb 3d
       0.100486495 0.101908505 0.09998357 0.099488504
000270 2c 2a cd 3d 2d db cc 3d 20 cb c6 3d f7 2a ca 3d
       0.10017809 0.10002742 0.09706712 0.09871476
000280 cd cc cc 3d f2 13 c8 3d 55 96 cc 3d 11 ee cc 3d
       0.1 0.09769429 0.09989611 0.10006345
000290 83 d3 ca 3d c3 0b cd 3d 7c cc c8 3d 57 5b cc 3d
       0.09903624 0.10012009 0.09804627 0.09978359
0002a0 fc 81 ce 3d 2f 0a c9 3d 72 ba d2 3d 83 59 d2 3d
       0.10083386 0.098163955 0.10289468 0.10270979
0002b0 4b 2d d1 3d 8a 2e c9 3d 93 72 cc 3d b6 b8 ce 3d
       0.10213717 0.0982333 0.09982791 0.100938246
0002c0 ae 0a ce 3d cd cc cc 3d cd cc cc 3d d8 5e cd 3d
       0.10060631 0.1 0.1 0.10027856
0002d0 cd cc cc 3d a7 33 cb 3d a8 30 ce 3d f5 51 cb 3d
       0.1 0.09921961 0.10067874 0.099277414
0002e0 cd cc cc 3d 4c f4 cb 3d ca 1d d0 3d cd cc cc 3d
       0.1 0.09958705 0.10161932 0.1
0002f0 61 9b c8 3d 84 63 cb 3d 05 11 ce 3d d7 99 c5 3d
       0.09795261 0.099310905 0.1006184 0.09648483
000300 f5 5c cf 3d 72 83 c9 3d f1 05 ca 3d 8f 83 ca 3d
       0.10125152 0.09839524 0.098644145 0.09888374
000310 e9 d7 cb 3d de 3d c9 3d 7d 49 d4 3d f5 fe cb 3d
       0.09953291 0.09826253 0.10365579 0.099607386
000320 2c b9 cc 3d 23 f8 cc 3d 48 84 c9 3d b1 d1 cb 3d
       0.09996256 0.10008266 0.09839684 0.09952105
000330 01 73 d3 3d 37 68 cd 3d cd cc cc 3d 7e 6b ce 3d
       0.1032467 0.10029643 0.1 0.10079096
000340 68 d8 cf 3d 9a 88 cb 3d 23 a3 cc 3d c6 0d cf 3d
       0.10148698 0.09938164 0.09992053 0.10110049
000350 ce fe d0 3d 1b 65 cf 3d 36 98 cb 3d cd cc cc 3d
       0.1020485 0.10126706 0.09941141 0.1
000360 c3 c3 ca 3d 8e 4e ce 3d 71 67 cc 3d a2 97 c8 3d
       0.0990062 0.10073577 0.099806674 0.09794547
000370 b1 06 cc 3d cd cc cc 3d 54 b2 ce 3d c5 fb cb 3d
       0.09962214 0.1 0.10092607 0.099601306
000380 c9 7d cd 3d 62 11 c6 3d be b5 cd 3d ab 1d ce 3d
       0.10033757 0.09671284 0.1004443 0.100642525
000390 cd cc cc 3d bf aa cb 3d 26 49 ce 3d cd cc cc 3d
       0.1 0.099446766 0.10072546 0.1
0003a0 cd cc cc 3d d7 1a cb 3d b1 ad cd 3d c0 93 d0 3d
       0.1 0.09917229 0.10042895 0.10184431
0003b0 b6 ce d1 3d 18 cc cb 3d c5 9a d3 3d cd cc cc 3d
       0.10244505 0.09951037 0.10332254 0.1
0003c0 8c 4b be 3d 1e 99 d0 3d 25 76 cd 3d ce 9f cc 3d
       0.09291753 0.10185455 0.100323 0.09991418
0003d0 bb ac ca 3d 6f da cb 3d da ed ca 3d 61 72 ca 3d
       0.09896227 0.09953772 0.09908648 0.09885097
0003e0 5c 9e cc 3d cd cc cc 3d 2b 49 d3 3d c2 9d cc 3d
       0.09991142 0.1 0.1031669 0.099910274
0003f0 64 26 d1 3d ec 83 cd 3d 22 29 cc 3d 1d 14 cc 3d
       0.102124006 0.10034928 0.09968783 0.09964774

b_out f4 [5]
000000 5b a9 bd 3d 6b 24 bd 3d f9 f0 bc 3d c1 73 bb 3d
       0.092608176 0.09235462 0.092256494 0.09152938
000010 78 90 bb 3d
       0.091584146
