Models/Tensorflow/model_local9_zombie.npz (npz, 552614 bytes, 8 tensors)

b_conv1 f4 [16]
0	0x3dcccccd	0.1
1	0x3dcccccd	0.1
2	0x3dcccccd	0.1
3	0x3dcccccd	0.1
4	0x3dcccccd	0.1
5	0x3dcccccd	0.1
6	0x3dcccccd	0.1
7	0x3dcccccd	0.1
8	0x3dcccccd	0.1
9	0x3dcccccd	0.1
10	0x3dcccccd	0.1
11	0x3dcccccd	0.1
12	0x3dcccccd	0.1
13	0x3dcccccd	0.1
14	0x3dcccccd	0.1
15	0x3dcccccd	0.1

W_fc f4 [512, 256]
0	0xbf4bd499	-0.79621273
1	0xbe495789	-0.19662298
2	0x3e063481	0.13105966
3	0xbf9caf9e	-1.2241094
4	0xbe2553da	-0.16145268
5	0xbfe54c36	-1.7913883
6	0xbec489a7	-0.3838627
7	0xbe15346b	-0.14570777
8	0xbf87a746	-1.0597923
9	0x3ee015c9	0.4376662
10	0xbd319b87	-0.043361213
11	0x3e7cc765	0.24685438
12	0xbc953271	-0.018212529
13	0x3f4d1803	0.80114764
14	0x3e8b0898	0.27154994
15	0x3f0d5774	0.5521157
16	0xbda04750	-0.07826102
17	0xbe2dc0f2	-0.16968134
18	0x3dc0e8fe	0.0941944
19	0x3ff90cd2	1.9457037
20	0x3e962832	0.29327542
21	0xbd832014	-0.06402603
22	0xbd7cd90e	-0.061730437
23	0x3fe7cfa0	1.8110237
24	0x3ebf3e96	0.37352437
25	0xbe5416ee	-0.20711872
26	0x3ed7f286	0.42177218
27	0xbf055a1f	-0.5209064
28	0x3f454202	0.77053845
29	0x3ff6de02	1.9286501
30	0x3dcb7f4e	0.09936391
31	0x3f2bfa49	0.6717878
32	0x3e93325d	0.28749362
33	0xbe542d10	-0.20720315
34	0x3ea8c0a4	0.32959473
35	0xbf194936	-0.59877336
36	0xbedf2161	-0.43580154
37	0x3fbd371e	1.4782445
38	0xbfe3ef83	-1.7807468
39	0xbfa0282b	-1.2512258
40	0x3fd8ef69	1.6948062
41	0xbfc00e4c	-1.5004363
42	0xbe754b80	-0.23954582
43	0xbd11f8f0	-0.035637796
44	0xbf75a863	-0.9596006
45	0x3e320e7a	0.17388335
46	0x3d9fbc22	0.07799555
47	0x3edd81ab	0.4326299
48	0xbeca404b	-0.39502177
49	0xc001c4a5	-2.0276272
50	0xbfda4333	-1.7051758
51	0xbe81f18c	-0.25379598
52	0xbf4dd91d	-0.80409414
53	0x3fdb6d57	1.7142743
54	0xbeef2f3a	-0.46715719
55	0xbed6f513	-0.41983852
56	0xbf82ba36	-1.0213077
57	0xbe70188f	-0.23446868
58	0x3f3e1eeb	0.7426593
59	0xbe4c6a84	-0.19962507
60	0x3f8c767e	1.0973661
61	0x3fe72578	1.805831
62	0xbd32f193	-0.043687414
63	0x3f54d2f5	0.83134395
64	0xbe3e5fea	-0.18591276
65	0xbea1073c	-0.31450832
66	0x3f85dc0c	1.0457778
67	0x3f12855c	0.5723474
68	0xbfd2e1c0	-1.6475143
69	0x3f7bcf2e	0.98363006
70	0x3f83ac05	1.0286871
71	0x3e5520b0	0.2081325
72	0xbfa60e3d	-1.2973095
73	0x3ec078cb	0.37592158
74	0x3fd5d40d	1.6705338
75	0xbda8853e	-0.08228539
76	0xbf560830	-0.83606243
77	0x3ed9b3ac	0.4251989
78	0x3f3d04ce	0.73835456
79	0x3f8c40cd	1.0957276
80	0x3f57f5ea	0.8435961
81	0x3f133496	0.57502115
82	0x3fb597f3	1.4186996
83	0x3f3f43fc	0.7471311
84	0x3ce2fa60	0.027707279
85	0xbf82fb7e	-1.0232999
86	0xbefddc0e	-0.4958195
87	0x3f3e9998	0.74453115
88	0xbf4f66eb	-0.81016415
89	0xbde631fc	-0.112400025
90	0xbe7104d9	-0.23537005
91	0xbf9e3378	-1.2359457
92	0x3fbf8f59	1.4965621
93	0xbf5e70f5	-0.8689111
94	0x3e6315fe	0.22176358
95	0xbffb754b	-1.964517
96	0x3f389154	0.72096753
97	0xbea50afb	-0.3223494
98	0xbec01c1d	-0.3752145
99	0x3f733323	0.94999903
100	0x3e71cebb	0.23614018
101	0x3f5b28b7	0.85609
102	0x3f9701d4	1.1797433
103	0x3e2d6fba	0.16937152
104	0x3e0ec879	0.13943662
105	0xbe79ee30	-0.24407268
106	0x3f24f03e	0.6442908
107	0xbfd48cde	-1.6605489
108	0xbf54acf6	-0.8307642
109	0xbe35f444	-0.17768961
110	0x3f9f45ed	1.2443215
111	0x3f48cc30	0.78436565
112	0xbf5417a1	-0.82848555
113	0x3f272355	0.6528829
114	0x3f633426	0.8875145
115	0x3da39dad	0.07989059
116	0x3f95de1b	1.1708406
117	0xbdad1563	-0.08451345
118	0xbfc7694d	-1.557901
119	0x3fd1fed9	1.6405898
120	0x3eb0a935	0.34504095
121	0xbf214cfd	-0.630081
122	0xbfbb2cdd	-1.4623066
123	0xbda15e0d	-0.07879267
124	0xbeb366e4	-0.35039437
125	0xbf098f78	-0.5373454
126	0x3e6d1c67	0.23155366
127	0xbf5edf3f	-0.87059397
128	0x3f2f32b6	0.68436754
129	0x3ee55dfc	0.44798267
130	0x3f95ddc9	1.1708308
131	0xbe3a3be4	-0.18186909
132	0x3f47cfab	0.7805125
133	0xbd5331fd	-0.051561344
134	0x3f33b1be	0.7019309
135	0x3fe18753	1.7619423
136	0x3fb4aae8	1.4114656
137	0x3f3a94a1	0.7288304
138	0xbfd7ed5f	-1.6869315
139	0xbd6a637b	-0.05722378
140	0xbe90c802	-0.28277594
141	0x3f7d6dd2	0.989957
142	0x3f7116bc	0.94175315
143	0xbe1e53d7	-0.1546167
144	0xbe2ec00a	-0.17065445
145	0xbdf9052f	-0.12159192
146	0x3ebccbbb	0.36874184
147	0xbf22a081	-0.6352616
148	0xbec6fd07	-0.3886492
149	0x3e7c1e67	0.24620973
150	0x3f41c9b5	0.75698406
151	0x3eafa228	0.34303403
152	0x3f296259	0.6616569
153	0x3fb28f19	1.394992
154	0x3f5a74f1	0.8533469
155	0x3f6305fd	0.8868101
156	0x3fae0952	1.3596594
157	0xbf260ab8	-0.64860106
158	0x3dd11c76	0.102105066
159	0xbfa381e4	-1.2774014
160	0x3f2fa21d	0.6860674
161	0x3f3c4df2	0.73556435
162	0xbed629d6	-0.41828793
163	0x3f6383a3	0.88872737
164	0x3f980d55	1.1879069
165	0x3f101ebc	0.56296897
166	0x3dc40765	0.09571723
167	0xbeca545f	-0.39517495
168	0xbe7633e0	-0.24043226
169	0x3f840963	1.0315365
170	0xbf9dabab	-1.2318014
171	0xbeaa1543	-0.33219346
172	0x3eb817bc	0.35955608
173	0x3fc9a52b	1.575353
174	0xbf42b787	-0.7606129
175	0xbf8212f1	-1.016203
176	0xbe2cb485	-0.16865738
177	0x3cf48513	0.029848611
178	0x3e82181e	0.25409025
179	0x3eaef5a0	0.34171772
180	0xbd9433ac	-0.07236418
181	0xbf31528f	-0.692666
182	0xbf296dcf	-0.6618318
183	0xbf302f45	-0.6882213
184	0x3e193082	0.1495991
185	0xbeb326e9	-0.34990624
186	0xbea60ca8	-0.3243153
187	0x3fd41619	1.6569244
188	0x3e597926	0.2123762
189	0xbeb42c42	-0.35190016
190	0xbf8e7beb	-1.1131567
191	0x3f5c91f3	0.861602
192	0xbf355b2d	-0.7084225
193	0xbec4d78b	-0.38445696
194	0x3e70b59d	0.2350678
195	0xbf0f02a7	-0.5586342
196	0xbedaefd9	-0.42761114
197	0x3ec11cf9	0.37717417
198	0xbf22fcfd	-0.6366728
199	0x3ea49cca	0.3215087
200	0xbe1fd836	-0.15609822
201	0xbe1c3cd5	-0.1525758
202	0xbf96641e	-1.1749303
203	0x3eb80008	0.35937524
204	0x3faf5413	1.3697532
205	0x3cdac4c8	0.02670516
206	0xbdf66747	-0.12031417
207	0xbe152a11	-0.14566828
208	0xbee90e81	-0.45518878
209	0x3f52a3e1	0.8228131
210	0x3f32dd6f	0.6986913
211	0xbfb0b06a	-1.3803837
212	0xbf1756e5	-0.59116966
213	0xbf7b6cac	-0.98212695
214	0x3e469fbb	0.1939687
215	0x3f121747	0.5706677
216	0x3f9314bb	1.1490701
217	0x3b993968	0.004676033
218	0xbfca0190	-1.5781727
219	0x3f218b78	0.6310344
220	0x3f86cbc5	1.0530936
221	0x3e30855e	0.17238376
222	0x3cc6cd45	0.024267802
223	0xbf9c437f	-1.2208098
224	0x3faa003f	1.3281325
225	0x3dff8fe4	0.12478617
226	0x3e789964	0.24277264
227	0xbf6a4d32	-0.9152404
228	0x3f0235e1	0.5086346
229	0xbf4b8626	-0.7950157
230	0xbf84c2f3	-1.0371994
231	0xbeef5aaf	-0.46748874
232	0xbf4b01a5	-0.79299384
233	0x3fcaf79d	1.5856816
234	0xbf8430df	-1.0327414
235	0x3fda0bc4	1.703484
236	0x3faa5284	1.3306432
237	0x3fd19c20	1.637577
238	0xbe371044	-0.17877299
239	0x3f97e0f0	1.186552
240	0x3e60a50d	0.21937962
241	0x3f8a6860	1.0813103
242	0x3e5a44a4	0.21315247
243	0x3f504d71	0.81368166
244	0xbfafe732	-1.374243
245	0xbf65db8a	-0.89788115
246	0x3ecb5483	0.39712915
247	0xbfeb34c2	-1.8375475
248	0xbdb20446	-0.08692221
249	0x3f1adcaf	0.60492986
250	0x3e1ce5cf	0.1532204
251	0xbf9cd906	-1.225373
252	0xbf94e80a	-1.1633313
253	0xbfafd026	-1.3735397
254	0xbddba8fc	-0.107255906
255	0x3ff4e682	1.9132845

W_conv1 f4 [3, 3, 3, 16]
0	0xbe951c8e	-0.29123348
1	0x3d74c6eb	0.059760015
2	0x3ea1a4ab	0.31570944
3	0x3edec324	0.43508255
4	0xbfa77b7b	-1.3084558
5	0xbf29b0c6	-0.6628536
6	0x3f256eeb	0.6462237
7	0x3e12216b	0.1427056
8	0x3ff5fc83	1.9217685
9	0xbfc25048	-1.518075
10	0xbf98a4a4	-1.1925244
11	0xc00212bb	-2.0323932
12	0x3fbd6304	1.4795842
13	0xbe294497	-0.16530071
14	0xbe4c0fba	-0.19927874
15	0xbe8b5635	-0.27214208
16	0xbf6adb59	-0.9174095
17	0x3e0c6b93	0.13712911
18	0xbf018667	-0.50595707
19	0xbf3ccb0b	-0.7374732
20	0x3ea8c994	0.32966292
21	0x3fdf4fd5	1.7446238
22	0x3d913280	0.0708971
23	0x3dccc57d	0.099986054
24	0x3fead3a4	1.8345838
25	0x3fca0cc2	1.5785143
26	0xbfe9c746	-1.8263938
27	0xc00d7d3f	-2.2107694
28	0xbf25bca5	-0.64740974
29	0x400b5ff4	2.1777315
30	0xbf52c850	-0.823369
31	0x3f85c4b0	1.0450649
32	0x3f0c9a99	0.549234
33	0x3f79b3d4	0.9754002
34	0x3fd36b0d	1.6517044
35	0x400313d9	2.0480864
36	0x3ee0e75e	0.4392652
37	0xbf037aa5	-0.51359016
38	0xbfe2c76c	-1.7717109
39	0x3f8a9194	1.0825677
40	0xbe46b18b	-0.19403665
41	0x3fec8d17	1.8480557
42	0xbf0dd965	-0.5540984
43	0xbfc245f1	-1.5177594
44	0x3f4c257a	0.79744685
45	0x3dea8bca	0.11452444
46	0x3f3c2541	0.73494345
47	0x3fafee74	1.3744645
48	0x3fe5ad35	1.7943484
49	0xbed4bc13	-0.4154974
50	0xbf65f205	-0.8982242
51	0xbfa94d31	-1.3226682
52	0x3eb013cd	0.34390107
53	0x3e867060	0.2625761
54	0xbdd957de	-0.106124625
55	0xbeb4ba65	-0.35298458
56	0xbeefb64d	-0.46818772
57	0xbec05879	-0.375675
58	0x3f94fd61	1.1639825
59	0xbfdaca2c	-1.7092948
60	0xbf750185	-0.95705444
61	0xbe8ca645	-0.27470604
62	0xbfb37cc3	-1.4022449
63	0xbfdc7d01	-1.7225648
64	0xbfd12575	-1.6339556
65	0x3f1d945b	0.615545
66	0x3fe2943f	1.7701491
67	0x3eef6550	0.46756983
68	0x3fd8f0d7	1.6948498
69	0xbf3c67a9	-0.7359567
70	0xbf3e56e4	-0.74351335
71	0x3e96b436	0.29434365
72	0x3fca6060	1.5810661
73	0x3f3c5a7e	0.7357558
74	0x3f49e556	0.78865564
75	0x3f7e0636	0.9922823
76	0x3ffcdbb2	1.9754546
77	0xbf6117fb	-0.87927216
78	0xbf3be4b4	-0.7339585
79	0xbf86a322	-1.0518534
80	0x3e589d50	0.2115376
81	0xbf7a90bc	-0.978771
82	0x3f89f6d6	1.0778453
83	0xbe791bd9	-0.2432703
84	0x3f8b1eab	1.0868734
85	0xbf59a9a8	-0.850245
86	0x3f9b578a	1.213609
87	0xbf037a23	-0.5135824
88	0xbe7ef898	-0.24899518
89	0xbf83e6ea	-1.0304844
90	0xbe367a1b	-0.17820017
91	0xbefae559	-0.49003103
92	0x3e7944c1	0.24342634
93	0xbbd51ee1	-0.006503925
94	0xbeb77ae3	-0.35835943
95	0x3e76e593	0.24111013
96	0xbf9b362d	-1.2125908
97	0x3cf42c0b	0.029806158
98	0x3f365388	0.7122121
99	0xbd770a4f	-0.060312565
100	0xbeea336b	-0.45742354
101	0xbf3500cc	-0.7070434
102	0xbeca15c4	-0.3946973
103	0xbf8e9f2f	-1.1142329
104	0xbf71194e	-0.94179237
105	0x3e60199b	0.21884768
106	0x3eccc997	0.3999755
107	0xbf80186d	-1.0007454
108	0xbf9ecf4e	-1.2407014
109	0x3fc5ef89	1.5463725
110	0xbfc472a4	-1.5347486
111	0xbf7408a5	-0.9532569
112	0x3e36facb	0.17869107
113	0x3fbb232d	1.462011
114	0x3fe93535	1.8219362
115	0xbf9fbc62	-1.2479365
116	0x3fa7eaca	1.3118527
117	0xbe1aa9bf	-0.15103815
118	0x3fe6a64d	1.8019501
119	0x3f41f66d	0.7576664
120	0x401b8b8d	2.4303925
121	0x3dfc70e3	0.12326219
122	0xbf19db1a	-0.6009995
123	0xbf652191	-0.89504343
124	0x3ff16c62	1.8861201
125	0x3e78241d	0.24232526
126	0xbd3ce736	-0.046118937
127	0xbf24d247	-0.6438336
128	0xbfd843ef	-1.6895732
129	0x3bb708ed	0.005585781
130	0x3f23dbbe	0.64007175
131	0xbf2d6b7a	-0.6774212
132	0x3cd4ba82	0.02596784
133	0x3ed92aef	0.42415568
134	0x3dfc0175	0.123049654
135	0xbf143343	-0.5789072
136	0xbe8692bf	-0.26283833
137	0x3ec3fb26	0.3827755
138	0x3fb33d56	1.4003093
139	0x3f4d6e1f	0.80246156
140	0xbf9edac0	-1.2410507
141	0xbee1888a	-0.44049484
142	0xbf1cc72a	-0.612414
143	0xbfe2aa22	-1.770817
144	0x3ebc1b79	0.3673971
145	0xbececf1e	-0.40392393
146	0xbfc324c1	-1.5245591
147	0xbf5b6ad0	-0.8570986
148	0x3f9214e0	1.141262
149	0x3f14fc91	0.58197886
150	0xbe528a2d	-0.20560522
151	0x3f599373	0.84990615
152	0x3ddc03cf	0.10742914
153	0x3f2e6726	0.6812614
154	0x3f1481d3	0.58010596
155	0xc00012e0	-2.001152
156	0xbec32b7b	-0.3811911
157	0x3f95551a	1.1666596
158	0x3f816777	1.01097
159	0xbf5fec83	-0.87470263
160	0xbecdc465	-0.401889
161	0x3f0fdc36	0.5619539
162	0x3ebf8e55	0.37413278
163	0x3f94ffc3	1.1640552
164	0x3f0d118f	0.5510492
165	0xbf1d4104	-0.6142733
166	0x3d023d5c	0.031796798
167	0xbf8bfb8d	-1.0936142
168	0xbf544f3f	-0.8293342
169	0x3f897f6b	1.074201
170	0x3f7ab51e	0.9793261
171	0x3f39d0e6	0.7258438
172	0x3f1b17fb	0.60583466
173	0xbee3402e	-0.44384903
174	0xbde4182a	-0.111374214
175	0xbdbefd06	-0.09325604
176	0xbf276b99	-0.65398556
177	0x3f23b207	0.63943523
178	0xbe8d8eec	-0.27648103
179	0xbf0b6906	-0.5445713
180	0xbdf6b502	-0.12046243
181	0xbf3f9683	-0.7483904
182	0x3ee965bf	0.4558544
183	0x3f819d00	1.0126038
184	0xbec37c04	-0.38180554
185	0x3f9bb263	1.2163814
186	0x3f924f60	1.1430473
187	0xbf151a88	-0.5824361
188	0x3f376875	0.71643764
189	0xbedc2519	-0.42997053
190	0xbc0f5ca8	-0.008750118
191	0x3f30cfd6	0.6906713
192	0x3ffab73e	1.9587171
193	0xbfc818fe	-1.5632627
194	0x3eabb4bf	0.33536336
195	0x3eeb652e	0.4597563
196	0xbd53aa8b	-0.051676314
197	0xbe90b344	-0.2826177
198	0xbfbd000f	-1.4765643
199	0xbf0d03bf	-0.5508384
200	0xbf13c48a	-0.5772177
201	0xbe1642c4	-0.14673907
202	0x3fb86f5f	1.4408988
203	0x3dbf9c79	0.09356017
204	0xbe897d6c	-0.26853502
205	0xbec216a5	-0.379079
206	0x3e163d9f	0.14671944
207	0x3ea58306	0.32326525
208	0x3fca6d01	1.5814515
209	0x3f9ab901	1.2087709
210	0xbf9ffede	-1.2499654
211	0x3f1ea385	0.6196826
212	0xbec0ca35	-0.37654272
213	0x3fc79943	1.5593647
214	0x3edf4c8d	0.4361309
215	0x3fa8ce3e	1.318794
216	0xbecead05	-0.40366378
217	0x3fa43b0c	1.283052
218	0x3eae9c94	0.34103835
219	0x3f8d126f	1.102125
220	0x3eb54e50	0.3541131
221	0xbedbdc04	-0.42941296
222	0xbfc5e5b6	-1.5460727
223	0xbf8d0c63	-1.1019405
224	0xbf85c0b6	-1.0449436
225	0xbf4b0c3c	-0.79315543
226	0x3f5b3f3d	0.8564337
227	0x3f0706aa	0.52744544
228	0xbf85b4fe	-1.044586
229	0x3ef941e6	0.4868309
230	0xbe48106a	-0.19537511
231	0x3ebf9205	0.37416092
232	0x3fa73b24	1.3064923
233	0xbf524357	-0.82134
234	0xbed4159f	-0.41422746
235	0xbeb4eb07	-0.35335562
236	0x3f865e9c	1.0497622
237	0xbfbbe03a	-1.4677804
238	0x3fdcf0fd	1.7261044
239	0x3ebab058	0.36462665
240	0x3fc81b4e	1.5633333
241	0xbf3bb8cb	-0.73328847
242	0xbe8c53ef	-0.27407786
243	0xbf5b31c7	-0.8562283
244	0xbe0dfbda	-0.13865605
245	0xbfa5787f	-1.2927397
246	0x3ecb84b2	0.39749676
247	0x3db95eac	0.0905126
248	0xbf81fba8	-1.0154924
249	0x3ebee1ba	0.3728159
250	0xbf0025ee	-0.50057876
251	0x3ed3b570	0.41349363
252	0xbfd1634b	-1.6358427
253	0x3ece4b77	0.4029195
254	0x3f11edf8	0.57003736
255	0x3e995eee	0.29955238

b_conv2 f4 [32]
0	0x3dcccccd	0.1
1	0x3dcccccd	0.1
2	0x3dcccccd	0.1
3	0x3dcccccd	0.1
4	0x3dcccccd	0.1
5	0x3dcccccd	0.1
6	0x3dcccccd	0.1
7	0x3dcccccd	0.1
8	0x3dcccccd	0.1
9	0x3dcccccd	0.1
10	0x3dcccccd	0.1
11	0x3dcccccd	0.1
12	0x3dcccccd	0.1
13	0x3dcccccd	0.1
14	0x3dcccccd	0.1
15	0x3dcccccd	0.1
16	0x3dcccccd	0.1
17	0x3dcccccd	0.1
18	0x3dcccccd	0.1
19	0x3dcccccd	0.1
20	0x3dcccccd	0.1
21	0x3dcccccd	0.1
22	0x3dcccccd	0.1
23	0x3dcccccd	0.1
24	0x3dcccccd	0.1
25	0x3dcccccd	0.1
26	0x3dcccccd	0.1
27	0x3dcccccd	0.1
28	0x3dcccccd	0.1
29	0x3dcccccd	0.1
30	0x3dcccccd	0.1
31	0x3dcccccd	0.1

W_out f4 [256, 5]
0	0x3fc23f7f	1.5175627
1	0xbf5e18fc	-0.86756873
2	0xbe10d4e8	-0.14143717
3	0xbd05d228	-0.032671124
4	0xbc62f14d	-0.013851476
5	0xbf6431df	-0.891386
6	0xbf510f4a	-0.81663954
7	0x3f1d6bd9	0.6149269
8	0x3f53bdf3	0.82711715
9	0x3fcd81bd	1.6055218
10	0x3ecba788	0.39776254
11	0xbf84c2d0	-1.0371952
12	0xbe1bfb8d	-0.15232678
13	0xbe90ff6e	-0.28319877
14	0xbf9f71e1	-1.2456628
15	0x3f26009e	0.6484469
16	0xbdbc62ab	-0.09198507
17	0x3eda28ce	0.42609257
18	0xbf8a912a	-1.082555
19	0x3fa33b72	1.2752516
20	0x3f9317ae	1.1491601
21	0xbe88490f	-0.2661824
22	0x3edf8fd9	0.43664435
23	0x3eb26df5	0.34849516
24	0xbf93f65d	-1.1559559
25	0xbf8b21c1	-1.0869676
26	0x3ac8687a	0.0015289926
27	0x3ee8eabc	0.45491588
28	0xbff1aa57	-1.8880109
29	0x3f840509	1.0314037
30	0x3f81f120	1.015171
31	0x3cec3423	0.028833454
32	0xbfd302a7	-1.6485184
33	0xbd93d158	-0.072176635
34	0xbf15caeb	-0.58512753
35	0xbf603d34	-0.8759339
36	0xbf2fbfe3	-0.6865217
37	0x3fab8d53	1.3402504
38	0xbe4562f6	-0.19276032
39	0xbf516e27	-0.81808704
40	0x3f590b21	0.84782606
41	0xbe0f109e	-0.13971183
42	0xbce5c42a	-0.02804764
43	0xbf9e9b13	-1.2391075
44	0xbfc23ad7	-1.5174206
45	0x3f1ba2a8	0.6079507
46	0x3fc639a3	1.5486339
47	0x3f0907d6	0.5352758
48	0xbed1d4da	-0.40982705
49	0xbdf75671	-0.12077034
50	0x3f001147	0.50026363
51	0xbe7a200e	-0.2442629
52	0x3fa4f818	1.2888212
53	0x3f0014a0	0.5003147
54	0xbe8a89ff	-0.27058408
55	0xbed8720a	-0.42274505
56	0xbf30ff67	-0.69139713
57	0x3d715ec6	0.058928274
58	0x3fc90eb4	1.5707612
59	0xbe8bdf76	-0.27318925
60	0xbdd9f3b0	-0.10642183
61	0xbe9dcdb4	-0.30821002
62	0xbefc273b	-0.4924868
63	0x3e61a2ed	0.22034808
64	0x3e8aaef4	0.27086604
65	0xbf9a8937	-1.2073125
66	0xbe8be015	-0.273194
67	0xbf60d1ff	-0.8782043
68	0x3e93d6f0	0.28874922
69	0xbf6a5c2d	-0.915469
70	0x3ea8caff	0.32967374
71	0x3f2aa4cf	0.6665773
72	0x3dc77169	0.09738428
73	0xbf6140d4	-0.87989545
74	0x3f474603	0.77841204
75	0xbfa7ba4e	-1.3103731
76	0x3e10cab8	0.14139831
77	0x3e360ef9	0.17779149
78	0x3f85ac92	1.0443289
79	0xbe5b5c8d	-0.21422024
80	0xbea568d5	-0.32306543
81	0x3f4fad34	0.8112366
82	0xbe5a5278	-0.21320522
83	0x3f1fd7a2	0.62438405
84	0xbdf6599b	-0.1202881
85	0xbfb9c807	-1.4514169
86	0xbf8474fa	-1.0348198
87	0x3f8976fe	1.0739439
88	0x3f490188	0.7851796
89	0x3fc6b618	1.5524321
90	0x3e78956d	0.24275751
91	0xbf8f3d77	-1.1190633
92	0x3e0090ae	0.12555191
93	0xbe93e8a7	-0.28888437
94	0x3e489eff	0.19591902
95	0xbfe00128	-1.7500353
96	0xbec4327f	-0.38319775
97	0x3d97f2a3	0.07419326
98	0x3f3d3d77	0.7392191
99	0x3f5093f7	0.81475776
100	0x3fa2653f	1.2687148
101	0xbf56b2d1	-0.838666
102	0xbec0e761	-0.37676528
103	0xbfc7b955	-1.5603434
104	0xbee76d80	-0.4520073
105	0x3f0e9449	0.55695015
106	0xbf5b621e	-0.8569659
107	0x3f156057	0.5835013
108	0x3da8e804	0.082473785
109	0xbeaa1760	-0.3322096
110	0x3f6c8abf	0.9239921
111	0xbf950672	-1.1642592
112	0x3f66f03a	0.90210307
113	0xbd884027	-0.06652861
114	0xbf091b6f	-0.53557485
115	0xbd97b757	-0.07408016
116	0x3f13c72f	0.57725805
117	0x3f8b1413	1.0865501
118	0x3ed528cf	0.41632697
119	0xbf4f7347	-0.81035274
120	0xbde3ac88	-0.11116892
121	0xbfad3a55	-1.3533427
122	0x3edde614	0.43339598
123	0x3efdae62	0.49547106
124	0xbeb796f9	-0.3585737
125	0x3fbc5e32	1.4716246
126	0xbf5849c1	-0.8448754
127	0x3d21437e	0.039371006
128	0xbdd5603d	-0.104187466
129	0x3fb951fa	1.4478142
130	0xbefa60f6	-0.489021
131	0xbeb5e49f	-0.35525987
132	0xbf7f8046	-0.99805105
133	0x3f88fca5	1.0702101
134	0x3e494285	0.19654281
135	0xbf21fe20	-0.6327839
136	0x3eac0134	0.33594668
137	0xbf80cf34	-1.0063233
138	0xbfafc729	-1.3732654
139	0x3fee7c8c	1.8631759
140	0x4003e19a	2.0606446
141	0xbf56b055	-0.8386281
142	0x3f017db0	0.5058241
143	0xbf53be55	-0.827123
144	0x3d97b222	0.07407023
145	0xbf44dbc0	-0.7689781
146	0xbfaa3055	-1.3296
147	0x3ebf1cc8	0.37326646
148	0xbfac2788	-1.3449564
149	0xbe8586c5	-0.26079383
150	0x3f66dd1b	0.9018113
151	0x3ec2014d	0.37891617
152	0xbfcc7608	-1.597352
153	0x3f13903c	0.5764196
154	0x3faaba15	1.3338038
155	0x3ff1d005	1.8891608
156	0xbfbab800	-1.4587402
157	0x3efc2a4e	0.49251026
158	0xbfd36bb3	-1.6517242
159	0x3f46bfd6	0.7763647
160	0xbfc81d48	-1.5633936
161	0xbfc37ffd	-1.5273434
162	0x3f672f69	0.9030672
163	0xbea63937	-0.32465526
164	0x3fc8ba84	1.568192
165	0xbe21bdc3	-0.15795045
166	0x3e859826	0.26092643
167	0x3e71ec15	0.23625214
168	0xbe9b0724	-0.30278885
169	0xbf395c00	-0.72406006
170	0x3dc85297	0.09781378
171	0x3fa482cd	1.2852417
172	0x3eb5cfa3	0.35509977
173	0x3d98ffdf	0.074706785
174	0xbfc020ce	-1.5010011
175	0xbfcbeb8f	-1.5931262
176	0xbe4ede21	-0.20201923
177	0x3ede8210	0.43458605
178	0xbf456681	-0.77109534
179	0x3f72a88c	0.9478843
180	0xbf83597a	-1.0261681
181	0xbec0f2d5	-0.37685266
182	0xbf2e3192	-0.6804439
183	0xbf7ed15b	-0.995382
184	0xbeb9bf0f	-0.3627858
185	0x3e92a548	0.28641725
186	0xbf416ef8	-0.7555995
187	0x3fc960dc	1.5732684
188	0x3d8709d0	0.065936685
189	0xbfb447ee	-1.4084451
190	0xbeb3d9cc	-0.35127103
191	0xbf12ed57	-0.573934
192	0x3e8cd417	0.27505562
193	0x3ff09b05	1.8797308
194	0x3f2feb8c	0.6871879
195	0xbecb3a84	-0.3969308
196	0xbf52ba38	-0.823154
197	0x3f8f94cc	1.1217284
198	0xbebae85f	-0.3650541
199	0xbfd082aa	-1.6289876
200	0x3f9028fc	1.1262507
201	0xbee9bf20	-0.4565363
202	0xbecc76d3	-0.39934406
203	0xbdde12e0	-0.10843444
204	0xbe3eef86	-0.18646058
205	0x3f740c6a	0.9533144
206	0xbc5dbd29	-0.013533869
207	0x3e502015	0.20324738
208	0x3e323d2f	0.17406152
209	0xbf1ca7f4	-0.61193776
210	0x3fb2918e	1.395067
211	0x3e203f11	0.15649058
212	0x3e90f577	0.28312275
213	0x3f623902	0.88368237
214	0xbfb68ae8	-1.4261141
215	0xbef6c233	-0.48195037
216	0x3e8fe7c3	0.28106508
217	0x3e60e2c9	0.21961512
218	0xbf22956d	-0.63509256
219	0xbf3567f7	-0.7086176
220	0x3fd4e60f	1.6632708
221	0xbfdb9faf	-1.7158107
222	0xbe220cbf	-0.15825175
223	0xbfa4cc30	-1.2874813
224	0xbe483e14	-0.19554931
225	0x3e970a28	0.29499936
226	0x3e71b725	0.2360502
227	0x3f529176	0.82253206
228	0x3cbf4920	0.023350298
229	0xbf0979f3	-0.53701705
230	0x3f214091	0.62989146
231	0xbde0e03b	-0.109802686
232	0x3e985340	0.29751015
233	0x3ef380bd	0.47559157
234	0x3dc29f1c	0.09503004
235	0xbf9b90bf	-1.2153548
236	0x3ea28608	0.31742883
237	0xbf0cd8cf	-0.55018324
238	0xbf64c58c	-0.8936393
239	0xbf88f968	-1.0701113
240	0x3f347341	0.70488364
241	0x3f3435b1	0.70394427
242	0x3f2febe1	0.687193
243	0xbf17f8bd	-0.5936392
244	0xbf056bb9	-0.52117497
245	0x3e161922	0.14658025
246	0x3ff4b125	1.911656
247	0x3f62f3c8	0.8865323
248	0x3f97a734	1.1847901
249	0x3f89828d	1.0742966
250	0x3f6c23bb	0.9224202
251	0x3ff6d593	1.9283928
252	0x3f396ea2	0.7243444
253	0xbf84f929	-1.0388538
254	0x3cd3b312	0.025842223
255	0x3e82a501	0.25516513

b_out f4 [5]
0	0x3dcb3fd4	0.099242836
1	0x3dccf853	0.100083016
2	0x3dcc9375	0.09989063
3	0x3dccc1d7	0.099979095
4	0x3dcc2596	0.099681064

b_fc f4 [256]
0	0x3dcc4dc2	0.099757686
1	0x3dcccccd	0.1
2	0x3dca2001	0.098693855
3	0x3dcc05f2	0.099620715
4	0x3dd0abcb	0.10189017
5	0x3dcad623	0.099041246
6	0x3dcd86d4	0.10035482
7	0x3dca676a	0.09883006
8	0x3dca025b	0.098637305
9	0x3dccafa4	0.09994438
10	0x3dccb5e9	0.09995634
11	0x3dcc9772	0.099898234
12	0x3dcd476a	0.10023387
13	0x3dcc33e5	0.099708356
14	0x3dcd0eee	0.10012613
15	0x3dc9d62f	0.098553054
16	0x3dcbad7b	0.09945198
17	0x3dcccc25	0.09999875
18	0x3dccc872	0.099991694
19	0x3dcbfbd2	0.0996014
20	0x3dcb5f91	0.09930337
21	0x3dcc808d	0.099854566
22	0x3dccca1c	0.09999487
23	0x3dcaf809	0.0991059
24	0x3dcc0c8f	0.09963333
25	0x3dcad597	0.0990402
26	0x3dccc3b3	0.09998264
27	0x3dccb77f	0.099959366
28	0x3dcc78ab	0.09983953
29	0x3dce8735	0.100843824
30	0x3dca923b	0.098911725
31	0x3dcbdd24	0.099542886
32	0x3dcc3365	0.0997074
33	0x3dcc40e5	0.09973315
34	0x3dcf23cb	0.10114249
35	0x3dcd652b	0.10029062
36	0x3dd017b8	0.10160774
37	0x3dc94580	0.09827709
38	0x3dce7294	0.10080448
39	0x3dcdf0c1	0.10055686
40	0x3dcdff38	0.10058445
41	0x3dcccccd	0.1
42	0x3dcc176a	0.099654034
43	0x3dce315e	0.1006801
44	0x3dd0faac	0.10204062
45	0x3dccccfb	0.100000344
46	0x3dccc8e4	0.09999254
47	0x3dcccccd	0.1
48	0x3dcb6fae	0.099334106
49	0x3dcb9880	0.099411964
50	0x3dcba738	0.09944004
51	0x3dccb967	0.099963
52	0x3dcb83f0	0.099372745
53	0x3dccb345	0.099951304
54	0x3dcc2c89	0.09969432
55	0x3dcb83b9	0.099372335
56	0x3dcc9ee1	0.09991241
57	0x3dcdb5b5	0.100444235
58	0x3dcccccd	0.1
59	0x3dca9ab4	0.098927885
60	0x3dcbe90d	0.0995656
61	0x3dcc326c	0.09970555
62	0x3dca9989	0.09892566
63	0x3dce38ca	0.100694254
64	0x3dcccccd	0.1
65	0x3dc931e5	0.0982397
66	0x3dc8dfb9	0.09808297
67	0x3dccf547	0.100077204
68	0x3dce9e4b	0.10088786
69	0x3dccc60a	0.099987105
70	0x3dcc2913	0.09968772
71	0x3dcd46d1	0.10023273
72	0x3dce5440	0.10074663
73	0x3dcd3524	0.100199014
74	0x3dcbf2b8	0.09958404
75	0x3dcb658c	0.09931478
76	0x3dcc97a4	0.09989861
77	0x3dcccd09	0.10000045
78	0x3dcf0dde	0.10110067
79	0x3dcb1961	0.0991695
80	0x3dcbe155	0.09955088
81	0x3dcdfc67	0.100579076
82	0x3dcccc91	0.099999554
83	0x3dcb9984	0.0994139
84	0x3dcc9074	0.0998849
85	0x3dcc1f1c	0.09966871
86	0x3dcb2d31	0.09920729
87	0x3dcb7329	0.099340744
88	0x3dcd3792	0.10020365
89	0x3dcceb7d	0.10005853
90	0x3dcccccd	0.1
91	0x3dca3b32	0.09874572
92	0x3dcc3c5a	0.09972449
93	0x3dcd2624	0.1001704
94	0x3dccccfc	0.10000035
95	0x3dca870f	0.09889042
96	0x3dcd1d07	0.10015302
97	0x3dcd5741	0.10026408
98	0x3dcdc4e7	0.10047322
99	0x3dcbf237	0.09958308
100	0x3dcb9005	0.09939579
101	0x3dce0472	0.100594416
102	0x3dcc9bf9	0.09990687
103	0x3dcccaa1	0.09999586
104	0x3dccb369	0.09995157
105	0x3dcd5843	0.100266
106	0x3dcbe093	0.099549435
107	0x3dcc9d61	0.09990955
108	0x3dcce8af	0.100053184
109	0x3dcf4764	0.101210386
110	0x3dcabfdd	0.09899876
111	0x3dcccccd	0.1
112	0x3dcd943a	0.100380376
113	0x3dca8e26	0.09890394
114	0x3dcb86d8	0.09937829
115	0x3dcccccd	0.1
116	0x3dcdb61b	0.100444995
117	0x3dcba01b	0.09942647
118	0x3dcce4f4	0.10004607
119	0x3dcce4c9	0.10004575
120	0x3dc9b4b1	0.09848917
121	0x3dcb2289	0.099186964
122	0x3dcd6c3f	0.10030412
123	0x3dce5490	0.10074723
124	0x3dce6185	0.10077194
125	0x3dcdfc90	0.10057938
126	0x3dce07b1	0.10060061
127	0x3dca2d5e	0.09871934
128	0x3dcc9578	0.099894464
129	0x3dcc827d	0.09985826
130	0x3dce2390	0.10065377
131	0x3dca3666	0.09873657
132	0x3dccf0cf	0.10006868
133	0x3dccee3a	0.100063756
134	0x3dcea11e	0.100893244
135	0x3dcbd02b	0.09951814
136	0x3dcc8d25	0.09987859
137	0x3dce1e71	0.100644
138	0x3dcaf5f6	0.099101946
139	0x3dcb1427	0.09915953
140	0x3dccedaf	0.10006272
141	0x3dcc2d07	0.09969526
142	0x3dcd5909	0.10026748
143	0x3dc984e9	0.09839804
144	0x3dcbbbdd	0.099479415
145	0x3dcdb47e	0.10044192
146	0x3dccd8b0	0.10002267
147	0x3dcdc264	0.10046843
148	0x3dcc0981	0.0996275
149	0x3dcccb7d	0.0999975
150	0x3dcce627	0.100048356
151	0x3dcaf7bd	0.099105336
152	0x3dca928b	0.09891232
153	0x3dcb6e94	0.099332005
154	0x3dcc9ceb	0.09990867
155	0x3dcbc42d	0.09949527
156	0x3dcccdd2	0.100001946
157	0x3dcc161c	0.099651545
158	0x3dcb1084	0.099152595
159	0x3dce6be2	0.10079171
160	0x3dccfdb4	0.100093275
161	0x3dcc2107	0.09967237
162	0x3dcd1b86	0.10015015
163	0x3dccb965	0.09996299
164	0x3dccdb9e	0.10002826
165	0x3dcd3ad9	0.1002099
166	0x3dcd4dfb	0.10024639
167	0x3dcdef3a	0.100553945
168	0x3dcd3eda	0.100217536
169	0x3dcddd14	0.10051933
170	0x3dcb911b	0.09939786
171	0x3dcc04a7	0.09961825
172	0x3dcb4f8f	0.09927284
173	0x3dcbd771	0.099532016
174	0x3dca335b	0.098730765
175	0x3dcc3e1c	0.09972784
176	0x3dcc6744	0.09980634
177	0x3dcccccd	0.1
178	0x3dcc185a	0.09965582
179	0x3dccb3ab	0.099952064
180	0x3dccccdd	0.10000012
181	0x3dcc72d0	0.09982836
182	0x3dcc543d	0.09977005
183	0x3dcc646a	0.0998009
184	0x3dcef381	0.101050384
185	0x3dcc8384	0.09986022
186	0x3dc9309e	0.09823726
187	0x3dcab16f	0.09897124
188	0x3dcda88c	0.100419134
189	0x3dcc0521	0.09961916
190	0x3dcd7771	0.10032547
191	0x3dcc66e7	0.099805646
192	0x3dcbb77a	0.09947105
193	0x3dd0aabd	0.10188816
194	0x3dcb1ede	0.09917997
195	0x3dcaa10c	0.098939985
196	0x3dcb8ba7	0.09938746
197	0x3dcb5c44	0.09929708
198	0x3dcce9da	0.10005541
199	0x3dcb9e29	0.09942276
200	0x3dce2ce0	0.10067153
201	0x3dcc1530	0.09964979
202	0x3dce669a	0.100781634
203	0x3dcafe46	0.0991178
204	0x3dccbfb1	0.099975
205	0x3dd095f7	0.101848535
206	0x3dcccccd	0.1
207	0x3dccd04e	0.100006685
208	0x3dcd7b7d	0.10033319
209	0x3dd072e9	0.101781674
210	0x3dcd0cda	0.10012217
211	0x3dcc9ddf	0.09991049
212	0x3dccd7c9	0.10002095
213	0x3dcffd8b	0.10155781
214	0x3dcb56b9	0.099286504
215	0x3dcccccd	0.1
216	0x3dcd708c	0.10031232
217	0x3dca0386	0.09863953
218	0x3dcb4070	0.099244
219	0x3dcd27c5	0.10017351
220	0x3dc97379	0.09836478
221	0x3dcccccd	0.1
222	0x3dcb1098	0.099152744
223	0x3dcbc1a8	0.099490464
224	0x3dc6be39	0.09704251
225	0x3dcc7806	0.0998383
226	0x3dce30de	0.100679144
227	0x3dcc6583	0.09980299
228	0x3dcccccd	0.1
229	0x3dcd3033	0.10018959
230	0x3dccd522	0.10001589
231	0x3dccc1e6	0.09997921
232	0x3dcccccd	0.1
233	0x3dcb7c24	0.09935787
234	0x3dcd1272	0.10013284
235	0x3dcbdd90	0.09954369
236	0x3dcf9c39	0.10137219
237	0x3dccf7b3	0.100081824
238	0x3dcafa1c	0.09910986
239	0x3dcccccd	0.1
240	0x3dcbcb70	0.09950912
241	0x3dcb83e5	0.09937266
242	0x3dce1fd7	0.10064667
243	0x3dcbeac2	0.09956886
244	0x3dcd9cf4	0.10039702
245	0x3dcb70d9	0.09933633
246	0x3dcfcea1	0.10146833
247	0x3dcb9ce3	0.09942033
248	0x3dccb11c	0.099947184
249	0x3dcccf78	0.10000509
250	0x3dcb72f0	0.09934032
251	0x3dccd583	0.10001662
252	0x3dcd0d6b	0.10012325
253	0x3dcd114c	0.10013065
254	0x3dd04f76	0.10171406
255	0x3dcfe160	0.10150409

W_conv2 f4 [3, 3, 16, 32]
0	0xbf476993	-0.7789547
1	0x3fae1894	1.3601251
2	0x3e8fd0ec	0.28089082
3	0x3d373c52	0.04473526
4	0x3ef148be	0.4712581
5	0x3fe40904	1.7815251
6	0x3e21a2ea	0.15784803
7	0xbfc6c1b5	-1.5527865
8	0x3faa2815	1.3293482
9	0x3f090401	0.53521734
10	0xbf2cfa70	-0.6756964
11	0x3e0f86c8	0.14016259
12	0x3f32caa5	0.6984046
13	0xbe50a9a2	-0.2037721
14	0xbe975424	-0.29556382
15	0x3f4444a0	0.76667213
16	0xbe9f7302	-0.31142431
17	0xbe64902b	-0.2232062
18	0x3ed630bf	0.41834065
19	0x3efd0db5	0.4942452
20	0xbf0be0b0	-0.5463972
21	0x3c3957dd	0.011312452
22	0xbe98a5eb	-0.29814085
23	0x3dd5b07e	0.10434054
24	0xbf2f22fb	-0.6841275
25	0x3ee4366f	0.4457278
26	0x3e530def	0.20610784
27	0x3fafbf6b	1.3730291
28	0xbfb5b1a2	-1.4194834
29	0xbd8e58b6	-0.06950514
30	0xbf077625	-0.5291465
31	0x3dae36f4	0.08506575
32	0xbfe4abc2	-1.7864916
33	0x3e610f2a	0.21978441
34	0x3ee22093	0.44165477
35	0xbeb5762c	-0.3544172
36	0x3f8c8606	1.0978401
37	0x3f1fda08	0.62442064
38	0x3eac71b7	0.33680508
39	0x3e9d9c24	0.30783188
40	0xbf220cb3	-0.6330063
41	0xbea92b34	-0.33040774
42	0x3fe0e036	1.7568424
43	0x3f285b6d	0.65764505
44	0xbef96064	-0.48706353
45	0xbf8f4612	-1.1193259
46	0xbf67c043	-0.90527743
47	0xc0071b11	-2.111027
48	0x3ece295a	0.40265924
49	0x3e7cb4ee	0.24678394
50	0x3e7ec052	0.24878052
51	0xbfcc36d9	-1.5954238
52	0x3f1f4352	0.622121
53	0x3f5ba77f	0.85802454
54	0xbe306a3e	-0.17228028
55	0xbfc1fd44	-1.5155416
56	0x3f24de2f	0.64401525
57	0xbfd7fccf	-1.6874026
58	0xbfbd8c90	-1.4808521
59	0x3f2b69ff	0.6695861
60	0x3f88c0d2	1.0683844
61	0x3e26198c	0.16220683
62	0xbf352845	-0.7076457
63	0x3f9f775f	1.2458304
64	0x3e82cd8a	0.2554744
65	0xbfeee8f8	-1.8664846
66	0xbf98805d	-1.1914173
67	0xbfb06b24	-1.3782697
68	0x3ff0ec68	1.8822145
69	0x3f1e55dc	0.6184976
70	0x3ebe264a	0.37138587
71	0x3f2be993	0.6715328
72	0x3ea4b67f	0.32170483
73	0xbf6833fc	-0.9070432
74	0xbe722828	-0.23648131
75	0x3ed53c60	0.41647625
76	0x3e9fbe1b	0.31199726
77	0xbf75d501	-0.96028143
78	0xbf507ee0	-0.81443596
79	0xbf8d4d38	-1.103919
80	0xbf2e0eb5	-0.6799119
81	0xbeae6319	-0.3405998
82	0x3f0d5936	0.5521425
83	0xbe42e1ca	-0.19031444
84	0xbea9d4b3	-0.3317009
85	0xbeb09982	-0.34492117
86	0x3f0b0f00	0.54319763
87	0xbeea2842	-0.4573384
88	0x3f17becb	0.592755
89	0x3ea0ed81	0.314312
90	0x3ee0c05d	0.43896762
91	0xbe294c1b	-0.16532938
92	0x3fdf2707	1.7433785
93	0xbfe76e9c	-1.808063
94	0x3c9764b2	0.018480632
95	0xbfea933c	-1.8326182
96	0xbed50bb5	-0.41610494
97	0x3f416bdd	0.7555521
98	0x3f00919e	0.50222194
99	0xbff88f14	-1.9418664
100	0xbe2523ee	-0.16126987
101	0x3f899bd5	1.0750681
102	0x3e1bed5a	0.15227261
103	0x3f9d1a58	1.2273664
104	0x3f15c20f	0.58499235
105	0x3f096444	0.5366862
106	0x3ea2e5f7	0.31816074
107	0x3ec49226	0.38392752
108	0x3e9d9bfa	0.30783063
109	0xbea6024c	-0.32423627
110	0x3eb9ce50	0.36290216
111	0xbf8ac2af	-1.0840663
112	0x3d329b13	0.04360492
113	0xbded0221	-0.11572672
114	0xbf31374f	-0.6922502
115	0xbf6ffca7	-0.9374489
116	0xbf89bbb3	-1.0760406
117	0xbf8cf61c	-1.1012607
118	0xbec0da64	-0.3766662
119	0xbdb33726	-0.08750753
120	0x3fc1b033	1.5131897
121	0x3e569edd	0.20959039
122	0x3f6945f6	0.91122377
123	0xbfac6904	-1.3469548
124	0xbf158ede	-0.58421123
125	0xbe85ff44	-0.26171315
126	0xbf4155b9	-0.7552143
127	0x3f7beb4a	0.984059
128	0xbf872702	-1.0558779
129	0x3ef00209	0.46876553
130	0xbfa554f4	-1.2916551
131	0x3f1d060c	0.6133735
132	0xbeaa6eac	-0.3328756
133	0xbdee00cb	-0.11621245
134	0xbfab1d62	-1.3368342
135	0x3fb1213a	1.3838265
136	0x3fa0c15e	1.2559011
137	0xbe967a94	-0.29390395
138	0xbfa71e3c	-1.3056102
139	0x3e76d370	0.24104095
140	0xbe5a14cb	-0.21296994
141	0x3da2c0ac	0.079469055
142	0xbf0fc734	-0.56163335
143	0x3f0ceff1	0.5505362
144	0x3e336920	0.17520571
145	0xbe18bba8	-0.14915335
146	0xbb9e0013	-0.004821786
147	0x3d9a794b	0.07542666
148	0x3f96c88d	1.1779953
149	0x3f3cc071	0.7373114
150	0xbf1598f6	-0.58436525
151	0xbfa589ba	-1.2932656
152	0xbe69f51b	-0.22847407
153	0xbfab4237	-1.3379582
154	0x3f647e41	0.8925515
155	0xbf700374	-0.9375527
156	0x3f52aa94	0.8229153
157	0x3d66279b	0.056190114
158	0xbfb58bfe	-1.4183347
159	0x3f91d633	1.1393493
160	0x3f41d744	0.75719094
161	0xbf208161	-0.62697417
162	0x3f273fca	0.6533171
163	0x40056cf2	2.0847745
164	0xbf805b11	-1.0027791
165	0xbf831821	-1.0241739
166	0x3d9edff6	0.07757561
167	0x3f59d4bf	0.8509025
168	0x3f05574e	0.5208634
169	0xbf393588	-0.7234731
170	0xbe056d67	-0.13030015
171	0xbe4712e9	-0.19440807
172	0xbfcb51a0	-1.5884285
173	0xbf729b37	-0.9476809
174	0xbf73c05b	-0.95215386
175	0x3d3143ef	0.043277677
176	0xbee7b6e8	-0.45256734
177	0xbfb3e97f	-1.4055632
178	0xbed071be	-0.40711778
179	0xbe984635	-0.29741064
180	0xbfc2edc6	-1.5228813
181	0xbf62d02e	-0.88598907
182	0x3de99d75	0.11406986
183	0xbf5f2c20	-0.87176704
184	0xbfa74939	-1.3069221
185	0xc0011a8e	-2.0172458
186	0x3f17680e	0.5914315
187	0x3ec36946	0.38166255
188	0x3fbddee5	1.4833647
189	0xbed64797	-0.41851494
190	0x3f7c01e1	0.98440367
191	0x3f583d52	0.8446857
192	0x3f84fba6	1.0389297
193	0x3f6f506d	0.93482095
194	0xbfaef482	-1.3668368
195	0xbd9d9352	-0.07694115
196	0xbfadef00	-1.3588562
197	0x3e82de99	0.25560454
198	0xbef495e8	-0.4777062
199	0x3d53997f	0.051660057
200	0xbe6854db	-0.2268862
201	0x3f71cf17	0.9445662
202	0x3f81d750	1.0143833
203	0x3f2325cc	0.6372955
204	0xbf3706bb	-0.71494645
205	0xbec87018	-0.3914802
206	0x3ef699e7	0.48164293
207	0xbfed0788	-1.8517923
208	0xbf29ff0e	-0.6640481
209	0x3f829005	1.0200201
210	0x3f874716	1.0568569
211	0x3ecc83cf	0.39944312
212	0x3fc1e8f9	1.5149223
213	0xbeb08b96	-0.34481496
214	0x3ec4e1b2	0.38453442
215	0xbfb146bd	-1.3849713
216	0x3e847df8	0.25877357
217	0x3f994f6b	1.1977361
218	0xbf6283ce	-0.8848237
219	0x400097c4	2.009263
220	0x3f5511b1	0.8323012
221	0xbbd33c81	-0.0064464216
222	0x3fb701f6	1.4297473
223	0x3e2c4f27	0.16827069
224	0xbfa2ff81	-1.2734224
225	0x3fd91649	1.6959926
226	0x3d3f230c	0.046664283
227	0x3f0b9610	0.5452585
228	0x3fd8d5e8	1.6940279
229	0x3da2ba5d	0.07945702
230	0xbca763b0	-0.020433277
231	0x3f1e2715	0.61778384
232	0x3b890879	0.004181918
233	0xbfa75ecd	-1.3075806
234	0xbf5e2dcf	-0.8678865
235	0x3f83c2cd	1.0293823
236	0xbe8fc86c	-0.28082597
237	0x3fd6d5c9	1.6783992
238	0xbf72ae61	-0.9479733
239	0xbf9e5706	-1.2370307
240	0x3f537b25	0.8260978
241	0x3f7ce8e8	0.98792887
242	0xbf37d8b0	-0.71815014
243	0xbf005482	-0.5012895
244	0x3fc25da0	1.5184822
245	0xbe609288	-0.21930897
246	0x3f54d64d	0.831395
247	0x3f8c851c	1.0978122
248	0x3f0fb721	0.5613881
249	0xbee0b69b	-0.43889317
250	0xbe6d5b87	-0.23179446
251	0x3f201f2b	0.6254756
252	0xbe875bc2	-0.26437193
253	0xbec27ede	-0.37987417
254	0xbe18892e	-0.1489608
255	0xbfefc3d8	-1.8731642
