Models/Tensorflow/model_7x7_zombie.npz (npz, 552614 bytes, 8 tensors)

W_fc f4 [512, 256]
000000 96 86 56 bf 89 57 49 be f3 c6 0d 3e cc 52 9c bf
       -0.8379911 -0.19662298 0.13845424 -1.2212768
000010 85 b4 36 be 38 58 e4 bf 92 72 dc be 32 e0 f4 bd
       -0.178423 -1.7839422 -0.4305616 -0.11956824
000020 0e b6 8b bf 39 b6 dc 3e 24 27 2f bd 9c 3d 89 3e
       -1.0914934 0.43107775 -0.042761937 0.26804817
000030 e4 88 b4 bc 32 c0 52 3f bb f4 80 3e ad 4e 15 3f
       -0.02203793 0.82324517 0.25186715 0.58323175
000040 2b 74 4d bd 73 bf 2d be 6f bf c1 3d 48 4b fc 3f
       -0.050159615 -0.16967563 0.09460341 1.9710474
000050 62 88 94 3e 5a 40 6a bd 1d 26 80 bd 2b 74 e8 3f
       0.29010302 -0.057190277 -0.062572695 1.8160452
000060 30 5d c0 3e f0 27 47 be dc 13 d8 3e 2c 96 06 bf
       0.37571096 -0.19448829 0.42202652 -0.52572894
000070 e0 70 37 3f fd b6 f4 3f 47 6a 4b 3d 08 b3 22 3f
       0.7165661 1.9118344 0.0496619 0.6355443
000080 c0 a5 a4 3e 77 20 57 be d9 2c aa 3e a1 da 0e bf
       0.32157707 -0.21008478 0.3323734 -0.5580235
000090 80 66 e3 be 57 59 be 3f db 6e de bf ec 49 9d bf
       -0.4441414 1.4871014 -1.737758 -1.2288184
0000a0 cf 39 d2 3f 4c 0e c0 bf 8f dd 74 be fd 40 39 bd
       1.6423892 -1.5004363 -0.23912643 -0.045227993
0000b0 d9 0e 88 bf 1d 0e 32 3e 2b 81 a0 3d ab 81 dd 3e
       -1.0629531 0.17388196 0.07837137 0.4326299
0000c0 28 09 ca be 87 aa fc bf 84 58 db bf 51 c9 94 be
       -0.3946011 -1.9739541 -1.7136388 -0.29059842
0000d0 60 c7 57 bf 5e 75 db 3f f2 94 ed be 54 97 d6 be
       -0.842886 1.7145193 -0.464027 -0.4191233
0000e0 4d bb 82 bf da 78 3a be eb 1e 3e 3f 3c 9d 05 be
       -1.021341 -0.18210164 0.7426593 -0.13048261
0000f0 de d5 8c 3f f6 41 e4 3f 57 e3 37 bd 2e f6 5a 3f
       1.1002767 1.783263 -0.044894543 0.8553189
000100 ea 5f 3e be cb e6 91 be 4d e6 86 3f 09 a6 0b 3f
       -0.18591276 -0.28496394 1.0539032 0.54550225
000110 b1 e5 cd bf ba d4 7b 3f 1f e1 84 3f fe 5e 4b 3e
       -1.6085721 0.9837147 1.0381202 0.19860455
000120 72 de 9f bf 8d 03 e3 3e f4 98 d4 3f a9 8d b2 bd
       -1.248976 0.44338647 1.6609178 -0.08718426
000130 22 d5 57 bf ac b3 d9 3e 1f 1a 31 3f a8 84 86 3f
       -0.8430959 0.4251989 0.6918048 1.0509233
000140 ac 65 61 3f be 4b 16 3f 31 98 b5 3f 25 cc 49 3f
       0.88045764 0.58709323 1.418707 0.78827125
000150 27 72 db 3c d8 d0 76 bf 5f 68 05 bf 94 fd 3e 3f
       0.02678783 -0.9641242 -0.5211238 0.7460568
000160 38 5c 4b bf 42 1d ed bd d9 04 71 be 7f 31 9f bf
       -0.7943759 -0.11577846 -0.23537005 -1.243698
000170 a7 e7 be 3f c6 3e 59 bf 72 13 63 3e 37 1b fb bf
       1.4914445 -0.8486141 0.22175387 -1.961768
000180 fd 5c 38 3f 5f 4a b3 be 88 a8 d6 be c7 d1 74 3f
       0.7201689 -0.35017678 -0.41925454 0.95632595
000190 0a c9 71 3e 66 e7 60 3f cf fb 98 3f 62 7a 2d 3e
       0.23611847 0.87853086 1.1951846 0.16941217
0001a0 55 47 0d 3e 0f 4f 86 be 8d 07 22 3f 65 1b d0 bf
       0.13796742 -0.26232192 0.6329277 -1.625836
0001b0 45 b0 54 bf ab 5c 54 be 14 2a 9e 3f ef c6 48 3f
       -0.83081466 -0.20738475 1.2356591 0.7842855
0001c0 f7 73 53 bf 32 9a 28 3f 83 df 64 3f 69 44 a2 3d
       -0.82598823 0.65860283 0.8940355 0.079232045
0001d0 ac 6c 95 3f 17 5c af bd 53 fa c7 bf 82 fc d1 3f
       1.1673789 -0.085624866 -1.5623268 1.6405184
0001e0 9d 27 b8 3e bd 86 1f bf aa 35 b8 bf fd 65 a8 bc
       0.35967723 -0.6231497 -1.4391377 -0.020556444
0001f0 20 b9 c6 be 62 44 05 bf 3a 6f 7e 3e a0 cc 5c bf
       -0.38813114 -0.5205747 0.24847117 -0.8624973
000200 9e 36 2f 3f 2f b0 e5 3e a9 e9 96 3f 68 1f 33 be
       0.68442714 0.4486098 1.1790057 -0.1749245
000210 ce 08 4b 3f 22 91 53 bd c5 e8 32 3f 30 a0 df 3f
       0.7931031 -0.05165208 0.6988643 1.747076
000220 f1 00 b4 3f 15 cb 33 3f 8b 36 d8 bf b9 86 82 3c
       1.4062787 0.70231754 -1.6891645 0.015933381
000230 07 6b 91 be 93 6d 7e 3f 24 9b 80 3f 77 e0 11 be
       -0.28401968 0.99385947 1.0047345 -0.14245783
000240 77 ad 52 be 2f 9d ab bd 6f 02 cf 3e 9a 87 25 bf
       -0.20573984 -0.0837959 0.40431544 -0.64660037
000250 b1 22 c9 be ce 23 7c 3e 72 ad 41 3f 57 63 d8 3e
       -0.3928428 0.24623033 0.7565528 0.4226329
000260 06 90 2a 3f 3d 0d b2 3f 13 99 5a 3f 9d a2 63 3f
       0.6662601 1.391029 0.8538982 0.88920003
000270 7d 09 ae 3f a1 0e 26 bf 93 84 b6 3d 50 e4 a9 bf
       1.3596646 -0.6486607 0.08912005 -1.32728
000280 76 56 2f 3f b5 8e 37 3f b9 cd d7 be 04 8e 63 3f
       0.68491304 0.7170213 -0.4214914 0.88888574
000290 5c 62 9f 3f 8e 6b 19 3f c9 0c e5 3d f5 bb c9 be
       1.2451892 0.5992974 0.11184079 -0.39401212
0002a0 ff 95 54 be 3c 30 84 3f 63 bb 92 bf 0b 81 96 be
       -0.20760344 1.032722 -1.1463436 -0.29395327
0002b0 45 01 ce 3e a6 e5 cd 3f df 54 42 bf 9b 64 88 bf
       0.40235344 1.6085708 -0.75910753 -1.0655702
0002c0 8b e5 2c be 13 85 f4 3c ff 30 83 3e 2c d3 b5 3e
       -0.16884439 0.029848611 0.2562332 0.35512674
0002d0 fe 33 94 bd f8 56 2e bf af 95 2a bf 1a be 32 bf
       -0.07236479 -0.68101454 -0.6663465 -0.6982132
0002e0 6a 99 1a 3e 79 9f b2 be 74 6e a1 be d2 40 d3 3f
       0.15097585 -0.34887293 -0.31529582 1.6504157
0002f0 7f 98 61 3e c6 79 b2 be 47 7f 8e bf 4b f2 56 3f
       0.22030829 -0.3485853 -1.1132592 0.8396346
000300 f5 c4 32 bf 40 35 e3 be 31 a1 84 3e a5 fc 05 bf
       -0.6983178 -0.44376564 0.2590423 -0.5233863
000310 89 85 d5 be a5 a0 d9 3e 5b d0 2b bf 4a 45 97 3e
       -0.41703442 0.42505375 -0.671148 0.2954505
000320 34 05 2a be 63 76 03 be 59 b0 95 bf 7f 6b bf 3e
       -0.16603547 -0.1283813 -1.1694442 0.373867
000330 0c 3c ae 3f 51 15 9a bc 47 67 f6 bd 28 89 ed bd
       1.3612075 -0.018808993 -0.12031417 -0.11598426
000340 8f 62 e3 be 7c 69 49 3f a7 e6 32 3f 65 b6 ad bf
       -0.44411132 0.7867658 0.698832 -1.3571287
000350 8b d2 15 bf 75 48 82 bf 09 45 4f 3e 47 17 12 3f
       -0.5852439 -1.0178362 0.20241179 0.5706677
000360 4c 6b 85 3f 49 b6 23 3c ee 10 ca bf 95 c3 23 3f
       1.042337 0.009992191 -1.5786417 0.6397031
000370 a6 68 87 3f 5e 85 30 3e 89 85 69 3d 61 90 9d bf
       1.0578811 0.17238376 0.057012115 -1.2309686
000380 2b 73 ab 3f af ee bf 3d ce 97 7c 3e 4a 33 68 bf
       1.3394521 0.09371697 0.24667284 -0.9070326
000390 e1 35 02 3f 1f 0c 51 bf ca 67 91 bf 52 ce ef be
       0.5086346 -0.8165912 -1.1359799 -0.46837097
0003a0 a5 01 4b bf 8a 48 c9 3f a4 3c 89 bf a9 e2 d9 3f
       -0.79299384 1.5725262 -1.0721631 1.7022296
0003b0 55 09 a5 3f fc bd d0 3f 1e 3f 37 be f0 e0 97 3f
       1.2893473 1.6307979 -0.17895171 1.186552
0003c0 61 50 65 3e 34 71 8b 3f 8d 44 4d 3e 87 2e 51 3f
       0.22393943 1.0893922 0.20045681 0.8171162
0003d0 a5 48 b4 bf b0 d0 63 bf 27 5c bd 3e 0f d7 ec bf
       -1.4084669 -0.88990307 0.3698437 -1.8503131
0003e0 33 fe c0 bd a1 da 1a 3f a5 1c 5b 3e be e1 9c bf
       -0.09423485 0.6048985 0.21397646 -1.2256391
0003f0 c9 01 97 bf b2 5f af bf e7 d4 bb bd c0 56 fa 3f
       -1.179742 -1.3701079 -0.09171467 1.9557724

W_conv2 f4 [3, 3, 16, 32]
000000 6c d4 55 bf 4a ee b5 3f bf 14 a3 3d d5 0d a3 3d
       -0.83527255 1.4213345 0.079629414 0.079616226
000010 82 ca 39 3f f9 d3 cc 3f 6b 70 f4 3d 35 66 b9 bf
       0.7257463 1.6002189 0.119355045 -1.4484316
000020 30 46 b2 3f 25 fd 12 3f 4a 8b 46 bf ce 51 3d 3c
       1.392767 0.5741752 -0.7755629 0.011555148
000030 45 85 f7 3e 8d 05 1b be 22 ba 83 bd f8 23 31 3f
       0.48343864 -0.15138836 -0.064319864 0.6919551
000040 90 b7 29 be 01 58 37 bd a8 9c 95 3e 0a 52 0f 3f
       -0.1657393 -0.04476166 0.29221082 0.55984557
000050 53 cf a8 be a8 9c f3 bc f2 9d 04 bf 28 3b b3 3d
       -0.32970676 -0.029737785 -0.51803505 0.087515175
000060 2a 2c 35 bf 77 00 a6 3e 4e 89 a0 3e de 6f 9a 3f
       -0.70770514 0.3242223 0.31354755 1.2065389
000070 57 e4 b7 bf 4c 1d 87 3d 1e fd b4 be 93 bd d9 3e
       -1.4366559 0.06597385 -0.35349363 0.42527446
000080 40 cb cd bf ad 28 a4 3e 39 dd f7 3e c2 c6 da be
       -1.6077652 0.32062283 0.48410967 -0.42729765
000090 fc 56 9f 3f 52 2b da 3e 31 04 95 3e 93 39 a6 3d
       1.244842 0.42611176 0.2910476 0.0811645
0000a0 36 b2 1f bf fd 66 bb be 1f 32 ea 3f 52 aa 21 3f
       -0.62381303 -0.3660201 1.8296546 0.63150513
0000b0 e7 06 b8 be 85 56 83 bf a1 56 53 bf 84 5b f5 bf
       -0.35942766 -1.0260779 -0.8255406 -1.9168553
0000c0 98 d9 e6 3e fa 61 8e bc 93 b2 f7 3d f5 da c9 bf
       0.45087886 -0.017380703 0.12094607 -1.5769945
0000d0 d3 d8 3c 3f 3f 54 3a 3f 82 7f 4a be d2 5f cb bf
       0.7376835 0.727848 -0.19775203 -1.5888617
0000e0 02 8c 2c 3f 9a e0 da bf 91 d4 d4 bf 6e 8a 2f 3f
       0.67401135 -1.7099793 -1.662737 0.685706
0000f0 5e 5b 9c 3f e8 2d 29 3e 5e 4b 41 bf a3 2c b1 3f
       1.2215383 0.16521418 -0.75505626 1.3841747
000100 6c 4f a1 3e 2d eb f5 bf 77 2f bf bf c5 3a b4 bf
       0.31505907 -1.9212395 -1.493636 -1.4080435
000110 c9 13 d4 3f fd 9d 29 3f 01 70 f5 3e cf 30 36 3f
       1.6568538 0.66256696 0.47937015 0.71168226
000120 06 08 94 3e f3 60 73 bf 09 f2 8e 3d 74 2b 4e 3d
       0.2891237 -0.9506981 0.06979758 0.05033441
000130 e7 71 9b 3e 5b 2d 5b bf e7 ea 7c bf 24 e9 96 bf
       0.30360338 -0.8561608 -0.9879593 -1.1789899
000140 b8 cf 4a bf 61 58 fa be df 83 e6 3e 2c 92 93 be
       -0.79223204 -0.48895553 0.45022485 -0.28822458
000150 31 4f df be 5c ff 72 be 9c cb 1d 3f eb d4 1f bf
       -0.43615106 -0.23730224 0.6163881 -0.6243426
000160 fd f3 0d 3f ab a0 c1 3e 34 c9 54 3e 3b b0 0c be
       0.5545042 0.37817892 0.20779878 -0.13739102
000170 8e 5b e4 3f f3 5d dd bf 19 6b b9 3d 1d 64 e8 bf
       1.784044 -1.7294296 0.090536304 -1.8155552
000180 88 d0 86 be c9 ab 49 3f 45 af d4 3e 65 48 fd bf
       -0.26330972 0.7877775 0.4153997 -1.9787718
000190 56 95 88 be f3 4d 81 3f 10 29 d1 3d 6e e0 a2 3f
       -0.26676434 1.0101913 0.1021291 1.272474
0001a0 47 0d 13 3f 44 79 04 3f 93 3c a2 3e 4f 2f 6a 3e
       0.57442135 0.51747537 0.3168684 0.2286961
0001b0 da 01 c2 3e fb 4e 9a be e8 21 9a 3e 54 77 8e bf
       0.37892038 -0.30138382 0.30103993 -1.1130166
0001c0 ce 4f 3c 3c a4 96 fa bd 75 7d 2a bf c6 94 6a bf
       0.011493636 -0.12235764 -0.6659768 -0.9163326
0001d0 9c 64 96 bf a8 40 9e bf e1 13 9e be db d3 6c be
       -1.1749454 -1.2363482 -0.3087454 -0.23127691
0001e0 0f 98 ba 3f e5 53 68 3e 2f 37 42 3f 64 47 a1 bf
       1.4577655 0.22688253 0.75865453 -1.2599912
0001f0 3f 68 39 bf a1 4b ca be 62 02 2b bf ca f7 76 3f
       -0.7242469 -0.39510825 -0.6680051 0.96471846
000200 b6 43 8b bf 42 d2 eb 3e 03 1e 93 bf 9a f2 41 3f
       -1.0880039 0.4605885 -1.1493534 0.75760806
000210 bf a7 63 be 24 a3 4c bd 10 b9 b4 bf 65 2f 86 3f
       -0.22231959 -0.04996027 -1.4118977 1.0483214
000220 fe 97 aa 3f 00 f3 57 be 84 a0 9c bf 0f 9f b9 3e
       1.3327634 -0.21088791 -1.2236485 0.36254165
000230 fb d9 86 be bf ab 64 3e db e6 c3 be cc ca 05 3f
       -0.2633818 0.22331141 -0.38262066 0.5226257
000240 2c 7f 68 3e 0b bb 76 be b0 b9 d3 bd d1 90 c6 3c
       0.22704762 -0.24094789 -0.103381515 0.024238976
000250 50 cb 8c 3f cf 37 40 3f a7 9e 23 bf b3 36 a0 bf
       1.0999546 0.7508516 -0.6391396 -1.2516693
000260 b9 d0 1c be 67 18 aa bf 89 b6 47 3f 67 4b 78 bf
       -0.15313996 -1.3288697 0.780129 -0.96990055
000270 a2 d9 88 3f f5 21 1e 3d 2d 55 bc bf 6f 5e 93 3f
       1.0691416 0.038606603 -1.4713494 1.1513194
000280 a5 91 1b 3f e2 99 33 bf 58 3b 26 3f 17 eb f3 3f
       0.6076911 -0.7015668 0.649343 1.9056119
000290 47 42 47 bf 80 f1 83 bf f2 c8 58 3d a4 45 41 3f
       -0.77835506 -1.0308075 0.05292601 0.7549689
0002a0 c5 73 ff 3e 4e ba 44 bf 3d 0f b9 bc 79 8f 85 bd
       0.49893013 -0.7684678 -0.022590274 -0.06521506
0002b0 35 e3 ca bf 74 87 46 bf bf 1f 64 bf 36 75 a4 3c
       -1.5850588 -0.77550435 -0.8911094 0.020075422
0002c0 96 1f 8f be 81 b6 a9 bf b5 62 25 bf a9 7e 08 be
       -0.27953786 -1.3258821 -0.6460374 -0.13329567
0002d0 d2 cb bc bf 1f da 5f bf fb f1 8a 3d 80 6d 6a bf
       -1.4749701 -0.874422 0.06784435 -0.91573334
0002e0 11 e9 ae bf 50 f0 fd bf 39 0c 32 3f 2a 3b a3 3e
       -1.3664876 -1.9838963 0.695499 0.31881076
0002f0 22 43 c6 3f fa ff 00 bf e0 f4 5d 3f 64 6e 6f 3f
       1.5489237 -0.5039059 0.86701775 0.9352782
000300 18 8a 82 3f 2d 54 76 3f 40 4f b0 bf 8f b0 d4 bd
       1.0198393 0.9622219 -1.3774185 -0.103852384
000310 1f f4 a3 bf e9 c6 0f bc 2b 05 04 bf e8 37 96 3d
       -1.2808875 -0.008775451 -0.51570386 0.07334882
000320 d4 e7 3e be 02 20 5c 3f 52 e8 6c 3f 1c ec 35 3f
       -0.18643123 0.8598634 0.9254199 0.710634
000330 9f 39 6c bf ac 89 11 bf ad 08 46 3f de 96 d9 bf
       -0.9227542 -0.56850696 0.7735699 -1.6999166
000340 6c fe 21 bf 6c 75 5d 3f 50 62 4f 3f 87 d3 c5 3e
       -0.6327884 0.86507297 0.8100939 0.38637945
000350 73 07 d7 3f 32 de 9c be 72 5e b6 3e 93 31 b3 bf
       1.6799148 -0.30638272 0.3561893 -1.3999504
000360 16 5f 5e 3e 0c 01 98 3f fd fe 37 bf 65 7d fe 3f
       0.2171596 1.187532 -0.71873456 1.9882017
000370 92 87 84 3f c7 35 2c 3e db f6 86 3f d9 39 4d 3e
       1.0353873 0.1681739 1.0544084 0.20041598
000380 9c 31 91 bf 0c 25 e2 3f b5 2b a4 bc e6 f9 dc 3e
       -1.1343265 1.7667556 -0.020040372 0.43159407
000390 b6 8d e9 3f 59 19 12 3e d1 86 9d bc 73 c6 44 3f
       1.8246372 0.14267482 -0.019229325 0.7686531
0003a0 16 b6 a2 3a 41 e8 b2 bf 8c cc 8e bf 36 1d 88 3f
       0.0012413885 -1.3977128 -1.1156173 1.0633914
0003b0 9d 38 16 bf 9a 16 d4 3f 5f 23 48 bf 3f d3 9c bf
       -0.58680135 1.6569397 -0.7817897 -1.2251967
0003c0 7e 65 5c 3f 41 66 8a 3f 65 69 2d bf 39 56 c0 be
       0.86092365 1.0812455 -0.67738944 -0.37565783
0003d0 3c d9 b9 3f e3 0f af be c1 f5 16 3f 3e f3 9a 3f
       1.451942 -0.34191808 0.5896874 1.2105482
0003e0 35 6d 1f 3f a4 a2 a3 be cd 06 d0 bd d4 5e 11 3f
       0.6227601 -0.31960022 -0.10157547 0.5678532
0003f0 c6 a7 f2 be 98 cc df be 15 d1 fa bc 15 3c da bf
       -0.47393626 -0.4371078 -0.030617276 -1.7049586

b_conv1 f4 [16]
000000 cd cc cc 3d cd cc cc 3d cd cc cc 3d cd cc cc 3d
       0.1 0.1 0.1 0.1
000010 cd cc cc 3d cd cc cc 3d cd cc cc 3d cd cc cc 3d
       0.1 0.1 0.1 0.1
000020 cd cc cc 3d cd cc cc 3d cd cc cc 3d cd cc cc 3d
       0.1 0.1 0.1 0.1
000030 cd cc cc 3d cd cc cc 3d cd cc cc 3d cd cc cc 3d
       0.1 0.1 0.1 0.1

b_fc f4 [256]
000000 e8 a0 d2 3d cd cc cc 3d 9b c8 ca 3d cd cc cc 3d
       0.10284597 0.1 0.09901544 0.1
000010 9a 24 d3 3d 53 7e cb 3d 65 28 d3 3d 26 25 cb 3d
       0.103097156 0.09936204 0.10310439 0.09919195
000020 c3 4a cb 3d bd b3 cb 3d cd cc cc 3d 26 4a ca 3d
       0.09926369 0.09946392 0.1 0.09877424
000030 ed e4 cc 3d cd cc cc 3d 56 4e ce 3d e0 c0 ca 3d
       0.10004602 0.1 0.10073535 0.09900069
000040 92 7d ce 3d cd cc cc 3d cd cc cc 3d 1c ac cc 3d
       0.100825444 0.1 0.1 0.09993765
000050 cd cc cc 3d 39 bb cd 3d 90 f3 cf 3d cd cc cc 3d
       0.1 0.100454755 0.10153878 0.1
000060 cb 99 cc 3d a8 d5 d2 3d cd cc cc 3d 92 37 cb 3d
       0.09990271 0.10294658 0.1 0.099227086
000070 a3 e3 d1 3d 73 9a c7 3d cc 5a d1 3d 83 25 cd 3d
       0.102484964 0.09746256 0.10222396 0.100169204
000080 73 81 c8 3d 28 21 cb 3d 94 94 c9 3d 34 38 cc 3d
       0.097903155 0.099184334 0.09842792 0.099716574
000090 bd b6 c9 3d cd cc cc 3d f8 ab ce 3d 09 38 cc 3d
       0.09849308 0.1 0.10091394 0.09971625
0000a0 96 a9 ca 3d cd cc cc 3d 82 7e cc 3d d3 2a cb 3d
       0.09895627 0.1 0.09985067 0.099202774
0000b0 cb bb d0 3d cd cc cc 3d c9 ce cc 3d cd cc cc 3d
       0.10192069 0.1 0.10000379 0.1
0000c0 cd cc cc 3d cd cc cc 3d e3 58 d3 3d 5e d0 ce 3d
       0.1 0.1 0.10319688 0.10098337
0000d0 cf f7 cf 3d cd cc cc 3d d3 b2 cc 3d 98 4f c9 3d
       0.101546876 0.1 0.099950455 0.098296344
0000e0 26 a7 cc 3d b2 fb c6 3d cd cc cc 3d 14 9b ca 3d
       0.099928185 0.09715976 0.1 0.0989286
0000f0 a7 b7 cc 3d 90 bd d1 3d 80 00 cd 3d 3b f1 ca 3d
       0.099959664 0.10241234 0.10009861 0.09909292
000100 cd cc cc 3d 1e 99 d3 3d e4 b6 cb 3d 85 a1 c8 3d
       0.1 0.10331939 0.09946993 0.097964324
000110 af 47 cb 3d cd cc cc 3d da b1 cd 3d 4f f0 cf 3d
       0.09925782 0.1 0.10043688 0.10153257
000120 df 20 ca 3d c2 ca cc 3d 3a 30 cb 3d d4 71 cb 3d
       0.09869551 0.099996105 0.09921308 0.0993382
000130 38 03 c9 3d cd cc cc 3d 69 d6 d0 3d 52 4a cf 3d
       0.09815067 0.1 0.101971455 0.10121597
000140 42 19 cc 3d 2c d0 d2 3d cd cc cc 3d 87 f7 ca 3d
       0.09965755 0.10293612 0.1 0.09910493
000150 cd cc cc 3d 79 2d ce 3d 0e f9 cb 3d f1 0c d0 3d
       0.1 0.10067267 0.09959613 0.101587184
000160 cd 29 cb 3d ad 23 d4 3d cd cc cc 3d 04 bf d6 3d
       0.09920082 0.10358367 0.1 0.10485652
000170 41 a0 ce 3d ac 12 cc 3d cd cc cc 3d 2e 9e cf 3d
       0.1008916 0.09964499 0.1 0.10137592
000180 bd 00 cd 3d 43 9b d6 3d 1a 85 d5 3d cd cc cc 3d
       0.100099064 0.104788326 0.10425778 0.1
000190 ef d0 cc 3d 93 01 cb 3d 25 84 d0 3d cd cc cc 3d
       0.100007884 0.0991241 0.101814546 0.1
0001a0 cd cc cc 3d fa d7 ca 3d b2 05 cd 3d 3d 89 ca 3d
       0.1 0.099044755 0.10010852 0.098894574
0001b0 cd cc cc 3d d9 21 d8 3d e6 86 c9 3d 6b c7 cc 3d
       0.1 0.10553331 0.09840183 0.099989735
0001c0 cd cc cc 3d 89 c7 cc 3d 59 4d cc 3d 95 80 cc 3d
       0.1 0.09998996 0.099756904 0.099854626
0001d0 cd cc cc 3d 55 fc cf 3d 2c 90 cb 3d cd cc cc 3d
       0.1 0.101555504 0.09939608 0.1
0001e0 69 f2 cb 3d 7e 64 c8 3d 23 5b cd 3d b4 2f c8 3d
       0.099583454 0.09784792 0.100271486 0.09774724
0001f0 47 25 cd 3d 0c 79 cb 3d 5b d3 cb 3d 51 3f cb 3d
       0.10016876 0.09935197 0.09952422 0.09924186
000200 cd cc cc 3d cd cc cc 3d 2e 53 d5 3d 5b 23 d0 3d
       0.1 0.1 0.10416256 0.101629935
000210 c3 f8 cd 3d cd cc cc 3d 15 9e c9 3d 3d a3 cc 3d
       0.10057213 0.1 0.09844605 0.09992073
000220 0f 31 cc 3d 55 f9 d5 3d d4 25 cc 3d 5a ac c4 3d
       0.09970295 0.10447947 0.09968153 0.09603186
000230 cd cc cc 3d 4c f4 cc 3d 1e c1 c8 3d 4a 1a c8 3d
       0.1 0.100075334 0.09802459 0.09770639
000240 d1 47 d8 3d ae c1 d0 3d 57 88 c3 3d 65 75 d1 3d
       0.10560573 0.101931915 0.09547489 0.10227469
000250 86 da c9 3d cd cc cc 3d cd cc cc 3d fe af c8 3d
       0.09856133 0.1 0.1 0.09799193
000260 f3 fc ce 3d 74 94 ca 3d 15 c6 cc 3d 7c ac cc 3d
       0.1010684 0.098915964 0.09998719 0.09993836
000270 cd cc cc 3d 95 f5 c8 3d 3e 44 cd 3d 1d 87 d6 3d
       0.1 0.09812466 0.10022782 0.104749896
000280 cd cc cc 3d 19 b6 ca 3d 44 4f cc 3d cd cc cc 3d
       0.1 0.098980136 0.09976056 0.1
000290 e0 eb c5 3d 61 d7 ca 3d d4 1b cc 3d 91 15 d1 3d
       0.0966413 0.099043615 0.09966245 0.102091916
0002a0 63 23 cb 3d cd cc cc 3d c7 31 c6 3d c2 51 d1 3d
       0.09918859 0.1 0.09677463 0.10220672
0002b0 00 de cd 3d 09 df c5 3d 67 70 cc 3d 13 7b d3 3d
       0.10052109 0.09661681 0.099823765 0.10326209
0002c0 cd cc cc 3d cd cc cc 3d cd cc cc 3d 4d 7f cf 3d
       0.1 0.1 0.1 0.101317026
0002d0 cd cc cc 3d 02 c8 ca 3d 42 8f cb 3d 78 52 c8 3d
       0.1 0.0990143 0.09939434 0.09781355
0002e0 ca cc cc 3d a5 64 cd 3d 38 84 c9 3d 9f 03 cb 3d
       0.09999998 0.10028962 0.09839672 0.099128
0002f0 74 aa c9 3d 74 fd ca 3d cd cc cc 3d ec f0 d3 3d
       0.098469645 0.099116236 0.1 0.103486866
000300 22 11 c9 3d 3f 60 d6 3d 97 fd cb 3d eb 98 d3 3d
       0.09817721 0.10467576 0.09960478 0.10331901
000310 9f 7d cb 3d 70 c7 c8 3d de 9b cd 3d 2f 02 ca 3d
       0.0993607 0.09803665 0.10039495 0.09863698
000320 cd cc cc 3d 24 2c cb 3d 9b 0e ce 3d 52 19 cb 3d
       0.1 0.099205285 0.100613795 0.09916939
000330 99 08 d2 3d 60 8e cc 3d cd cc cc 3d 5e da cb 3d
       0.10255546 0.099880934 0.1 0.099537596
000340 0b 70 d1 3d e8 ea cb 3d cd cc cc 3d 9c 02 cc 3d
       0.102264486 0.09956914 0.1 0.09961435
000350 a1 cb d2 3d 05 a4 cc 3d f8 e7 d0 3d cd cc cc 3d
       0.102927454 0.09992222 0.102004945 0.1
000360 03 f5 d7 3d d5 4e cc 3d 42 cc cb 3d a9 82 cb 3d
       0.10544779 0.099759735 0.099510685 0.09937031
000370 03 4f cc 3d cd cc cc 3d 86 a4 cc 3d c9 20 cc 3d
       0.09976008 0.1 0.09992318 0.09967191
000380 1c 4d c9 3d 3b a8 d0 3d f9 37 cc 3d 47 e3 ca 3d
       0.098291606 0.101883374 0.099716134 0.09906631
000390 cd cc cc 3d 5f f5 d1 3d 94 4e d3 3d cd cc cc 3d
       0.1 0.10251879 0.10317722 0.1
0003a0 cd cc cc 3d e0 b5 cc 3d 29 df d3 3d d6 83 cc 3d
       0.1 0.099956274 0.10345299 0.09986083
0003b0 b7 aa cf 3d 75 47 cf 3d 3d da cb 3d cd cc cc 3d
       0.10139983 0.10121051 0.09953735 0.1
0003c0 c8 f3 cf 3d 90 47 cf 3d 77 1d cc 3d fc b7 cc 3d
       0.101539195 0.10121071 0.099665575 0.0999603
0003d0 00 91 cb 3d a8 c9 cc 3d 68 87 cf 3d 5e 3d cb 3d
       0.09939766 0.099994004 0.101332486 0.09923814
0003e0 17 ae cb 3d cd cc cc 3d 99 f6 d4 3d cd cc cc 3d
       0.099453144 0.1 0.10398597 0.1
0003f0 a0 41 c8 3d b5 fc cd 3d c4 e8 cb 3d 6d b8 c9 3d
       0.09778142 0.10057966 0.09956506 0.098496296

W_out f4 [256, 5]
000000 7e c2 af 40 6a 59 d8 be cf 74 0c bd e7 7c 0d 3e
       5.4924917 -0.42255718 -0.034291085 0.13817178
000010 a1 9e f5 bd df 31 64 bf 4a 0f 51 bf d9 6b 1d 3f
       -0.11993147 -0.891386 -0.81663954 0.6149269
000020 f3 bd 53 3f bd 81 cd 3f 1b 75 e6 3e c1 79 80 bf
       0.82711715 1.6055218 0.4501122 -1.0037156
000030 18 b0 1f be fc f5 68 be 31 71 9a bf e2 79 21 3f
       -0.15594518 -0.22750086 -1.2065793 0.63076603
000040 9e 3a 13 be 9a 78 c6 3e a7 73 8c bf 5a fe a1 3f
       -0.1437783 0.38763887 -1.0972794 1.2655747
000050 02 91 a2 40 3e e4 3c be 01 15 88 3e ad 7e 9f 3d
       5.080201 -0.18446442 0.26578525 0.07787833
000060 3e 44 1a bf ef 98 6f bf fe 69 a7 bd 4b 58 9d 3e
       -0.6026038 -0.93592733 -0.08174513 0.30731425
000070 71 91 00 c0 bc 7e 84 3f ed 29 85 40 d1 ce 6e 3c
       -2.008877 1.0351176 4.161368 0.014575676
000080 60 04 40 bf d1 4e 08 be b3 7b 32 be c8 f1 c7 be
       -0.75006676 -0.13311316 -0.1743 -0.39051652
000090 cb 93 02 bf 28 d9 a5 3f 94 6c 21 bc 03 d1 59 bf
       -0.51006764 1.2956896 -0.009852547 -0.8508455
0000a0 8c 62 1d 3f 49 88 be be 96 50 5f 3e c0 a6 a4 bf
       0.61478496 -0.37213352 0.21808085 -1.2863388
0000b0 15 36 df bf 42 6b 14 3f 69 9f ba 3f ba 23 ee 3e
       -1.743838 0.5797616 1.4579898 0.46511632
0000c0 e0 cc 0b bf ee 86 00 bf be 5a ff 3e 1b bf 7a be
       -0.5460949 -0.50205886 0.49873918 -0.24486963
0000d0 aa d8 a4 3f a9 d8 00 3f 8e af 8a be 0a 1f d1 3e
       1.2878621 0.503306 -0.27087063 0.40843993
0000e0 f4 5e 23 bf f2 0e 2c be 5c b5 c5 3f ab 42 38 be
       -0.6381676 -0.16802576 1.5445971 -0.17994182
0000f0 c2 ed 4b be 6e df 9b be 86 82 eb be 80 77 80 3e
       -0.19914916 -0.304439 -0.4599802 0.2509117
000100 9b 94 99 3e 10 32 9b bf 4d 53 ba be 9e f7 63 bf
       0.2999619 -1.2124653 -0.36391678 -0.8904971
000110 19 32 08 3f 71 83 47 bf 8f 7a 45 3f c4 60 04 3f
       0.5320144 -0.7793494 0.77140135 0.5171015
000120 df 2a 56 3e a3 7a fe be b9 98 00 3f 57 e4 9e bf
       0.20914792 -0.4970294 0.50233036 -1.2413434
000130 56 4b 7b 3e 31 c1 a4 3e a6 29 82 3f 34 41 95 be
       0.24540457 0.32178643 1.016896 -0.2915131
000140 16 95 2a 40 90 d6 24 3f 71 99 1b 3e 8a ac 04 3f
       2.6653495 0.64389896 0.15195252 0.51825774
000150 83 db 52 bc f9 c9 b9 bf 8b 74 84 bf 7b 79 89 3f
       -0.0128697185 -1.4514762 -1.0348066 1.0740198
000160 81 07 49 3f d8 b2 c6 3f 06 91 73 3e d2 96 8f bf
       0.78527075 1.5523329 0.23785791 -1.1217902
000170 8d 75 ed 3d 51 6c 94 be f4 32 38 3e f7 e8 be bf
       0.11594687 -0.2898889 0.17988187 -1.4914845
000180 8e bc 86 be d7 9d 6f 3e e0 1a 77 3f 71 aa 6d 3f
       -0.2631573 0.23400055 0.96525383 0.928382
000190 de a8 a4 3f 96 4a 39 bf a8 04 c3 be a2 9c c2 bf
       1.2864034 -0.72379434 -0.3808949 -1.520405
0001a0 78 19 f4 be b0 51 0f 40 03 b3 c9 be 00 7e df 3e
       -0.4767568 2.2393608 -0.39394388 0.43650818
0001b0 6e a0 89 3e aa 33 bb bd 14 4e 3c 40 5a 6f 4f bf
       0.2688021 -0.091407135 2.9422655 -0.81029284
0001c0 e0 7f 4e 3f 67 b7 15 3e 01 37 fa be 3f dd b6 bd
       0.8066387 0.14620744 -0.4887009 -0.08928918
0001d0 98 ec 15 3f a8 c5 90 3f d1 c0 da 3e c8 46 54 bf
       0.5856414 1.131032 0.42725232 -0.82920504
0001e0 53 e6 e4 bd b9 0d af bf 43 c3 d9 3e a2 5f fe 3e
       -0.11176743 -1.3676063 0.42531785 0.49682337
0001f0 1a f1 b8 be 6c a7 93 40 08 58 17 bf 85 71 d7 bd
       -0.36121446 4.6141872 -0.591187 -0.10519699
000200 13 d9 23 3c c8 b5 4d 3f 15 d2 fa be 75 2d b6 be
       0.010000485 0.803555 -0.48988405 -0.35581556
000210 8a fc 7e bf 23 34 89 3f 0d e6 49 3e af 16 15 bf
       -0.99604094 1.0719036 0.19716664 -0.5823774
000220 6c 21 80 3d 99 77 6a bf 78 e2 cf bf 2d 69 e2 3f
       0.06256375 -0.9158874 -1.6240988 1.7688347
000230 63 49 65 40 41 d6 1f bf 26 d3 e4 3e 58 ac d9 be
       3.5826042 -0.624363 0.44692343 -0.425143
000240 5c f0 45 3e 44 1d b7 be 64 ec 9a bf 4d b2 95 3d
       0.19329971 -0.35764515 -1.2103391 0.07309399
000250 a4 98 a4 bf ea 3d 9d bd 55 2a 5d 40 b1 d2 94 3d
       -1.2859082 -0.07677825 3.4557087 0.07266749
000260 22 e3 68 bf b2 d7 c6 3e 35 59 08 3f d4 cc f0 3f
       -0.9097158 0.38836437 0.5326112 1.8812509
000270 ac b0 b7 bf 8f 36 fe 3e b8 71 e0 bf ae a9 28 3f
       -1.4350791 0.49651 -1.7534704 0.6588391
000280 3a 3a 27 bf b2 ee c7 bf bd 9f 52 3f 58 84 28 be
       -0.6532322 -1.5619719 0.8227499 -0.16456735
000290 c1 45 cf 3f 8a 77 55 3e cd 00 e1 3d a9 1a cc 3e
       1.6193162 0.20846382 0.10986481 0.3986409
0002a0 38 7a a8 be 9e af 27 bf 04 ee 17 3e 7b ca 69 3f
       -0.32905746 -0.65502346 0.1483689 0.91324586
0002b0 f7 39 d7 3e b0 1b 1d 3d 46 dd c2 bf 05 9c 79 bf
       0.4203641 0.038356483 -1.5223777 -0.9750369
0002c0 d7 05 05 be 6d 5e 08 3f 11 9b 04 bf d4 9f 68 3f
       -0.12990509 0.5326908 -0.5179911 0.9086888
0002d0 6c 5a 5f bf 59 6b 52 bf 24 45 18 bf e8 16 81 bf
       -0.8724735 -0.8219505 -0.594805 -1.0085115
0002e0 49 40 96 be c4 ea 93 3e ed c3 43 bf ac b8 cd 3f
       -0.2934592 0.2889005 -0.76470834 1.6071982
0002f0 7f f4 7d 3d d4 98 b4 bf 3c 4c e2 3f eb c4 56 3c
       0.062000748 -1.410914 1.7679515 0.013108472
000300 60 6b 54 3e 04 59 8d 3f 2d 37 f6 3e 08 78 e9 be
       0.20744085 1.104279 0.4808897 -0.4559939
000310 eb 46 36 bf 59 29 97 3f 85 17 2d be 92 03 da bf
       -0.7120196 1.1809493 -0.16903503 -1.703234
000320 e5 00 29 3f 21 f3 29 bf 16 7f 17 bf f9 6f 83 3e
       0.6601699 -0.6638661 -0.5917829 0.25671366
000330 c6 26 53 be 6a 0c 74 3f 29 bd 5d bc 15 20 50 3e
       -0.2062026 0.9533144 -0.013533869 0.20324738
000340 2f 3d 32 3e f4 a7 1c bf 6b b5 b3 3f 89 a3 f1 3d
       0.17406152 -0.61193776 1.4039739 0.1179877
000350 51 a2 a8 3e 53 b2 60 3f 6d 0d b5 bf c5 40 64 bd
       0.32936338 0.877721 -1.4144722 -0.05572583
000360 42 84 a4 3d af 37 4e bd d0 d0 19 bf 60 ea 39 bf
       0.08033039 -0.050346073 -0.6008425 -0.7262325
000370 19 c3 25 40 da 25 1a bf ae ba 9a 3d c8 32 36 bf
       2.5900328 -0.60214007 0.075551376 -0.71171236
000380 7f 8f 29 be 61 0a 97 3e 0b b9 71 3e 92 90 52 3f
       -0.16558646 0.29500106 0.23605745 0.82251847
000390 9d 44 bf 3c e3 79 09 bf 38 c9 27 3f 67 0b 2e be
       0.023348147 -0.5370161 0.6554141 -0.16996537
0003a0 7e 94 b6 3e 50 ef da 3e 08 37 02 3e bf 90 9b bf
       0.35660166 0.42760706 0.12716305 -1.2153548
0003b0 08 86 a2 3e cf d8 0c bf 8c c5 64 bf 68 f9 88 bf
       0.31742883 -0.55018324 -0.8936393 -1.0701113
0003c0 0b 86 32 3f 84 a4 06 3f 29 33 47 3f 89 53 49 bf
       0.69735783 0.5259478 0.7781244 -0.7864309
0003d0 de c6 03 bf 9b 8b ea 3e 4c c2 e6 3f 01 71 36 3f
       -0.5147532 0.45809636 1.8028045 0.7126618
0003e0 30 32 b4 3f 02 eb 8b 3f 60 b2 6e 40 85 e0 7d 3f
       1.4077816 1.0931094 3.7296371 0.99170715
0003f0 97 c4 0e 3f 74 fc 1e bf b2 90 04 3c 6b c9 c6 3f
       0.5576872 -0.6210396 0.008091139 1.5530218

W_conv1 f4 [3, 3, 3, 16]
000000 5f 2e 33 be 20 f0 a6 3d 92 3a 58 3f 46 b5 e3 3e
       -0.17498158 0.08151269 0.8446437 0.44474238
000010 7f bc 90 bf e6 c4 2f be 1d 6e 40 3f 97 af 49 3e
       -1.1307524 -0.17164955 0.7516802 0.19695888
000020 23 c1 b4 3f 3a b0 9b bf a6 ea c2 bf 89 2f c9 bf
       1.4121441 -1.2163155 -1.5227859 -1.5717632
000030 87 f5 5e 3f ef 38 66 be b9 d7 2b be f1 b4 88 be
       0.87093395 -0.22482656 -0.1678151 -0.26700547
000040 c8 5d 9a bf 11 2c c9 3e 27 e2 2c be cf 98 6f 3e
       -1.205987 0.39291432 -0.16883145 0.23398136
000050 d0 09 d4 3e 43 b2 b5 3f 31 b9 82 3e cd 6a 36 be
       0.41413736 1.4195026 0.25531915 -0.17814179
000060 15 f7 f9 3f f5 de a8 3f 07 d8 02 c0 27 60 05 c0
       1.9528528 1.3193041 -2.0444353 -2.0839937
000070 9b ce 61 bf ae aa d4 3f 84 d8 e6 be 43 83 5f 3f
       -0.8820588 1.6614587 -0.45087063 0.87309664
000080 a0 7d 43 3f a8 ef 83 3f 21 36 d7 3f 48 d8 f9 3f
       0.76363564 1.0307512 1.6813394 1.9519129
000090 2d 3c b5 3e 49 c3 6f bf b3 50 a7 bf af 2f 8f 3f
       0.35397473 -0.93657357 -1.3071502 1.1186427
0000a0 d9 21 89 bf e6 8a fe 3f 99 3e 51 bf a2 d7 98 bf
       -1.0713454 1.9886138 -0.8173614 -1.1940806
0000b0 fb bd cc 3e 8d f3 d3 3d 7c af 97 3f f8 22 b2 3f
       0.39988694 0.10349188 1.1850429 1.3916922
0000c0 a7 41 fd 3f bc 4b e2 be 3f 61 0e bf 41 a5 18 bf
       1.978566 -0.44198406 -0.55617136 -0.5962716
0000d0 ed 2f 5b 3d 26 a5 a7 bd 88 79 91 3d 33 31 45 3d
       0.053512502 -0.081857964 0.07103258 0.048142623
0000e0 cf f4 95 be 5b 6e d0 be d8 b9 9f 3f f7 2e dc bf
       -0.29288337 -0.40709195 1.247859 -1.7201833
0000f0 49 8e 02 bf 4f bb d9 be 5f 39 ae bf 91 a0 d3 bf
       -0.5099836 -0.42525718 -1.3611258 -1.6533376
000100 b2 5e ec bf 91 d8 80 3f aa f7 dd 3f cb 29 83 3e
       -1.8466399 1.0066091 1.7341206 0.25617823
000110 c6 98 97 3f f4 0b 79 bf 86 de d8 be bc 8d b1 be
       1.1843498 -0.97283864 -0.42357272 -0.34678447
000120 d0 bc cb 3f 20 e0 d8 3d 3b 74 25 3f 9c 9e f8 3e
       1.5916996 0.105896235 0.6463048 0.4855851
000130 ac 42 08 40 39 3c 7a bf d6 32 2c bf 4d 42 79 bf
       2.1290693 -0.9774814 -0.6726507 -0.9736679
000140 fa 5b c2 be 92 a0 bd bf 6b a2 62 3f 2b c6 3c 3e
       -0.37960798 -1.4814627 0.8852908 0.1843497
000150 be 18 66 3f 88 af af bf da 85 bc 3f 58 47 5f be
       0.89881504 -1.3725443 1.4728348 -0.21804559
000160 96 73 f5 be c4 57 86 bf 74 4c e1 be 33 ae d4 be
       -0.47939748 -1.0495534 -0.44003642 -0.41539153
000170 c8 4b 87 3c 2e 07 39 3d 44 21 ce bd ac 1f 98 3e
       0.016515628 0.045172863 -0.10064939 0.29711664
000180 c6 b7 95 bf 44 bb d2 be dd 81 2d 3f 64 7b 1d 3d
       -1.1696708 -0.41158497 0.6777628 0.038447753
000190 07 c4 a8 be 7d 1c b4 bf 22 61 69 3e d9 01 8c bf
       -0.32962057 -1.4071194 0.2279096 -1.0938064
0001a0 03 f7 83 bf 83 2d d4 3e 5d 66 14 3f d3 65 2b bf
       -1.0309757 0.41440973 0.57968694 -0.66952246
0001b0 7d 0e c0 bf 6e 11 b9 3f 16 25 a0 bf 2f 37 91 bf
       -1.5004421 1.4458444 -1.2511318 -1.1344966
0001c0 4d 2f 93 3e 10 50 48 3f b6 75 b6 3f 96 37 70 bf
       0.28747025 0.78247166 1.4254673 -0.9383482
0001d0 5d 85 b9 3f 9d 40 51 bd 36 95 d7 3f 1a 80 89 3f
       1.4493824 -0.05108701 1.684241 1.0742218
0001e0 3c b3 cb 3f c5 8e 3a 3e c5 a7 34 bf 7d dc 86 bf
       1.5914073 0.18218525 -0.70568496 -1.0536038
0001f0 62 c7 85 3f 0f 85 53 3f a4 23 1c 3e f2 92 9c bc
       1.0451472 0.82624906 0.15247971 -0.019113038
000200 f7 2c 8b bf bf b7 33 bf 79 55 53 3f 7d b9 21 bf
       -1.0873097 -0.7020225 0.82552296 -0.6317366
000210 5a cc 07 3e aa f4 b0 3e 21 3e 84 bd cd 36 0c 3e
       0.13261548 0.34561664 -0.06457163 0.1369278
000220 7b b6 99 be 7d e9 84 3f 3f f6 e1 3f 07 39 86 3f
       -0.30022034 1.0383755 1.7653273 1.0486153
000230 42 0a a2 bf 0e 0d 4a bf dc 51 b6 be b2 39 fc bf
       -1.265938 -0.7892617 -0.3560933 -1.9705107
000240 d5 6e b8 3e 01 1d 1f bf 92 7a b0 bf 21 af cd bf
       0.36022058 -0.6215363 -1.3787405 -1.606907
000250 b0 90 97 3e 07 a8 15 3f 3b 21 83 bf be 07 6f 3f
       0.29602575 0.58459514 -1.0244516 0.9337119
000260 41 7c 04 be 9b 1a 38 3e 93 a7 d2 3e 31 21 f9 bf
       -0.12938024 0.17978899 0.41143474 -1.9463254
000270 74 f8 d0 be 8d e6 b1 3f 07 cc 06 3f cd e3 9c bf
       -0.40814555 1.3898484 0.5265507 -1.2257019
000280 46 ad 93 be da 3e f3 3d 07 b7 8c 3d 81 e6 fa 3e
       -0.28843135 0.11877222 0.06870847 0.49003986
000290 6f 32 a3 be d3 a3 6d bf 60 1d 07 bf 31 cf 8c bf
       -0.31874415 -0.928281 -0.527792 -1.100073
0002a0 62 67 2d bf 51 17 6e 3f a7 6d 2e 3f d4 02 83 3f
       -0.67735875 0.9300433 0.68136066 1.0235238
0002b0 c7 1d f5 be ab dd aa be 15 ed a1 3e 81 84 17 3e
       -0.4787428 -0.33372244 0.31626192 0.1479664
0002c0 30 67 c0 be 0b c5 b8 3e 51 de 6d bf cc 28 6d bf
       -0.37578726 0.36087832 -0.9291735 -0.92640376
0002d0 c5 78 2c bf 81 db 4b bf aa bc ed 3e fc 69 99 3f
       -0.6737178 -0.7963181 0.46433002 1.1985469
0002e0 4b 3e 88 be b3 b8 3f 3f f3 9a 0d 3f 99 f6 65 bf
       -0.26610026 0.74891204 0.5531456 -0.89829403
0002f0 11 34 27 3d 3f 9a f6 be f0 fa 0d bd b6 72 99 3f
       0.04082114 -0.48164555 -0.03466314 1.1988132
000300 85 44 05 40 92 2f ef bf 5d 28 0e 3d b0 bf c8 3e
       2.082307 -1.8686392 0.034706462 0.39208746
000310 63 4b 24 be 37 42 5c bf 29 52 ce bf b9 a0 b0 be
       -0.16044383 -0.86038536 -1.6118823 -0.34497622
000320 bb b7 90 bf 79 5a a6 be 29 be 9b 3f 8b 8d d2 bc
       -1.130607 -0.324909 1.2167407 -0.025702259
000330 db e2 12 bf 46 73 1a bd ed c0 5a be f7 00 4a 3f
       -0.57377404 -0.03770759 -0.21362658 0.7890772
000340 f9 e8 b4 3f 6f 95 c6 3f fd b8 b8 bf 9a ed 17 3e
       1.4133598 1.5514354 -1.4431454 0.14836732
000350 d3 2e dd be fa 5e 83 3f 2b 3c 18 3f 8c 39 42 3f
       -0.43199787 1.026336 0.5946681 0.7586906
000360 b7 17 99 bf 1a 4b a4 3f 35 49 57 3d 45 d2 a9 3f
       -1.1960362 1.2835419 0.05256005 1.3267294
000370 94 db 81 3c a3 3c 42 bd d3 c5 b1 bf 19 80 0a bf
       0.015851773 -0.04742111 -1.3888496 -0.5410171
000380 3a 23 c7 bf 1b 9d a9 be 51 ce 1c 3f bd f9 f5 3e
       -1.5557625 -0.33127674 0.61252314 0.48042098
000390 86 6a 4f bf 18 9b db 3d 63 28 a8 bd 69 f2 31 be
       -0.81021917 0.10722941 -0.08210828 -0.17377628
0003a0 f3 30 39 3f 99 f5 ab bf 61 b6 b9 bc 20 1c e7 be
       0.72340316 -1.3434325 -0.022669973 -0.45138645
0003b0 4b d0 3d 3e 9e 6d 80 bf 61 58 b8 3f 22 27 5b 3f
       0.18536489 -1.0033453 1.4401971 0.85606587
0003c0 d3 64 46 3f ab 8c b3 bc 47 c1 1d be 94 5c ab bf
       0.77497596 -0.021917662 -0.1540576 -1.3387628
0003d0 8a 7b d6 bd f5 19 d0 bf 63 69 34 3f ce 6d 9e 3e
       -0.10472782 -1.6257921 0.7047331 0.3094315
0003e0 cf 2d df bf 70 fd 1f bd 45 bb 10 be 79 65 6b 3e
       -1.7435855 -0.039060056 -0.14133938 0.22987927
0003f0 ab 1f ce bf 4f 4f d5 3e f6 64 d6 3e d4 e2 59 3f
       -1.6103414 0.4166207 0.41873902 0.8511174

b_conv2 f4 [32]
000000 cd cc cc 3d cd cc cc 3d cd cc cc 3d cd cc cc 3d
       0.1 0.1 0.1 0.1
000010 cd cc cc 3d cd cc cc 3d cd cc cc 3d cd cc cc 3d
       0.1 0.1 0.1 0.1
000020 cd cc cc 3d cd cc cc 3d cd cc cc 3d cd cc cc 3d
       0.1 0.1 0.1 0.1
000030 cd cc cc 3d cd cc cc 3d cd cc cc 3d cd cc cc 3d
       0.1 0.1 0.1 0.1
000040 cd cc cc 3d cd cc cc 3d cd cc cc 3d cd cc cc 3d
       0.1 0.1 0.1 0.1
000050 cd cc cc 3d cd cc cc 3d cd cc cc 3d cd cc cc 3d
       0.1 0.1 0.1 0.1
000060 cd cc cc 3d cd cc cc 3d cd cc cc 3d cd cc cc 3d
       0.1 0.1 0.1 0.1
000070 cd cc cc 3d cd cc cc 3d cd cc cc 3d cd cc cc 3d
       0.1 0.1 0.1 0.1

b_out f4 [5]
000000 6e 00 d5 3d f9 30 cd 3d 5d fe cc 3d a2 c1 cc 3d
       0.104004726 0.100191064 0.100094534 0.0999787
000010 b9 f7 cc 3d
       0.10008187
