Models/Tensorflow/model_8x8.npz (npz, 552614 bytes, 8 tensors)

b_out f4 [5]
0.10010247 0.101325944 0.103219315 0.1018635 0.10319455
00000000: 8602 cd3d fa83 cf3d a664 d33d d09d d03d
00000010: aa57 d33d

W_fc f4 [512, 256]
-0.85370314 -0.25512543 0.10745724 -1.1754171 -0.42607835 -1.4829592 -0.6690894 -0.3362779
-1.1903955 0.5224655 -0.059123047 -0.20993946 -0.14846383 0.85017174 0.15040769 0.5573559
-0.1829837 -0.21863772 0.052091643 1.9445717 0.42181298 -0.24259983 -0.28191325 1.556797
0.37646455 -0.14124462 0.16150469 0.1472172 0.5781815 1.9805018 0.19531457 0.7082187
0.12635118 -0.19001018 0.36147264 -0.59788334 -0.26940703 1.5229304 -1.9240308 -1.2037776
1.6638422 -1.6497046 -0.6229945 0.0113967825 -1.1536968 0.13322596 0.28445053 0.518511
-0.39743268 -1.9823701 -1.8070307 -0.3486079 -0.6883003 1.6455798 -0.8840019 -0.26252
-1.1185968 -0.64031374 0.73148614 0.12497769 1.3828107 1.7987605 -0.3213195 0.7046481
-0.18687274 -0.039265245 1.1260006 0.49764037 -2.0672157 0.99868655 1.0796618 0.056462094
-1.2581251 0.5435149 1.6911572 -0.15380873 -0.93714803 0.4686673 0.25390163 1.0543376
0.9018731 0.63494605 1.4569192 1.3191947 0.042597286 -1.2587235 -0.5409553 1.14148
-0.789499 -0.28757977 -0.44085547 -1.1738005 1.3058089 -0.8486987 0.17172135 -1.8708888
0.5459445 -0.49280483 -0.3216635 1.136587 0.15395746 0.77052385 0.7815894 0.12569927
0.17243849 -0.50830907 0.61302507 -1.7205526 -0.9318608 -0.22323683 0.9459217 0.7200293
-0.73413765 0.74468297 0.8558766 0.17531262 1.1231346 -0.11348518 -1.7063363 1.8818629
0.5727886 -0.7707092 -1.4586442 -0.2508046 -0.2594487 -0.5372076 0.25476995 -0.96857685
0.75468993 0.38787806 1.0215131 -0.12257132 0.69647884 -0.07983805 0.4723146 2.0965717
1.628545 0.7123221 -1.7159175 -0.38078386 -0.10432864 0.8547511 0.9647652 -0.27791122
-0.8192354 -0.307425 0.1660778 -0.82611424 -0.7260701 0.17289014 0.9071967 0.32892516
0.6102538 1.1239618 0.67872506 0.8573289 1.3177915 -0.6766141 0.31373253 -1.490923
0.65522814 0.6768091 -0.49096227 1.0054808 1.2448193 0.58321136 -0.39249545 -0.08791239
-0.16621019 0.9132496 -1.1356847 -0.34285787 0.16693394 1.8060257 -0.7562107 -1.043434
-0.18096665 -0.022244988 0.27032468 0.29557526 -0.17659393 -0.7391564 -0.7936562 -0.61693096
0.14333208 -0.55492437 -0.4398984 1.7393821 0.41588134 -0.5473875 -1.1399539 0.6313328
-0.4231489 -0.43207926 0.29704806 -0.6040222 -0.27556285 0.4316084 -0.5725994 0.29966053
-0.16911037 -0.50718284 -1.2065395 0.20890248 1.1778225 -0.209575 -0.08418641 -0.22292317
-0.32979733 0.88915324 0.81288946 -1.2746004 -0.5913588 -1.0391806 0.4307002 0.9008494
1.0080645 0.057756994 -1.5946386 0.53216517 1.1562644 0.13788539 -0.100515 -1.2290871
1.1833515 0.053440478 -0.2428109 -1.078302 0.4615497 -0.66732705 -1.1299398 -0.7623663
-0.8353234 1.6252682 -1.2118292 1.7727853 1.1492095 1.3157992 -0.07523935 1.1311228
0.16702066 0.896605 0.19521812 0.8838927 -1.4521446 -0.8837915 0.21586294 -1.9114777
-0.2140003 0.6851034 -0.36077803 -1.4648954 -1.219758 -1.4075395 -0.29151025 1.9837497
00000000: 4a8c 5abf cd9f 82be 8b12 dc3d 1174 96bf
00000010: f126 dabe 9bd1 bdbf 7149 2bbf 9e2c acbe
00000020: e15e 98bf 4dc0 053f 022b 72bd 5ffa 56be
00000030: e706 18be dba4 593f 7904 1a3e e0ae 0e3f
00000040: 1460 3bbe 91e2 5fbe 0c5e 553d bae7 f83f
00000050: dff7 d73e 176c 78be ef56 90be 2045 c73f
00000060: f6bf c03e 6ea2 10be 7c61 253e 1bc0 163e
00000070: b403 143f 1581 fd3f 8b00 483e d24d 353f
00000080: 3462 013e 0792 42be f112 b93e e20e 19bf
00000090: b8ef 89be 62ef c23f a446 f6bf 6215 9abf
000000a0: c8f8 d43f 8529 d3bf 917c 1fbf 92b9 3a3c
000000b0: 56ac 93bf 636c 083e 80a3 913e 23bd 043f
000000c0: 4c7c cbbe 4ebe fdbf c84c e7bf bc7c b2be
000000d0: 7334 30bf 5ca2 d23f f34d 62bf 0569 86be
000000e0: 2e2e 8fbf 9aeb 23bf ad42 3b3f 4ef4 ff3d
000000f0: f1ff b03f c93d e63f fd83 a4be d163 343f
00000100: 915b 3fbe 98d4 20bd ca20 903f b8ca fe3e
00000110: 434d 04c0 eca9 7f3f 5c32 8a3f cc44 673d
00000120: 3e0a a1bf cb23 0b3f d777 d83f 0980 1dbe
00000130: efe8 6fbf 29f5 ef3e 65ff 813e 89f4 863f
00000140: 28e1 663f d38b 223f 547c ba3f 5fdb a83f
00000150: 7e7a 2e3d da1d a1bf 0c7c 0abf 041c 923f
00000160: 9b1c 4abf a83d 93be cfb7 e1be 183f 96bf
00000170: bf24 a73f 5144 59bf b9d7 2f3e 4979 efbf
00000180: 05c3 0b3f ea50 fcbe 14b1 a4be af7b 913f
00000190: 06a7 1d3e 0d41 453f 3e16 483f 4fb7 003e
000001a0: b793 303e 8b20 02bf 36ef 1c3f 113b dcbf
000001b0: 6e8e 6ebf 3298 64be ed27 723f d753 383f
000001c0: 72f0 3bbf 8ba3 3e3f bb1a 5b3f 2785 333e
000001d0: e0c2 8f3f eb6a e8bd 3a69 dabf e2e0 f03f
000001e0: 46a2 123f 334d 45bf dab4 babf 7669 80be
000001f0: 76d6 84be 7086 09bf 3571 823e a7f4 77bf
00000200: 5c33 413f f497 c63e f1c0 823f ac06 fbbd
00000210: 704c 323f 2282 a3bd 38d3 f13e 3b2e 0640
00000220: 2a74 d03f be5a 363f 2fa3 dbbf 1af6 c2be
00000230: 41aa d5bd f8d0 5a3f dafa 763f 614a 8ebe
00000240: 69b9 51bf cf66 9dbe 4c10 2a3e 397c 53bf
00000250: bbdf 39bf 1d0a 313e 0b3e 683f e168 a83e
00000260: 9839 1c3f fbdd 8f3f edc0 2d3f e879 5b3f
00000270: 64ad a83f 9536 2dbf 8da1 a03e 91d6 bebf
00000280: 08bd 273f 5c43 2d3f 685f fbbe 98b3 803f
00000290: 3d56 9f3f 574d 153f 2af5 c8be 690b b4bd
000002a0: 0133 2abe baca 693f 1e5e 91bf 118b afbe
000002b0: bbf0 2a3e da2b e73f 0697 41bf 3f8f 85bf
000002c0: 524f 39be 1f3b b6bc ff67 8a3e a455 973e
000002d0: 0ad5 34be 5b39 3dbf 0d2d 4bbf 30ef 1dbf
000002e0: a5c5 123e 860f 0ebf 5d3a e1be 13a4 de3f
000002f0: 66ee d43e 9621 0cbf 02ea 91bf 079f 213f
00000300: f9a6 d8be 7e39 ddbe af16 983e 33a1 1abf
00000310: 9316 8dbe c7fb dc3e e095 12bf 1b6d 993e
00000320: 452b 2dbe bcd6 01bf e36f 9abf 88ea 553e
00000330: e3c2 963f d49a 56be ed69 acbd f945 64be
00000340: 32db a8be 8c9f 633f 8619 503f 1b26 a3bf
00000350: 4a63 17bf df03 85bf bd84 dc3e 119e 663f
00000360: 4208 813f 9992 6c3d 1e1d ccbf fa3b 083f
00000370: 7900 943f d431 0d3e cfda cdbd ba52 9dbf
00000380: 1078 973f 67e4 5a3d 6ca3 78be cd05 8abf
00000390: 3e50 ec3e f2d5 2abf dea1 90bf 702a 43bf
000003a0: c1d7 55bf ca08 d03f 381d 9bbf a1ea e23f
000003b0: 4c19 933f 1c6c a83f 1717 9abd a2c8 903f
000003c0: 7707 2b3e e887 653f 42e7 473e cb46 623f
000003d0: e0df b9bf 2940 62bf 2d0b 5d3e 4dab f4bf
000003e0: e522 5bbe f062 2f3f e6b7 b8be b181 bbbf
000003f0: 0821 9cbf 412a b4bf d540 95be 83eb fd3f

b_conv1 f4 [16]
0.1 0.1 0.1 0.1 0.1 0.1 0.1 0.1
0.1 0.1 0.1 0.1 0.1 0.1 0.1 0.1
00000000: cdcc cc3d cdcc cc3d cdcc cc3d cdcc cc3d
00000010: cdcc cc3d cdcc cc3d cdcc cc3d cdcc cc3d
00000020: cdcc cc3d cdcc cc3d cdcc cc3d cdcc cc3d
00000030: cdcc cc3d cdcc cc3d cdcc cc3d cdcc cc3d

b_fc f4 [256]
0.09483233 0.10010843 0.09873153 0.102677934 0.10635735 0.09907152 0.09006761 0.09657422
0.092974275 0.092208646 0.09903263 0.094557665 0.09612631 0.09931375 0.09717638 0.099959545
0.084023796 0.0934727 0.100136 0.09500365 0.10461799 0.10414581 0.10069151 0.099013425
0.09441608 0.0928225 0.09922786 0.10982422 0.09811092 0.09872574 0.10325939 0.10117452
0.09776053 0.09762587 0.09518902 0.09211833 0.099364094 0.10576576 0.10007776 0.105298415
0.09883813 0.094053686 0.09766941 0.10171574 0.098953694 0.0973796 0.09643542 0.093492165
0.104054004 0.09171455 0.08871016 0.08834112 0.086710304 0.10001956 0.10309813 0.100861184
0.089378886 0.089767106 0.10112017 0.101360984 0.09193679 0.09396528 0.09714516 0.0968338
0.09601975 0.09412752 0.09014519 0.088426836 0.1000466 0.09650902 0.09461665 0.093755886
0.09603841 0.09876042 0.10152745 0.0911101 0.09595014 0.0952814 0.07364054 0.09646924
0.08516083 0.09584447 0.09614797 0.08738406 0.10150274 0.08360733 0.101442166 0.0911069
0.0926927 0.09359468 0.094478644 0.100655824 0.0904221 0.09714479 0.0953398 0.09255928
0.09246161 0.09634191 0.085471526 0.1008039 0.10235611 0.10259857 0.09808085 0.096524425
0.08946008 0.08643889 0.09729611 0.09606073 0.098634005 0.09203034 0.083321355 0.097445525
0.09734273 0.10193536 0.100598 0.09922862 0.100334324 0.10075911 0.09207533 0.09572254
0.105977625 0.09961886 0.09498154 0.0931797 0.09613922 0.08912962 0.09034306 0.08367389
0.101678886 0.10229047 0.098704636 0.08888122 0.09232135 0.09806231 0.0918636 0.0888886
0.096217 0.09440318 0.09059975 0.09456694 0.0933585 0.10037965 0.097874686 0.09252264
0.093394786 0.099722266 0.09818321 0.10135086 0.08096873 0.095977426 0.096612126 0.08944213
0.1017797 0.09745171 0.091227375 0.10515593 0.09607941 0.09103481 0.10200888 0.09177579
0.092991225 0.097011 0.111126795 0.09803428 0.086769216 0.09634901 0.10580638 0.09874283
0.0905735 0.092888355 0.094153486 0.098008305 0.09986155 0.09612071 0.093396075 0.09594168
0.090783395 0.10141977 0.09760956 0.0977529 0.09361706 0.098326474 0.0960201 0.10189524
0.095257 0.0970374 0.101241864 0.0959343 0.08755784 0.09796743 0.10194435 0.098212145
0.09596464 0.10244366 0.090939425 0.09624418 0.08996754 0.09303231 0.0970213 0.09533834
0.09959094 0.102168776 0.09231214 0.09618316 0.07643364 0.09900723 0.09841051 0.09308147
0.102153875 0.09893823 0.09811143 0.09797082 0.08784881 0.09098641 0.09099498 0.107189104
0.09674118 0.10235433 0.09826347 0.093412675 0.092320144 0.099430494 0.096291326 0.090195626
0.09658682 0.09446871 0.09638189 0.09021707 0.09811989 0.09482953 0.09763923 0.1029432
0.09340328 0.097795255 0.09196394 0.10168934 0.09822898 0.08585935 0.09570943 0.09702336
0.09290787 0.094462514 0.1015434 0.099432096 0.096757576 0.100191236 0.099173136 0.096539184
0.09779408 0.10157217 0.10244686 0.09820285 0.0984692 0.09611563 0.10130274 0.0903189
00000000: 7437 c23d a605 cd3d c233 ca3d cf48 d23d
00000010: e2d1 d93d 02e6 ca3d 5e75 b83d b4c8 c53d
00000020: 4c69 be3d e3d7 bc3d 9fd1 ca3d 73a7 c13d
00000030: dfdd c43d 0265 cb3d 6904 c73d 97b7 cc3d
00000040: ab14 ac3d 9d6e bf3d 1a14 cd3d 4691 c23d
00000050: f541 d63d 664a d53d 5a37 ce3d 8dc7 ca3d
00000060: 385d c13d b919 be3d fa37 cb3d 85eb e03d
00000070: 61ee c83d b930 ca3d a979 d33d 9634 cf3d
00000080: ac36 c83d 12f0 c73d 76f2 c23d 89a8 bc3d
00000090: 677f cb3d b89b d83d 92f5 cc3d b2a6 d73d
000000a0: a56b ca3d 389f c03d e606 c83d 5850 d03d
000000b0: 3ca8 ca3d f56e c73d ef7f c53d d278 bf3d
000000c0: 441a d53d d7d4 bb3d acad b53d 30ec b43d
000000d0: 2c95 b13d 0ed7 cc3d 1d25 d33d 4f90 ce3d
000000e0: 470c b73d d1d7 b73d 1718 cf3d 5996 cf3d
000000f0: 5b49 bc3d de70 c03d 0bf4 c63d cd50 c63d
00000100: 01a6 c43d eec5 c03d 0b9e b83d 2119 b53d
00000110: 3be5 cc3d 85a6 c53d 60c6 c13d 1603 c03d
00000120: c9af c43d e742 ca3d a0ed cf3d ef97 ba3d
00000130: 8281 c43d e522 c33d dad0 963d aa91 c53d
00000140: cd68 ae3d 1b4a c43d 3ae9 c43d 6af6 b23d
00000150: abe0 cf3d 523a ab3d e9c0 cf3d 4196 ba3d
00000160: acd5 bd3d 91ae bf3d 057e c13d a424 ce3d
00000170: 392f b93d d9f3 c63d 8341 c33d b88f bd3d
00000180: 835c bd3d e84e c53d b20b af3d 4672 ce3d
00000190: 15a0 d13d 331f d23d 9dde c83d 99ae c53d
000001a0: d936 b73d df06 b13d 2f43 c73d 7dbb c43d
000001b0: a000 ca3d 677a bc3d 63a4 aa3d 8591 c73d
000001c0: a05b c73d 7cc3 d03d 5306 ce3d 6038 cb3d
000001d0: 157c cd3d cb5a ce3d fe91 bc3d 2e0a c43d
000001e0: cc0a d93d f904 cc3d af85 c23d 00d5 be3d
000001f0: a4e4 c43d 9789 b63d c805 b93d 375d ab3d
00000200: 053d d03d aa7d d13d a825 ca3d 5b07 b63d
00000210: fa12 bd3d e4d4 c83d fc22 bc3d 3a0b b63d
00000220: 6b0d c53d 7456 c13d 5d8c b93d 50ac c13d
00000230: be32 bf3d d993 cd3d 8672 c83d 837c bd3d
00000240: c445 bf3d 303b cc3d 4714 c93d 0a91 cf3d
00000250: efd2 a53d d08f c43d 94dc c53d 6f2d b73d
00000260: e071 d03d c394 c73d 6bd5 ba3d fe5b d73d
00000270: 48c5 c43d 7570 ba3d 08ea d03d f2f4 bb3d
00000280: 2f72 be3d b4ad c63d 7296 e33d 32c6 c83d
00000290: 0fb4 b13d a152 c53d 04b1 d83d ae39 ca3d
000002a0: 997e b93d 403c be3d 8bd3 c03d 94b8 c83d
000002b0: 3684 cc3d efda c43d 7146 bf3d 127d c43d
000002c0: a5ec b93d 2bb5 cf3d 85e7 c73d ac32 c83d
000002d0: 4dba bf3d 645f c93d 30a6 c43d 74ae d03d
000002e0: 1a16 c33d 8bbb c63d e557 cf3d 3479 c43d
000002f0: 8651 b33d 26a3 c83d 33c8 d03d 7323 c93d
00000300: 1c89 c43d fbcd d13d 733e ba3d ab1b c53d
00000310: e740 b83d b987 be3d 1ab3 c63d bf40 c33d
00000320: 56f6 cb3d dd3d d13d 260e bd3d adfb c43d
00000330: 3e89 9c3d 4dc4 ca3d 738b c93d 7fa1 be3d
00000340: 0d36 d13d 20a0 ca3d a5ee c83d eda4 c83d
00000350: 14ea b33d 1557 ba3d 935b ba3d f685 db3d
00000360: 3d20 c63d 269f d13d 5c3e c93d 254f bf3d
00000370: 5812 bd3d 37a2 cb3d 6334 c53d 7cb8 b83d
00000380: 50cf c53d d078 c13d de63 c53d bac3 b83d
00000390: 15f3 c83d fc35 c23d 14f7 c73d e2d3 d23d
000003a0: 384a bf3d e148 c83d 9757 bc3d 8042 d03d
000003b0: 472c c93d 07d7 af3d 4e03 c43d 2fb4 c63d
000003c0: 7b46 be3d 9075 c13d fcf5 cf3d 0ea3 cb3d
000003d0: d628 c63d 1031 cd3d 491b cb3d 56b6 c53d
000003e0: 4348 c83d 1205 d03d a9cf d13d 931e c93d
000003f0: 38aa c93d 45d8 c43d d077 cf3d 1ef9 b83d

W_conv2 f4 [3, 3, 16, 32]
-0.7546119 2.0250716 -0.6282493 0.32017192 -0.3678932 1.366861 0.11071717 -2.0741973
1.5336174 -0.87716544 -0.6931609 -0.09418769 -0.38769695 1.0415982 1.4341867 1.4376346
1.0542883 0.51110375 -0.26952842 0.5642355 -1.0031958 1.0195014 -0.90414226 -0.80599403
-1.3483255 -0.93563217 0.37622517 1.0288979 -1.4347854 0.2963805 -0.5071465 0.6246379
-1.2747599 1.561545 0.1764583 -0.11396982 -0.28362915 -0.30101514 0.58001447 -0.16181141
-0.36114123 -1.2473488 2.129547 0.059550885 -0.59813267 -1.1002245 -0.44818032 -2.2511506
0.46281648 -0.5589437 0.114384584 -1.2787704 0.7233169 0.6489684 -1.4025491 -2.2443182
-0.08800194 -2.2206132 -1.1532695 1.0694584 1.2900883 -0.030458584 -1.1895716 0.9212386
0.07215318 -1.9944783 -1.7856646 -1.7562304 0.9307763 0.12596206 0.44371107 0.1728388
0.5508424 -1.056655 -0.30264437 0.7841916 0.3247114 -1.4246254 0.023207342 -0.6427203
-1.1128935 -0.9498183 0.7860243 -0.23244807 -0.59013283 -0.329082 2.010013 -1.3551452
1.1984729 0.31516856 -0.34997618 -1.8386848 1.3453981 -2.331288 -0.39125976 -3.4538634
-0.15524141 1.4955344 -0.64696026 -1.8504654 -0.22130908 0.9975875 1.10181 0.8745576
0.6777134 1.029537 1.3809559 0.49099702 0.8211285 -0.3073887 2.1932175 -1.2619987
0.37587968 -0.14291419 -0.5243679 -1.1865078 -1.4121608 -1.4148932 0.21594815 -0.8979368
1.5853459 -0.012171979 0.7635752 -1.9636664 -0.45796582 0.08431679 -1.3441274 -0.54343945
-1.9582921 0.4159011 -0.46103746 1.0451514 -0.030398428 -0.82558244 -2.0408747 0.97017366
1.459431 -0.80413735 -1.9532363 0.0642244 0.020666532 1.252554 -1.1429645 0.12964411
-0.07055703 0.21136142 -0.46238643 0.12555483 1.6820576 1.1241904 -0.9671453 -1.7105448
-0.52048767 -1.0800612 1.1802459 -0.9282366 1.4152073 -0.049140673 -0.849288 0.9684612
0.2862622 -0.77087265 1.1475743 1.889287 0.34816867 -0.78032255 0.020873813 1.0703977
0.01694438 -0.5559728 -0.7615946 -0.4766108 -1.6689031 -0.9482108 -2.0445235 -0.25845292
0.3883747 -0.8278118 -0.58056426 0.5746298 -1.9098148 -0.97070295 0.2600086 0.31063586
-1.2306437 -1.6707499 1.2620317 1.2161461 1.9167047 -0.26431203 0.66593385 2.511571
0.51038843 -0.23980078 -0.9310537 0.5766903 -1.5751123 0.09098605 -0.7937797 -0.14372176
-0.6845171 0.56648636 0.42988044 0.9923104 -1.2121254 -1.31447 -1.9899616 -1.3299454
-0.7427906 0.795651 1.5225085 1.0409505 2.361304 -0.17933197 0.08260245 -1.9509338
0.19769852 2.4689105 -0.8987575 2.9061213 0.9029024 -0.56751996 1.290769 1.5948175
-1.4507995 2.03597 -0.74176717 0.6451367 2.0850456 -0.2501005 0.44345835 0.04789682
0.44328505 -2.8116536 -0.3733444 0.88250685 0.5291759 2.3650541 -0.07026351 -0.9047392
0.13524485 1.0490087 -0.65431035 -0.19278236 1.8176272 -0.107157096 0.1802769 0.16856262
0.8589744 0.18826345 0.36229447 0.1701417 0.028309066 -0.5562758 0.29749015 -2.2542708
00000000: 3f2e 41bf c69a 0140 f2d4 20bf 93ed a33e
00000010: 7f5c bcbe 4df5 ae3f afbf e23d a6bf 04c0
00000020: 934d c43f ea8d 60bf fe72 31bf 7ae5 c0bd
00000030: 3780 c6be 1753 853f 6e93 b73f 6904 b83f
00000040: ebf2 863f b2d7 023f a1ff 89be bd71 103f
00000050: b868 80bf 067f 823f de75 67bf a055 4ebf
00000060: ee95 acbf 9785 6fbf 96a0 c03e edb2 833f
00000070: 0ca7 b7bf 2fbf 973e 5ad4 01bf 45e8 1f3f
00000080: 552b a3bf b5e0 c73f 7cb1 343e 0269 e9bd
00000090: d737 91be a81e 9abe d47b 143f e4b1 25be
000000a0: 81e7 b8be 20a9 9fbf 804a 0840 a1eb 733d
000000b0: 391f 19bf 28d4 8cbf e477 e5be da12 10c0
000000c0: 48f6 ec3e ef16 0fbf 7742 ea3d c0ae a3bf
000000d0: 4c2b 393f cb22 263f bb86 b3bf e9a2 0fc0
000000e0: 5c3a b4bd 871e 0ec0 569e 93bf 03e4 883f
000000f0: 9d21 a53f 4884 f9bc e243 98bf 4bd6 6b3f
00000100: 0cc5 933d 114b ffbf a890 e4bf 28cc e0bf
00000110: 5b47 6e3f 33fc 003e 192e e33e a8fc 303e
00000120: 0204 0d3f 7940 87bf 34f4 9abe c8c0 483f
00000130: 9340 a63e 205a b6bf 531d be3c 5189 24bf
00000140: 4b73 8ebf 4b27 73bf e338 493f de06 6ebe
00000150: f212 17bf 707d a8be 0ea4 0040 6675 adbf
00000160: 8f67 993f c65d a13e 1430 b3be 065a ebbf
00000170: 0136 ac3f d333 15c0 3353 c8be 190c 5dc0
00000180: 9bf7 1ebe ac6d bf3f 309f 25bf 0ddc ecbf
00000190: d99e 62be e561 7f3f 1c08 8d3f 02e3 5f3f
000001a0: a07e 2d3f dec7 833f 2ac3 b03f f663 fb3e
000001b0: 7a35 523f 0d62 9dbe ad5d 0c40 2c89 a1bf
000001c0: 4d73 c03e 1958 12be fa3c 06bf 7ddf 97bf
000001d0: afc1 b4bf 381b b5bf 8321 5d3e 30df 65bf
000001e0: 9dec ca3f fb6c 47bc aa79 433f 6c59 fbbf
000001f0: 7f7a eabe 48ae ac3d 5e0c acbf d91e 0bbf
00000200: 51a9 fabf fdf0 d43e 1a0d ecbe 85c7 853f
00000210: 2006 f9bc 5f59 53bf b19d 02c0 4d5d 783f
00000220: a3ce ba3f f2db 4dbf a603 fabf 1588 833d
00000230: dc4c a93c b153 a03f a94c 92bf 6dc1 043e
00000240: 3480 90bd 216f 583e eabd ecbe 7291 003e
00000250: aa4d d73f 79e5 8f3f d696 77bf 22f3 dabf
00000260: ae3e 05bf 723f 8abf 4c12 973f eaa0 6dbf
00000270: 8325 b53f bb47 49bd f06a 59bf 13ed 773f
00000280: f690 923e e957 45bf b7e3 923f 28d4 f13f
00000290: 2a43 b23e 38c3 47bf 8fff aa3c cb02 893f
000002a0: f1ce 8a3c 3c54 0ebf ddf7 42bf 5506 f4be
000002b0: 9e9e d5bf f1bd 72bf 79d9 02c0 f153 84be
000002c0: 0cd9 c63e 79eb 53bf dc9f 14bf f01a 133f
000002d0: d074 f4bf fd7f 78bf d91f 853e aa0b 9f3e
000002e0: bc85 9dbf 22db d5bf 418a a13f adaa 9b3f
000002f0: 9456 f53f e853 87be a47a 2a3f 94bd 2040
00000300: d1a8 023f 568e 75be 8959 6ebf faa1 133f
00000310: 489d c9bf e556 ba3d 2535 4bbf cc2b 13be
00000320: 833c 2fbf 4005 113f 4a19 dc3e 0e08 7e3f
00000330: ed26 9bbf 8e40 a8bf 10b7 febf a73b aabf
00000340: 8627 3ebf c9af 4b3f 8fe1 c23f de3d 853f
00000350: 9b1f 1740 cda2 37be 792b a93d 33b8 f9bf
00000360: 7b71 4a3e a102 1e40 f914 66bf e4fd 3940
00000370: 9d24 673f fd48 11bf eb37 a53f fb22 cc3f
00000380: ccb3 b9bf 554d 0240 74e4 3dbf ae27 253f
00000390: 6371 0540 2c0d 80be f90c e33e 752f 443d
000003a0: 42f6 e23e 22f2 33c0 ff26 bfbe f8eb 613f
000003b0: 1278 073f 0c5d 1740 51e6 8fbd fd9c 67bf
000003c0: a07d 0a3e eb45 863f e280 27bf bd68 45be
000003d0: 02a8 e83f 2e75 dbbd 829a 383e ae9b 2c3e
000003e0: bfe5 5b3f 22c8 403e a97e b93e a039 2e3e
000003f0: 6ae8 e73c 1768 0ebf a150 983e f945 10c0

W_conv1 f4 [3, 3, 3, 16]
-1.24869 0.87216043 0.104187265 2.692859 -3.051433 -0.49057275 0.19590367 1.0277547
2.3104546 -1.9683003 -4.3547187 -2.495472 0.7834593 -0.9145822 2.7703218 0.7985547
-3.735989 -1.0204391 -0.55255383 -1.0379053 0.57071847 3.6151032 -2.0785513 0.3531986
3.5153341 2.5990655 -4.818925 -4.824988 0.5160229 4.0554113 1.8468164 3.386099
0.49028173 2.873635 1.97089 3.2902856 -0.19291013 -3.1126919 -3.8030121 3.6651561
0.13619383 4.693565 -2.8194275 -3.2800832 -2.223783 2.1284685 3.9446058 5.029061
3.3329678 1.975185 -0.122567065 -1.3968604 2.2819579 1.5505924 -0.74828416 1.1848565
-0.11323413 1.6884354 2.97283 -3.7863522 -1.569075 -0.3338866 -2.306822 -0.753885
-2.6113358 1.1134299 3.2217348 1.3056141 -0.23767772 -2.4101872 0.21817406 0.8910964
0.5478286 -0.95078045 2.7710311 1.2691997 1.2051735 -3.4825017 -0.68678063 0.07816493
-0.9293705 -0.32980344 0.7444706 0.026402622 1.8080986 -2.2574697 2.79042 -1.1561517
-1.5837224 -2.089316 0.44751272 0.27721465 0.9007499 1.4131082 -0.9377544 2.6263142
-5.236601 2.06216 4.016475 -1.0336071 -0.6187506 -0.2018753 -0.18288474 -2.9632173
-0.7224293 -0.39176 1.242545 -4.8971086 -2.551738 3.1535869 -5.292783 -1.6452218
-1.1523703 3.6478367 2.7602422 -2.6854017 2.4542584 -3.0888436 3.1207838 6.7787995
4.1765485 -0.7498858 0.24932814 -2.519918 2.0747397 1.3616736 0.28207153 -1.292111
-2.5388954 -1.0782161 1.9055759 0.36136308 -0.2316664 -0.9381844 3.627394 2.1770096
2.503202 1.7017269 2.7805102 0.6887024 -1.7153 -1.5161169 -0.5224128 -4.130056
0.16029246 -0.058547016 -0.7343426 -0.6669068 0.9775361 1.6551433 0.03716999 0.61889815
-1.0877357 -0.78012544 3.0445983 -3.2634838 1.2430005 -0.013015762 0.10020928 -0.55001724
-0.5279089 0.7202447 1.348984 0.51995975 -0.9782039 -0.754413 -1.3000796 -0.8234712
-0.67157716 1.3354245 0.39679715 1.420851 1.0285113 -0.6463258 0.2906912 -1.4715154
-1.2226657 3.1500912 -3.085484 -0.621348 -0.49484375 0.58350164 3.7328248 0.70187455
-0.032971676 0.25441924 -0.82117945 -0.7385619 0.9194756 1.0825752 0.24321452 1.6332796
1.0098931 -2.6500933 -0.33829877 1.8055105 1.4332724 -0.14764762 -1.8189775 0.112567514
1.2521648 -0.68247646 -0.27569017 2.0471797 0.6997594 1.521266 -1.6042494 -0.2102486
1.403746 0.25185555 -0.30490893 0.068406776 -2.459716 0.9442235 -1.1761891 0.30370754
0.08585586 0.93245745 0.4018386 0.24364261 -0.021074915 -1.9845997 -0.5701572 0.30340648
-0.93863285 -1.3341628 2.0966282 -0.37758923 -1.5751363 1.4543628 -1.4635823 -0.34547433
1.6638036 -1.2098716 1.423265 0.69719565 0.12121325 -0.91839695 1.556058 -0.4619696
1.5840548 1.2350956 0.44270447 -0.8120341 -1.2283918 -1.8156141 2.0409048 0.69771445
-1.5353957 1.0895293 -2.012459 0.27552235 -2.0762293 0.4241229 0.6300422 1.4483833
00000000: 13d5 9fbf e845 5f3f 2260 d53d cd57 2c40
00000010: ae4a 43c0 5a2c fbbe f99a 483e 778d 833f
00000020: 7dde 1340 44f1 fbbf db59 8bc0 d0b5 1fc0
00000030: ca90 483f 0f22 6abf f44c 3140 156e 4c3f
00000040: 721a 6fc0 c09d 82bf 2b74 0dbf 15da 84bf
00000050: 9b1a 123f da5d 6740 fc06 05c0 72d6 b43e
00000060: 3cfb 6040 1757 2640 a234 9ac0 4d66 9ac0
00000070: 141a 043f eec5 8140 7b64 ec3f d9b5 5840
00000080: 3506 fb3e a3e9 3740 2046 fc3f 0a94 5240
00000090: 3c8a 45be 5836 47c0 8d64 73c0 eb91 6a40
000000a0: 6576 0b3e af31 9640 8071 34c0 e2ec 51c0
000000b0: 7652 0ec0 d438 0840 6c74 7c40 11ee a040
000000c0: 584f 5540 ddd2 fc3f 7104 fbbd 52cc b2bf
000000d0: 990b 1240 d079 c63f 8d8f 3fbf 61a9 973f
000000e0: 4ce7 e7bd a71e d83f d942 3e40 9853 72c0
000000f0: 73d7 c8bf 2ff3 aabe f9a2 13c0 9bfe 40bf
00000100: 2020 27c0 df84 8e3f e730 4e40 5d1e a73f
00000110: ca61 73be 8240 1ac0 0569 5f3e e51e 643f
00000120: 7f3e 0c3f 5966 73bf 9358 3140 2375 a23f
00000130: 2043 9a3f 4fe1 5ec0 dbd0 2fbf ef14 a03d
00000140: 3aeb 6dbf ffdb a8be a095 3e3f 504a d83c
00000150: c66f e73f 627a 10c0 3e96 3240 c7fc 93bf
00000160: 6ab7 cabf 5ab7 05c0 6320 e53e 14ef 8d3e
00000170: 8c97 663f bbe0 b43f ac10 70bf 8815 2840
00000180: 3c92 a7c0 6efa 0340 f786 8040 3d4d 84bf
00000190: 7066 1ebf 66b8 4ebe 2346 3bbe 5aa5 3dc0
000001a0: 20f1 38bf c494 c8be b70b 9f3f 1db5 9cc0
000001b0: ad4f 23c0 5ed4 4940 7a5e a9c0 a196 d2bf
000001c0: df80 93bf 2876 6940 cfa7 3040 9fdd 2bc0
000001d0: 9212 1d40 9daf 45c0 ecba 4740 edeb d840
000001e0: 49a6 8540 84f8 3fbf e04f 7f3e 5646 21c0
000001f0: 89c8 0440 524b ae3f ae6b 903e e563 a5bf
00000200: 437d 22c0 fc02 8abf e9e9 f33f 9504 b93e
00000210: f539 6dbe da2c 70bf 3927 6840 2054 0b40
00000220: 7634 2040 30d2 d93f e1f3 3140 cd4e 303f
00000230: f38e dbbf 1e10 c2bf d8bc 05bf 6b29 84c0
00000240: b523 243e ffce 6fbd e0fd 3bbf 67ba 2abf
00000250: ce3f 7a3f bcdb d33f 8f3f 183d 1c70 1e3f
00000260: ec3a 8bbf 4db6 47bf b3da 4240 ebdc 50c0
00000270: a41a 9f3f 1040 55bc 863a cd3d eecd 0cbf
00000280: 0a25 07bf f561 383f 82ab ac3f 151c 053f
00000290: 926b 7abf 3621 41bf 0269 a6bf 02cf 52bf
000002a0: 7bec 2bbf 31ef aa3f ff28 cb3e 72de b53f
000002b0: 42a6 833f 9c75 25bf 7ad5 943e 9e5a bcbf
000002c0: 4f80 9cbf 189b 4940 9278 45c0 aa10 1fbf
000002d0: 295c fdbe 5d60 153f 9ae6 6e40 0dae 333f
000002e0: 4f0d 07bd 3d43 823e d138 52bf 6512 3dbf
000002f0: c162 6b3f d391 8a3f 3a0d 793e 4e0f d13f
00000300: 2d44 813f 219b 29c0 7f35 adbe f81a e73f
00000310: 7875 b73f f030 17be 41d4 e8bf cc89 e63d
00000320: f046 a03f c7b6 2ebf 4327 8dbe fe04 0340
00000330: 6f23 333f d8b8 c23f 0b58 cdbf 694b 57be
00000340: f3ad b33f 36f3 803e 061d 9cbe da18 8c3d
00000350: fd6b 1dc0 a2b8 713f 5d8d 96bf 8e7f 9b3e
00000360: 32d5 af3d 88b5 6e3f cabd cd3e 737d 793e
00000370: 4da5 acbc 5d07 febf d2f5 11bf 1858 9b3e
00000380: 3e4a 70bf d9c5 aabf 282f 0640 6053 c1be
00000390: 119e c9bf 8f28 ba3f aa56 bbbf 03e2 b0be
000003a0: 84f7 d43f 13dd 9abf 8c2d b63f 6a7b 323f
000003b0: a73e f83d 101c 6bbf e92c c73f 4887 ecbe
000003c0: 4fc2 ca3f 9d17 9e3f 29aa e23e 77e1 4fbf
000003d0: f13b 9dbf 0b66 e8bf 2f9e 0240 6a9d 323f
000003e0: d987 c4bf b275 8b3f 21cc 00c0 4411 8d3e
000003f0: f1e0 04c0 a326 d93e 724a 213f a064 b93f

b_conv2 f4 [32]
0.1 0.1 0.1 0.1 0.1 0.1 0.1 0.1
0.1 0.1 0.1 0.1 0.1 0.1 0.1 0.1
0.1 0.1 0.1 0.1 0.1 0.1 0.1 0.1
0.1 0.1 0.1 0.1 0.1 0.1 0.1 0.1
00000000: cdcc cc3d cdcc cc3d cdcc cc3d cdcc cc3d
00000010: cdcc cc3d cdcc cc3d cdcc cc3d cdcc cc3d
00000020: cdcc cc3d cdcc cc3d cdcc cc3d cdcc cc3d
00000030: cdcc cc3d cdcc cc3d cdcc cc3d cdcc cc3d
00000040: cdcc cc3d cdcc cc3d cdcc cc3d cdcc cc3d
00000050: cdcc cc3d cdcc cc3d cdcc cc3d cdcc cc3d
00000060: cdcc cc3d cdcc cc3d cdcc cc3d cdcc cc3d
00000070: cdcc cc3d cdcc cc3d cdcc cc3d cdcc cc3d

W_out f4 [256, 5]
0.9166908 0.34891817 -0.21062429 -0.07731358 0.43009052 -0.9776402 -1.523078 0.34194493
0.50912255 1.0069232 0.1139566 -1.5856783 -0.41548663 1.2474438 -0.79603547 0.19381487
0.02289615 -0.39088303 -1.1798707 1.7208594 -0.53939503 -2.3734996 0.62317026 1.6293397
-0.3686626 -0.47421208 -0.78837794 -0.339267 -1.16984 2.8668613 0.4604058 0.1880684
-1.0035144 -0.004555013 0.47942317 -0.752433 -1.8204912 2.2504826 -0.8431091 -1.0553477
-0.24163868 0.049818367 0.17613286 -1.8303404 -1.318036 0.38489997 1.6111819 1.1326791
-0.7198767 -0.10249493 0.65301675 -0.96281993 1.4422606 0.25944385 0.15942898 -0.043709327
-1.2309802 -0.1790155 1.7580264 0.15785266 0.79755324 -0.7052677 0.5015232 1.0383996
1.0731617 -1.4022577 -0.46506816 -0.8648157 0.74178225 -1.434418 0.34968865 1.4826542
-0.2272402 -0.06389578 0.22715777 -0.24906744 -0.71247685 0.61412656 1.3617619 0.82869065
0.20007746 2.050028 -1.0696502 0.2753214 -0.110471524 -0.037311107 -0.84909445 0.53952014
1.5292853 1.2067484 0.14510968 0.9945091 1.3213912 -1.3535261 -0.5116275 0.17839538
1.1617491 0.042079326 -0.8276879 1.1847353 0.77758247 -0.14720894 1.0374266 -1.1712754
-0.50537187 0.8538344 0.08956733 0.7373217 1.2418835 -0.14088495 0.8854577 -0.6214265
2.1509674 0.5283769 0.44986996 -0.11199431 1.1242251 1.1186113 0.410722 -1.0788116
-0.3417645 -1.4349186 1.6110107 0.116898 -0.83464587 1.1188118 -0.7923847 1.1769913
0.025592854 1.3116046 -0.79640406 -0.67670447 -1.1986457 1.4236819 -0.43047157 -4.76864
-2.7452817 -3.810838 -4.5469575 11.605509 0.38237095 0.39510727 1.9119378 -1.5474005
0.120623566 -1.7501819 -2.3859186 -0.29255772 -1.1274717 0.33974695 0.6462495 -0.52504635
-0.46502373 0.6788226 1.4131837 0.83146477 -1.9290468 1.5052549 -1.2569189 0.67555535
0.31234798 -1.1328977 0.46846902 0.030988323 1.5185941 -0.6450063 -0.2623148 -0.920753
0.13776249 -0.41038546 -1.0295808 1.32334 -0.18554021 -1.0607489 -1.9949244 0.017546676
-0.36549836 0.41891903 -0.5190708 1.2435268 -1.8511931 -2.0737426 0.7042593 -1.0564064
-1.0135611 0.09088572 -0.40725487 1.5577956 -0.22198102 -0.48736385 -2.940645e-05 -0.96331936
-0.41944855 2.6328413 0.8562279 0.43141124 -0.5616779 2.222086 -0.51781994 -0.6824428
0.6935214 -1.3934888 0.60696477 0.46386796 0.3272594 0.4337446 -0.5235575 0.91899633
0.044483855 -0.13817167 0.6130367 1.7513951 -0.98300844 0.046453577 -0.1670831 -0.11398029
1.1914251 -1.3388077 -0.5163245 0.68538344 -0.006420032 -1.607111 0.64324075 -1.8207902
-0.15783815 0.8986779 1.1698189 0.13121513 -0.09872288 0.06187228 1.4838235 -0.6534838
0.4688081 0.94749534 1.1122702 -0.7882778 0.66003084 -1.1781874 -0.5276655 -1.410606
-0.8324858 0.58383846 -0.032559354 -1.0159891 -1.1436596 1.423929 1.629302 0.9325477
0.22524662 1.5604752 0.13927916 3.1702957 -0.685698 -0.4976958 -0.5127525 -0.15880093
00000000: 40ac 6a3f 67a5 b23e e5ad 57be 9556 9ebd
00000010: d334 dc3e a146 7abf 38f4 c2bf 6813 af3e
00000020: db55 023f dce2 803f 1462 e93d 82f7 cabf
00000030: aaba d4be 3dac 9f3f fbc8 4bbf 6877 463e
00000040: b590 bb3c d221 c8be 0106 97bf 1f45 dc3f
00000050: cb15 0abf 6be7 17c0 1688 1f3f 348e d03f
00000060: 58c1 bcbe edcb f2be 23d3 49bf 67b4 adbe
00000070: 51bd 95bf a87a 3740 4fba eb3e 0195 403e
00000080: 2973 80bf 3842 95bb f476 f53e 739f 40bf
00000090: db05 e9bf e807 1040 ffd5 57bf a215 87bf
000000a0: 2170 77be 580e 4c3d 2c5c 343e 9848 eabf
000000b0: 67b5 a8bf 9c11 c53e 353b ce3f a1fb 903f
000000c0: d749 38bf dde8 d1bd 1b2c 273f 5e7b 76bf
000000d0: ff9b b83f d3d5 843e 5a41 233e 8d08 33bd
000000e0: c290 9dbf d74f 37be 0207 e13f 21a4 213e
000000f0: 732c 4c3f 6d8c 34bf d363 003f 47ea 843f
00000100: 5d5d 893f 2e7d b3bf 6a1d eebe 9064 5dbf
00000110: 71e5 3d3f 029b b7bf 640a b33e 9dc7 bd3f
00000120: a8b1 68be cadb 82bd 0c9c 683e 890b 7fbe
00000130: e264 36bf 6637 1d3f 374e ae3f 1225 543f
00000140: 1be1 4c3e a933 0340 4cea 88bf edf6 8c3e
00000150: e53e e2bd 88d3 18bd 415e 59bf fe1d 0a3f
00000160: 9fbf c33f bb76 9a3f a297 143e 2698 7e3f
00000170: 5923 a93f 5840 adbf 05fa 02bf 47ad 363e
00000180: 32b4 943f 5f5b 2c3d 5be3 53bf 68a5 973f
00000190: a50f 473f f1bd 16be 65ca 843f 5aec 95bf
000001a0: 0d60 01bf e494 5a3f 146f b73d 1dc1 3c3f
000001b0: 0af6 9e3f 2544 10be 5bad 623f cf15 1fbf
000001c0: 73a9 0940 b543 073f 5b55 e63e 465d e5bd
000001d0: 9ce6 8f3f a82e 8f3f 274a d23e 8016 8abf
000001e0: c2fb aebe 6aab b7bf 9935 ce3f 3868 ef3d
000001f0: 5aab 55bf 3a35 8f3f b9d9 4abf a7a7 963f
00000200: 1ba8 d13c a9e2 a73f 23e1 4bbf 813c 2dbf
00000210: 396d 99bf 353b b63f c566 dcbe b398 98c0
00000220: b2b2 2fc0 c5e4 73c0 ad80 91c0 2ab0 3941
00000230: 20c6 c33e 804b ca3e 61ba f43f 3811 c6bf
00000240: 7d09 f73d f605 e0bf e4b2 18c0 20ca 95be
00000250: fe50 90bf 50f3 ad3e 9b70 253f 7069 06bf
00000260: 9717 eebe 51c7 2d3f 34e3 b43f e0da 543f
00000270: 01eb f6bf 31ac c03f b8e2 a0bf 32f1 2c3f
00000280: 13ec 9f3e cb02 91bf 2cdb ef3e 39db fd3c
00000290: 4b61 c23f 221f 25bf 204e 86be 78b6 6bbf
000002a0: 9c11 0d3e 0b1e d2be 4ec9 83bf 3563 a93f
000002b0: 41fe 3dbe 9fc6 87bf af59 ffbf 0cbe 8f3c
000002c0: 9a22 bbbe 8e7c d63e d3e1 04bf e32b 9f3f
000002d0: e5f3 ecbf 33b8 04c0 564a 343f 5338 87bf
000002e0: 5fbc 81bf 4b22 ba3d b683 d0be d965 c73f
000002f0: fe4e 63be c187 f9be dfad f6b7 199c 76bf
00000300: f6c1 d6be 7980 2840 c031 5b3f efe1 dc3e
00000310: 1fca 0fbf a836 0e40 d98f 04bf 92b4 2ebf
00000320: 9e8a 313f d75d b2bf 0b62 1b3f 1a80 ed3e
00000330: 8b8e a73e c613 de3e dd07 06bf 5843 6b3f
00000340: b434 363d e07c 0dbe f9ef 1c3f b72d e03f
00000350: 71a6 7bbf 1b46 3e3d d517 2bbe 806e e9bd
00000360: 9e80 983f 0d5e abbf d82d 04bf 4a75 2f3f
00000370: 225f d2bb d0b5 cdbf 6dab 243f a70f e9bf
00000380: 53a0 21be c10f 663f a0bc 953f 425d 063e
00000390: 392f cabd ca6d 7d3d eeed bd3f b74a 27bf
000003a0: 9e07 f03e 0e8f 723f df5e 8e3f 93cc 49bf
000003b0: c8f7 283f d8ce 96bf 1615 07bf bd8e b4bf
000003c0: ca1d 55bf 7076 153f f55c 05bd ee0b 82bf
000003d0: 7063 92bf 4e43 b63f f88c d03f 72bb 6e3f
000003e0: 0da7 663e a7bd c73f 329f 0e3e 20e6 4a40
000003f0: e789 2fbf fcd1 febe bf43 03bf b69c 22be
