Models/Tensorflow/model_8x8.npz (npz, 552614 bytes, 8 tensors)

W_conv1 f4 [3, 3, 3, 16]
0	0xbf688345	-0.908253
1	0x3f82821b	1.0195955
2	0x3f0317a6	0.5120796
3	0x400319d5	2.0484517
4	0xc0474241	-3.1134188
5	0xbe2cebf1	-0.1688688
6	0x3f184d83	0.59493273
7	0x3f54bf27	0.83104175
8	0x3fe1af30	1.7631588
9	0xc00c0ba9	-2.1882117
10	0xc057bfe8	-3.371088
11	0xc001334d	-2.0187562
12	0x3f60c3e8	0.8779893
13	0xbf92edad	-1.1478783
14	0x400150fc	2.020568
15	0x3f0b4650	0.54404163
16	0xc0728a21	-3.7896807
17	0xbeefcd79	-0.4683645
18	0xbef415f2	-0.47672993
19	0xbf98c89d	-1.1936222
20	0x3ea1bad8	0.31587863
21	0x40233d6f	2.5506246
22	0xbfa48a8a	-1.2854779
23	0x3e4b35a4	0.19844681
24	0x4029b377	2.6515787
25	0x3ffb1341	1.9615251
26	0xc076ea66	-3.8580565
27	0xc07b19c2	-3.9234471
28	0x3daa4779	0.083144136
29	0x406508d7	3.5786645
30	0x3f627dc2	0.8847314
31	0x403f356b	2.9876354
32	0x3f15c031	0.58496386
33	0x403c2ca1	2.940224
34	0x3f8a2ebb	1.0795511
35	0x402a46b5	2.6605656
36	0xbccb2f28	-0.02480276
37	0xc037f77c	-2.8744802
38	0xc06907fe	-3.6411128
39	0x407b47d0	3.926258
40	0xbe9078f9	-0.28217295
41	0x4081ff7a	4.062436
42	0xbff65f89	-1.9247905
43	0xc01d8f6c	-2.4618788
44	0xbf7d59ac	-0.98964953
45	0x3fb0e148	1.381875
46	0x40702088	3.7519855
47	0x408bb288	4.3655434
48	0x403f8ea7	2.9930818
49	0x3feb7a24	1.8396649
50	0x3c9bc604	0.01901532
51	0xbf900c36	-1.1253726
52	0x3fe0b3c9	1.7554866
53	0x3f7dbbb3	0.9911453
54	0xbf33c871	-0.70227724
55	0x3f73a564	0.9517424
56	0x3e67ad3b	0.22624676
57	0x3f5e0a01	0.86734015
58	0x4023fc85	2.5622876
59	0xc03fb2ca	-2.9952874
60	0xbfbe08ee	-1.4846475
61	0x3dc43cdc	0.095819205
62	0xbff09175	-1.879439
63	0xbf561c90	-0.8363733
64	0xc00daa49	-2.2135184
65	0x3fa586d8	1.2931776
66	0x403ea302	2.9786992
67	0x3f73af99	0.95189816
68	0x3ed61873	0.41815528
69	0xbfde7f97	-1.7382687
70	0xbe9a64ae	-0.30154938
71	0x3f10b10a	0.5652014
72	0x3f83c6ac	1.0295005
73	0xbe8a1694	-0.2697035
74	0x4011b932	2.2769284
75	0x3fcbf3a1	1.5933725
76	0x402262fa	2.537291
77	0xc038740c	-2.882083
78	0xbef6eb95	-0.4822661
79	0xbda8f266	-0.08249359
80	0xbf59c46c	-0.8506534
81	0xbf00e088	-0.5034261
82	0x3f94be05	1.1620489
83	0xbe129f03	-0.1431847
84	0x3fd1c337	1.63877
85	0xbfb87308	-1.4410105
86	0x4002b188	2.0420856
87	0xbe927e51	-0.28611997
88	0xbfb6d779	-1.4284507
89	0xbf952983	-1.1653293
90	0x3f6aec92	0.9176723
91	0x3e074d26	0.13213024
92	0x3f1817e4	0.59411454
93	0x3f2148fe	0.63002
94	0xbf14d750	-0.5814104
95	0x3fb4a40f	1.4112567
96	0xc06c3a4c	-3.6910582
97	0x3fbb9ef9	1.465789
98	0x40307dd2	2.7576795
99	0xbf3a4761	-0.72765166
100	0xbf80b683	-1.0055698
101	0x3cb83fd4	0.022491373
102	0x3d0b339c	0.033984765
103	0xbffd2edc	-1.9779925
104	0xbf1190f2	-0.56861794
105	0x3c0279b1	0.007963584
106	0x3f6b4000	0.9189453
107	0xc0458716	-3.08637
108	0xc0135837	-2.3022592
109	0x3fac40e9	1.3457309
110	0xc04e5782	-3.224091
111	0xc0133c56	-2.3005576
112	0x3d4b8b3d	0.049693335
113	0x401d2a99	2.455725
114	0x401cf6d2	2.4525647
115	0xc01ffa24	-2.4996424
116	0x400d1e96	2.2049918
117	0xbfcbc050	-1.5918064
118	0x404fe0dd	3.2480996
119	0x40b912d1	5.783547
120	0x4053e8cc	3.3110838
121	0xbe7975c3	-0.24361329
122	0xbdf0f3d5	-0.11765257
123	0xc01e7fe7	-2.4765565
124	0x3fa323b3	1.274527
125	0x3f263643	0.64926547
126	0x3f9d9e45	1.2313925
127	0xbeb1fa68	-0.34761357
128	0xc00b2dbd	-2.1746666
129	0xbf6b6d39	-0.91963536
130	0x4003ed27	2.0613496
131	0x3f285a50	0.65762806
132	0xbdd4ddda	-0.10393877
133	0xbd41063c	-0.047125086
134	0x4034ee8b	2.8270595
135	0x3f6a193b	0.9144475
136	0x3fae951f	1.3639258
137	0x3fda9255	1.7075907
138	0x400a2755	2.1586506
139	0x3e835bc9	0.25655964
140	0xc00eba9f	-2.2301404
141	0xbeb464a2	-0.35233027
142	0xbf6d81f1	-0.927764
143	0xc01c5dac	-2.4432173
144	0x3f292918	0.6607833
145	0xbede4858	-0.4341457
146	0xbf7fb017	-0.99878067
147	0xbea15016	-0.31506413
148	0x3f16ae58	0.5885978
149	0x3f3b267b	0.7310559
150	0xbf1f1793	-0.62145346
151	0x3ec6622a	0.38746768
152	0xbecdff20	-0.40233707
153	0xbed666e4	-0.41875374
154	0x402bf97c	2.6871023
155	0xc03b7af1	-2.9293787
156	0x3fd4690b	1.6594557
157	0x3f1ecd74	0.62032247
158	0x3e7a1abc	0.24424261
159	0xbec303c4	-0.3808881
160	0xbfa7ba68	-1.3103762
161	0x3f73babd	0.95206815
162	0x400b53f6	2.1769996
163	0x3f0d8b17	0.5529036
164	0xbfb8dc71	-1.4442273
165	0xbf28f30c	-0.6599586
166	0xbfc0d6ce	-1.5065553
167	0xbf6b719c	-0.9197023
168	0xbec23043	-0.37927446
169	0x3f79b26f	0.97537893
170	0x3f0c6489	0.54840904
171	0x3f6ceeac	0.92551684
172	0x3e752fbf	0.23943995
173	0xbed94bf4	-0.4244076
174	0x3ef5a7e4	0.47979653
175	0xbf58a1e6	-0.8462204
176	0xbfeb3f08	-1.8378611
177	0x401024a0	2.2522354
178	0xc00f58e7	-2.2398012
179	0xbe81b70f	-0.25334975
180	0xbf2b7956	-0.6698202
181	0x3e05f1c8	0.13080513
182	0x4034a7b7	2.8227365
183	0x3f7d2ba6	0.9889473
184	0xbf6944a0	-0.9112034
185	0x3e2d4369	0.16920246
186	0xbf68be8e	-0.90915763
187	0xbe634c9d	-0.22197194
188	0x3f33a243	0.70169467
189	0x3f9a5e0a	1.2059948
190	0x3e1a797f	0.1508541
191	0x3f876e48	1.058053
192	0x3fca58c8	1.5808344
193	0xc030d653	-2.7630813
194	0x3e82375d	0.25432864
195	0x3fa67675	1.30049
196	0x3f6a7688	0.91587114
197	0xbeb986e9	-0.3623574
198	0xbf4ab713	-0.791856
199	0xbeed497b	-0.46345124
200	0x3ea38d01	0.31943515
201	0xbf0c5569	-0.54817826
202	0x3ee45559	0.44596365
203	0x3ff1e564	1.889813
204	0x3e865443	0.26236162
205	0x3fadeaf2	1.3587325
206	0xbfaccb62	-1.3499568
207	0x3eeb857d	0.4600028
208	0x3fa2d4b8	1.2721167
209	0x3f85b3ce	1.0445497
210	0xbf067a80	-0.5253067
211	0xbea4aa5b	-0.3216122
212	0xc0098e92	-2.1493268
213	0x3f11eb4e	0.5699967
214	0xbec2b22c	-0.3802656
215	0x3ed968e4	0.42462838
216	0xbf720df9	-0.9455257
217	0x3fbe88a0	1.4885445
218	0x3dc98659	0.09840078
219	0x3e5e55b4	0.2171238
220	0x3e866ad7	0.26253387
221	0xbfd34c58	-1.6507673
222	0xbf3edcf0	-0.74555874
223	0xbc62f5ff	-0.013852595
224	0xbfbb4d62	-1.463299
225	0xbf6e5e80	-0.93112946
226	0x4021af5b	2.5263278
227	0x3efeaae9	0.4973977
228	0xbfcd4f1c	-1.6039767
229	0x3eadb3b1	0.33926156
230	0xbf5bb7ef	-0.85827535
231	0xbeb827a2	-0.35967737
232	0x3fd292fc	1.6451106
233	0xbfc393dd	-1.5279499
234	0x3f80e3a7	1.0069474
235	0x3eb128e8	0.34601521
236	0x3e34f5a0	0.17671824
237	0xbfccf611	-1.6012594
238	0x3ff94161	1.9473077
239	0x3e8640c4	0.26221287
240	0x3fb7b1e3	1.4351162
241	0x3ec1dd85	0.37864318
242	0xbf06a428	-0.5259423
243	0xbf4a90fd	-0.79127485
244	0xbec38edd	-0.38194934
245	0xbfc2f555	-1.5231119
246	0x3fcdc930	1.6077023
247	0x3f8bb4d6	1.0914562
248	0xbfc757f5	-1.5573717
249	0x3e0b1116	0.13580737
250	0xbff6d780	-1.9284515
251	0x3eea4eff	0.45763394
252	0xbffa972a	-1.9577382
253	0x3e229133	0.15875702
254	0x3f3955c1	0.72396475
255	0x3f3ad148	0.7297559

W_fc f4 [512, 256]
0	0xbf636fe3	-0.888426
1	0xbe448081	-0.19189645
2	0x3e0844f8	0.1330756
3	0xbf92a4d0	-1.1456547
4	0xbedf7694	-0.43645155
5	0xbfd15daf	-1.6356715
6	0xbf163a84	-0.5868304
7	0xbe42576a	-0.18978658
8	0xbf87ff8d	-1.0624863
9	0x3edf6188	0.43629098
10	0xbdf8d77e	-0.12150477
11	0xbd67c68a	-0.056585826
12	0xbd015d2f	-0.031583007
13	0x3f4cdaf7	0.80021614
14	0x3e7be888	0.24600422
15	0x3f0e7071	0.5564032
16	0xbe181d02	-0.14854816
17	0xbe396d23	-0.18108039
18	0x3dd70e87	0.10500818
19	0x3ffbfc58	1.9686384
20	0x3ec651b4	0.3873421
21	0xbe1c7646	-0.15279493
22	0xbe4ec1bd	-0.20191093
23	0x3fd09a15	1.6297022
24	0x3e9312d0	0.2872529
25	0xbe667680	-0.22506142
26	0x3e912da1	0.28355125
27	0xbdb0aef5	-0.086271204
28	0x3f2baec5	0.6706355
29	0x400596ab	2.087321
30	0x3e4fd6e5	0.2029682
31	0x3f540ced	0.82832223
32	0x3e7775c9	0.24166025
33	0xbe5f2a73	-0.21793537
34	0x3ec58a7a	0.38582212
35	0xbefca08b	-0.49341235
36	0xbeda8ba6	-0.42684668
37	0x3fba6deb	1.4564794
38	0xbff08f09	-1.8793651
39	0xbf9a2abc	-1.2044291
40	0x3fd22acb	1.6419309
41	0xbfcb89d5	-1.5901438
42	0xbee57d01	-0.44821933
43	0x3b9752db	0.0046180314
44	0xbf8c2cad	-1.0951134
45	0x3e38d6c0	0.1805067
46	0x3d5e9453	0.05434067
47	0x3efa2a4e	0.488604
48	0xbe87db74	-0.26534617
49	0xbfff95d9	-1.9967605
50	0xbfdfa990	-1.7473621
51	0xbea85dc4	-0.32884037
52	0xbf6308a1	-0.8868504
53	0x3fd3b03c	1.6538157
54	0xbf2d4a76	-0.67691743
55	0xbea05873	-0.3131748
56	0xbf84c66c	-1.0373054
57	0xbe564c91	-0.20927645
58	0x3f30467a	0.6885754
59	0xbdd32da8	-0.103114426
60	0x3fa78ac4	1.3089223
61	0x3fd8d9ba	1.6941445
62	0xbe414eba	-0.18877688
63	0x3f5df30c	0.86698985
64	0xbe50b4fe	-0.20381543
65	0xbe8c461d	-0.27397242
66	0x3f85e6cd	1.046106
67	0x3f0f4c1b	0.559755
68	0xbfd6f161	-1.6792413
69	0x3f7d5259	0.9895378
70	0x3f92f943	1.1482319
71	0x3dcae211	0.099064
72	0xbfa158a8	-1.2605181
73	0x3f07c52b	0.5303523
74	0x3fda6677	1.706252
75	0xbda055f7	-0.078288965
76	0xbf67896c	-0.90444064
77	0x3ef2f1af	0.47450015
78	0x3f17b059	0.5925346
79	0x3f8a9082	1.082535
80	0x3f697a5a	0.9120232
81	0x3efc1dbe	0.4924144
82	0x3fad053a	1.351722
83	0x3f8fd79a	1.1237671
84	0x3cd23ad4	0.025662817
85	0xbf90214a	-1.1260159
86	0xbef43320	-0.47695255
87	0x3f488877	0.7833323
88	0xbf6f565b	-0.93491143
89	0xbdde4b80	-0.10854244
90	0xbedce4cd	-0.4314331
91	0xbf8ffefc	-1.124969
92	0x3fae789f	1.3630561
93	0xbf5d2d3b	-0.8639714
94	0x3e5067eb	0.20352142
95	0xbfffaf4c	-1.9975371
96	0x3f26d69e	0.6517123
97	0xbedcaf83	-0.43102655
98	0xbeac02c1	-0.3359585
99	0x3f74e979	0.9566875
100	0x3d590632	0.052984424
101	0x3f69257d	0.9107283
102	0x3f6d4b16	0.926927
103	0x3df98b0c	0.12184724
104	0x3e085bec	0.13316315
105	0xbec11295	-0.3770949
106	0x3f098684	0.5372088
107	0xbfd0d2c8	-1.6314325
108	0xbf6bb174	-0.92067647
109	0xbeacaa07	-0.3372347
110	0x3f856ea0	1.0424385
111	0x3f49d71c	0.78843856
112	0xbf5183e1	-0.81841856
113	0x3f3234ce	0.69611824
114	0x3f5e8947	0.8692822
115	0x3db7532a	0.08951409
116	0x3f8e6121	1.1123391
117	0xbd993036	-0.07479899
118	0xbfcd9f12	-1.606417
119	0x3fe428f6	1.7825
120	0x3e8224b1	0.25418618
121	0xbf284f71	-0.6574622
122	0xbfbe2dd7	-1.4857739
123	0xbe1a7c1f	-0.15086411
124	0xbec2e0fd	-0.38062277
125	0xbf17b63c	-0.5926244
126	0x3e532b35	0.20621951
127	0xbf6ccbd9	-0.92498547
128	0x3f36f1d4	0.7146275
129	0x3eddbf2c	0.43309915
130	0x3f9ac60b	1.2091688
131	0xbe07247e	-0.13197514
132	0x3f35be31	0.70993334
133	0xbd7d8a4c	-0.06189947
134	0x3f335bab	0.7006175
135	0x40019e88	2.025301
136	0x3fcd74e3	1.6051296
137	0x3f30eb0f	0.6910867
138	0xbfdbf6cb	-1.718469
139	0xbe0905a5	-0.1338106
140	0xbe90a41b	-0.28250203
141	0x3f67f666	0.9061035
142	0x3f765073	0.96216506
143	0xbdfea5db	-0.12433978
144	0xbef2db8b	-0.47433123
145	0xbea6582d	-0.32489148
146	0x3e85244f	0.26004264
147	0xbf5006cb	-0.81260365
148	0xbf1e5e6c	-0.61862826
149	0x3e3c6199	0.18396606
150	0x3f6a714d	0.91579133
151	0x3ed356b7	0.41277096
152	0x3f334c43	0.7003824
153	0x3fa530e1	1.2905542
154	0x3f63ea9b	0.89029855
155	0x3f70ba4d	0.9403427
156	0x3fa968fe	1.3235166
157	0xbf29942b	-0.6624171
158	0x3e6a3d79	0.22875012
159	0xbfb22f35	-1.3920656
160	0x3f2ba13a	0.6704289
161	0x3f41797d	0.75576
162	0xbee70f8e	-0.45129055
163	0x3f7991b5	0.97487956
164	0x3f925550	1.1432285
165	0x3f193b7c	0.5985639
166	0xbe1e6f51	-0.15472151
167	0xbeb4fffd	-0.35351554
168	0xbe523e91	-0.2053168
169	0x3f76a3d5	0.9634374
170	0xbf899ebd	-1.0751568
171	0xbe88c2c6	-0.267111
172	0x3e64c78d	0.22341748
173	0x3fd57ab7	1.6678075
174	0xbf37e67f	-0.71836084
175	0xbf8aa0c0	-1.0830307
176	0xbe41c4d5	-0.18922742
177	0xbd774e2c	-0.060377285
178	0x3e7a7478	0.24458492
179	0x3effe915	0.49982515
180	0xbe3deb7a	-0.18546858
181	0xbf39888d	-0.72473985
182	0xbf2d85dc	-0.6778238
183	0xbf27eb25	-0.6559318
184	0x3dddeccf	0.10836183
185	0xbec3a93d	-0.38215056
186	0xbeac487d	-0.33649054
187	0x3fe0ac89	1.7552654
188	0x3ea130ad	0.3148245
189	0xbf092e01	-0.5358582
190	0xbf931d62	-1.1493342
191	0x3f4a27a5	0.7896674
192	0xbecd2acc	-0.40071714
193	0xbefa0bda	-0.48837167
194	0x3e81617f	0.25269696
195	0xbf1f27ce	-0.6217011
196	0xbed96594	-0.4246031
197	0x3ed2ba1d	0.41157618
198	0xbf346e9d	-0.7048128
199	0x3eb641aa	0.35596973
200	0xbe4dfae7	-0.20115243
201	0xbeca8249	-0.39552525
202	0xbf9b9904	-1.2156072
203	0x3ebccda2	0.36875635
204	0x3f98a532	1.1925414
205	0xbe0aa6e4	-0.13540226
206	0xbda2fb94	-0.07958141
207	0xbe2b3af2	-0.16721705
208	0xbedb3a07	-0.4281771
209	0x3f5996ba	0.84995615
210	0x3f3f17eb	0.7464587
211	0xbfa1b21b	-1.2632478
212	0xbf165629	-0.5872522
213	0xbf87aab3	-1.0598968
214	0x3e63e8f4	0.22256833
215	0x3f466e5b	0.7751214
216	0x3f8e69a7	1.1125993
217	0x3d32e198	0.043672174
218	0xbfc7b4e8	-1.5602083
219	0x3f213e8a	0.6298605
220	0x3f8b211d	1.086948
221	0x3dbb70ae	0.09152351
222	0xbc8d4402	-0.017244343
223	0xbf993ac9	-1.1971065
224	0x3f8d9f65	1.1064268
225	0x3d76feea	0.0603017
226	0xbde0b697	-0.10972326
227	0xbf76a458	-0.9634452
228	0x3ef6979f	0.48162553
229	0xbf3046ad	-0.6885784
230	0xbf8e9c97	-1.1141537
231	0xbf0acbb9	-0.54217106
232	0xbf575e82	-0.8412858
233	0x3fc9d9d8	1.5769606
234	0xbf922824	-1.14185
235	0x3fcec4b2	1.6153777
236	0x3f96751b	1.1754488
237	0x3fb9cf48	1.4516382
238	0xbe2c73a9	-0.16840996
239	0x3f9df7bb	1.2341226
240	0x3e28f37d	0.16499133
241	0x3f765910	0.9622965
242	0x3e56922c	0.20954198
243	0x3f58e573	0.8472511
244	0xbfb7f7f4	-1.4372544
245	0xbf7a3b90	-0.97747135
246	0x3e849f2b	0.25902686
247	0xbff0baee	-1.8807046
248	0xbe0366dc	-0.12832206
249	0x3f1395b6	0.57650316
250	0x3cb28ceb	0.02179571
251	0xbfafd81a	-1.3737824
252	0xbf97d9cf	-1.1863345
253	0xbfb1c225	-1.3887373
254	0xbe9e63f9	-0.30935648
255	0x3ffc8065	1.9726683

W_out f4 [256, 5]
0	0x3f95b515	1.1695887
1	0xbeab2aed	-0.33431187
2	0x3e8e188a	0.27753097
3	0x3b8a4060	0.0042191
4	0x3e82e384	0.25564206
5	0xbf97b165	-1.1851012
6	0xbfa2ca1c	-1.2717929
7	0x3f4b7cad	0.79487115
8	0x3f5b7e50	0.8573961
9	0x3f90765e	1.1286123
10	0x3ebf90d7	0.37415192
11	0xbf9d322e	-1.2280939
12	0xbeb6d246	-0.357073
13	0x3f26cd95	0.65157443
14	0xbf18df0d	-0.5971535
15	0x3e9fcfcb	0.3121322
16	0xbe137baf	-0.1440265
17	0xbec8fd84	-0.39255917
18	0xbfa39194	-1.2778802
19	0x3ffb310a	1.962434
20	0x3f16542d	0.5872219
21	0xbfa78a72	-1.3089125
22	0x3f5825f7	0.8443293
23	0x3f836a05	1.026673
24	0xbfaa71a9	-1.3315936
25	0xbeebf835	-0.46087804
26	0xbe5db174	-0.21649724
27	0x3ea77f0f	0.32714126
28	0xbf9f5c33	-1.2450012
29	0x4020d828	2.5131931
30	0x3f84a7f9	1.0363761
31	0xbe07e4a6	-0.13270816
32	0xbfc97f3b	-1.5741953
33	0xbf4a3b49	-0.7899671
34	0x3dbc80e5	0.09204272
35	0xbeab0006	-0.33398455
36	0xbf1f047b	-0.6211621
37	0x3ff56709	1.9172069
38	0xbf1f9e97	-0.62351364
39	0xbf2e6da2	-0.68136036
40	0x3e94067d	0.289112
41	0xbeacefec	-0.33776796
42	0xbe7f773f	-0.24947833
43	0xbfc34648	-1.5255823
44	0xbfd0cc2a	-1.6312306
45	0x3f46a8c6	0.7760128
46	0x3fd9b7a5	1.7009169
47	0x3f384a4a	0.71988356
48	0xbe37f826	-0.17965755
49	0x3e3d18b3	0.18466453
50	0x3ef3ec83	0.47641382
51	0x3c8e0556	0.017336529
52	0x3f2dfd26	0.679644
53	0x3e2ccab5	0.16874202
54	0xbed9a182	-0.42506033
55	0xbcc0cb65	-0.023534486
56	0xbf669f3f	-0.9008674
57	0x3e08493b	0.13309185
58	0x3ff56747	1.9172143
59	0x3e5b10f0	0.2139318
60	0xbe9e62f1	-0.3093486
61	0xbf15ceef	-0.5851888
62	0xbdbab68d	-0.0911685
63	0x3d4dd71e	0.05025398
64	0x3f03ae2f	0.5143766
65	0xbf9ee138	-1.2412481
66	0xbf6ff9fc	-0.9374082
67	0xbee92352	-0.4553476
68	0x3f2c2ef0	0.6725912
69	0xbf6571ee	-0.8962697
70	0x3f10b1fc	0.5652158
71	0x3f7f882d	0.9981716
72	0x3bd93783	0.006628932
73	0x3efe0c18	0.49618602
74	0x3f15f395	0.585748
75	0xbfa45fe0	-1.2841759
76	0xbe5b1c40	-0.21397495
77	0x3e65aa25	0.22428186
78	0x3efc8bfd	0.49325553
79	0x3f121fbe	0.57079685
80	0x3f924fe3	1.143063
81	0x3fc989be	1.574516
82	0xbe2a1bd9	-0.16612186
83	0x3f77f177	0.9685282
84	0xbf0d72e4	-0.55253434
85	0xbf8db6be	-1.1071393
86	0xbf87e5b7	-1.0616978
87	0x3f69e892	0.913705
88	0x3f9c7955	1.2224528
89	0x3fbc3489	1.4703532
90	0x3eae893b	0.34089074
91	0x3ec6b779	0.38811854
92	0x3f61d8d7	0.88221496
93	0xbf61b628	-0.88168573
94	0xbe5a4ab4	-0.2131756
95	0xbf66323a	-0.8992039
96	0x3f00897d	0.5020979
97	0x3e1cab3f	0.152997
98	0xbe8f963b	-0.28044304
99	0x3fb2a983	1.3957981
100	0x3fa04e10	1.2523823
101	0x3dcd8b6a	0.10036357
102	0x3ebf466a	0.3735841
103	0xbff1df6e	-1.889631
104	0xbf2429d4	-0.64126325
105	0x3f92de40	1.1474075
106	0x3ead1299	0.3380325
107	0x3f8f21cc	1.1182189
108	0x3f98fc4c	1.1951995
109	0xbf1bfde5	-0.6093429
110	0x3f360db3	0.71114653
111	0xbfb7f22a	-1.4370778
112	0x3fccd8fe	1.6003721
113	0x3e6e3265	0.23261411
114	0xbf853822	-1.0407755
115	0x3efc5c08	0.49288964
116	0x3f2a40a9	0.66504914
117	0x3fb72ea8	1.4311113
118	0x3f7aa38f	0.9790582
119	0xbfbd9974	-1.4812455
120	0xbc0dba60	-0.008650392
121	0xbfb91679	-1.4459983
122	0x3f93fe6c	1.1562018
123	0x3da847f5	0.0821685
124	0xbf212e64	-0.6296141
125	0x3f9284d9	1.1446792
126	0xbf861317	-1.0474576
127	0x3eb3ac75	0.35092512
128	0xbe3cba2f	-0.18430398
129	0x3fd3301b	1.6499056
130	0xbef85fe4	-0.4851066
131	0xbed105d0	-0.40824747
132	0xbfc1f7ca	-1.5153744
133	0x3fc52e64	1.5404782
134	0x3dd9a211	0.10626615
135	0xbf942c59	-1.1576034
136	0xbf593fdc	-0.84863067
137	0xbf37b286	-0.7175678
138	0xc048aef5	-3.1356785
139	0x40f25d14	7.573862
140	0x3eecc004	0.46240246
141	0xbe9da5e0	-0.30790615
142	0x3fc0f3bf	1.5074385
143	0xbff36fb4	-1.9018464
144	0x3e8dd004	0.27697766
145	0xbfa140ad	-1.2597862
146	0xbfc1cdc7	-1.5140923
147	0xbe71a1fa	-0.23596945
148	0xbfd35887	-1.6511391
149	0x3f35d16d	0.71022683
150	0x3e5c24b7	0.2149838
151	0x3e15c442	0.14625648
152	0xbfacf04e	-1.3510835
153	0xbe09eca9	-0.13469185
154	0x3ff302b8	1.8985205
155	0x3fbc7646	1.4723594
156	0xbfd91242	-1.6958697
157	0x3fb4c3a4	1.4122205
158	0xc00bf7ae	-2.1869922
159	0x3f567681	0.8377457
160	0xbe5df950	-0.21677136
161	0xbf5cbea2	-0.8622838
162	0x3e99d9b2	0.300489
163	0xbe8970e3	-0.26843938
164	0x400d4218	2.207159
165	0x3d04ebb5	0.03245135
166	0xbd24dd18	-0.040249914
167	0x3d8864a6	0.06659822
168	0xbd83855a	-0.06421919
169	0xbe7f865a	-0.24953595
170	0xbecadb6c	-0.3962053
171	0x3faea110	1.3642902
172	0x3e98cf42	0.29845625
173	0x3dc25057	0.0948798
174	0xc01e7950	-2.4761543
175	0xbf163378	-0.58672285
176	0xbe6ac244	-0.22925669
177	0x3f8334ce	1.025049
178	0xbf1a9105	-0.6037753
179	0x3fcea708	1.6144724
180	0xbfaa21c4	-1.3291554
181	0xbfcd0274	-1.6016374
182	0x3e31e6c6	0.1737319
183	0xbf9d04a1	-1.2267038
184	0xbedffd11	-0.43747762
185	0x3ed1ac69	0.4095185
186	0xbec45e13	-0.38353023
187	0x3fbdc4f6	1.4825733
188	0x3e60f510	0.21968484
189	0xbfb1295a	-1.3840744
190	0xbdcdfe01	-0.10058213
191	0xbf4329a2	-0.762354
192	0xbcbfc102	-0.023407463
193	0x3ff118ee	1.8835733
194	0x3efe168e	0.49626583
195	0xbed46a5a	-0.4148739
196	0xbf6e23ed	-0.9302357
197	0x40567824	3.3510828
198	0xbf9bdd74	-1.2176957
199	0xbfabf052	-1.3432715
200	0x3eb39102	0.3507157
201	0xbfa85cbd	-1.3153301
202	0xbefd68d5	-0.49494043
203	0x3d354272	0.04425282
204	0xbca804d1	-0.02051011
205	0x3f0a64e8	0.5406022
206	0xbd6c0dd6	-0.057630382
207	0x3e33b5e2	0.17549852
208	0x3e0ac5ef	0.13552068
209	0xbc863082	-0.016380552
210	0x3f998696	1.1994197
211	0x3eb440fa	0.35205823
212	0x3de30df3	0.11086645
213	0x3f063380	0.5242233
214	0xbfd4b05a	-1.6616318
215	0xbf0087b8	-0.5020709
216	0xbc72cfd8	-0.014820062
217	0xbe7a1d4a	-0.24425235
218	0xbdf0e9a4	-0.117633134
219	0x3f2b1439	0.6682773
220	0x3efc5fa1	0.4929171
221	0xbfcd7318	-1.6050749
222	0x3eb9d35c	0.36294067
223	0xc0149869	-2.3218024
224	0xbceb41d1	-0.028717907
225	0x3e97fb9c	0.2968415
226	0x3eac3ee1	0.33641723
227	0x3f42ace1	0.7604504
228	0xbe82f3c7	-0.25576612
229	0xbf2d0101	-0.67579657
230	0x3f96ecd9	1.179103
231	0xbea9d8ac	-0.3317312
232	0x3e850d2b	0.2598661
233	0x3ec69c14	0.38790953
234	0x3f6a5505	0.9153598
235	0xbf98cbfe	-1.1937253
236	0x3f8ce37b	1.1006922
237	0xbe9e06ba	-0.30864507
238	0xbfc5d789	-1.5456401
239	0xbfb2ac10	-1.3958759
240	0x3e301026	0.1719366
241	0x3f083d92	0.5321895
242	0x3f935854	1.1511331
243	0xbf8c564a	-1.0963833
244	0xbf82c8f9	-1.0217582
245	0x3eb5efc0	0.35534477
246	0x3fd6ed32	1.6791136
247	0x3f181b74	0.5941689
248	0x3f26a809	0.6510015
249	0x3fd45d32	1.6590941
250	0x3f82454c	1.0177398
251	0x400e5e32	2.2244992
252	0x3f0a6333	0.54057616
253	0xbe3d9a6d	-0.1851594
254	0xbe900ab0	-0.28133154
255	0x3e80ffdb	0.25195202

W_conv2 f4 [3, 3, 16, 32]
0	0xbf32e11d	-0.69874746
1	0x3fde3b0f	1.7361773
2	0xbe28da76	-0.16489586
3	0x3e8209ab	0.25398
4	0xbdfe3899	-0.12413139
5	0x3fdee97b	1.7415003
6	0xbc80e5a0	-0.015734494
7	0xc0051870	-2.0796165
8	0x3fd4ee8f	1.6635302
9	0xbf54047c	-0.8281934
10	0xbeec362a	-0.46135074
11	0xbdcd10c6	-0.10012965
12	0x3f6ec68c	0.9327171
13	0x3f8bb63b	1.0914987
14	0x3f948888	1.1604166
15	0x3f7fa773	0.9986488
16	0x3ee9fa96	0.45698994
17	0x3ea09757	0.31365463
18	0xbeacf20a	-0.3377841
19	0x3ea0ce01	0.31407169
20	0xbf65d31c	-0.8977525
21	0x3f2fd870	0.6868963
22	0xbf9ae1ea	-1.2100194
23	0xbd61d2d0	-0.055132687
24	0xbf8b9940	-1.0906143
25	0xbe68161a	-0.22664681
26	0x3e7adbe1	0.2449794
27	0x3f9d359a	1.2281983
28	0xbfc1a480	-1.5128326
29	0x3eced80f	0.40399215
30	0xbf4a9ef6	-0.79148805
31	0x3ef74899	0.48297575
32	0xbfb6d2e1	-1.4283105
33	0x3f0a344c	0.5398605
34	0x3e7f3f86	0.24926576
35	0xbe773391	-0.24140765
36	0x3e65e0d0	0.2244904
37	0x3d3746b5	0.044745166
38	0x3eec44e3	0.46146306
39	0x3d2f2f63	0.0427698
40	0xbed659a8	-0.41865277
41	0xbfa2cb06	-1.2718208
42	0x40010fe1	2.0165942
43	0x3e92e199	0.28687742
44	0xbd8f37ee	-0.069930896
45	0xbf9a716c	-1.2065864
46	0xbf0f5fa0	-0.5600529
47	0xc02bdddd	-2.6854165
48	0x3f4cdf2f	0.8002805
49	0xbed18253	-0.40919742
50	0x3eecffa7	0.46288797
51	0xbfc2b151	-1.5210363
52	0x3f2dcb35	0.67888194
53	0x3f5a0449	0.8516279
54	0xbf3231bf	-0.69607157
55	0xc0037f48	-2.0546436
56	0x3e121758	0.14266717
57	0xbffac179	-1.9590293
58	0xbfa66a20	-1.3001137
59	0x3f31f747	0.6951794
60	0x3f9a21fd	1.2041622
61	0x3d90bbe5	0.07067088
62	0xbf8f91f0	-1.1216412
63	0x3f37f632	0.7186004
64	0x3e6334f2	0.22188166
65	0xbfd6d8ed	-1.678495
66	0xbfcfe347	-1.6241235
67	0xbfb3c815	-1.4045435
68	0x3fa9011d	1.3203465
69	0x3ecadaa9	0.3961995
70	0x3efce999	0.4939697
71	0x3ec266cc	0.37969053
72	0x3e6bda17	0.23032413
73	0xbf80c3ef	-1.0059794
74	0x3d265b7f	0.0406146
75	0x3f0a97d7	0.5413794
76	0x3e813290	0.2523389
77	0xbfbb02ff	-1.4610289
78	0xbe8e8287	-0.2783396
79	0xbf4e355c	-0.8055017
80	0xbf841dda	-1.032161
81	0xbf3bb8a3	-0.7332861
82	0x3f78caf5	0.9718469
83	0xbf00b263	-0.50272197
84	0xbe96490e	-0.2935261
85	0xbf527a86	-0.82218206
86	0x4006d7fd	2.1069329
87	0xbf6293f1	-0.8850699
88	0x3fb4bf84	1.4120946
89	0x3ee5fc00	0.44918823
90	0x3d5560a1	0.052094106
91	0xbf9d9a09	-1.2312633
92	0x3fdc4be3	1.7210659
93	0xc0122055	-2.2832234
94	0xbdc89808	-0.09794623
95	0xc04e9619	-3.2279112
96	0xbe1f6a38	-0.15567863
97	0x3f6b7087	0.9196858
98	0xbebb10f2	-0.36536366
99	0xc004f6ca	-2.0775628
100	0xbed3ecb3	-0.41391525
101	0x3f597a05	0.8495181
102	0x3f1dafaa	0.6159617
103	0x3f47e025	0.7807639
104	0x3f324a67	0.6964478
105	0x3df0dd48	0.11760956
106	0x3f40c6e5	0.7530349
107	0x3f6d0a4c	0.92593837
108	0x3ed7b598	0.42130733
109	0xbe57a77c	-0.21059984
110	0x3fd8e053	1.6943458
111	0xbf90cb6e	-1.1312082
112	0x3eafd984	0.3434564
113	0xbe4afe3c	-0.19823545
114	0xbf4005a8	-0.7500863
115	0xbfa52d71	-1.2904493
116	0xbf9c4a6b	-1.221021
117	0xbf86f3f2	-1.0543196
118	0x3e749212	0.23883846
119	0xbf35b2cf	-0.70975965
120	0x3fc86941	1.5657121
121	0x3d46bb0f	0.048518237
122	0x3f2813bc	0.6565511
123	0xbff2e880	-1.8977203
124	0xbf806d0a	-1.0033276
125	0xbd245d58	-0.040128082
126	0xbf8b469b	-1.0880922
127	0x3e200531	0.1562698
128	0xbfb81ccd	-1.4383789
129	0x3f05428a	0.52054656
130	0xbec3a2fb	-0.38210282
131	0x3f7a6cdc	0.97822356
132	0xbe3fe6e0	-0.18740416
133	0xbebc63aa	-0.36794788
134	0xbfe13376	-1.759383
135	0x3f55edb1	0.83565813
136	0x3fb5d307	1.4205025
137	0xbd3e65c1	-0.04648376
138	0xbfb95d00	-1.4481506
139	0xbd51faa3	-0.051264416
140	0x3e2e2bb1	0.17008854
141	0x3f6c6897	0.9234709
142	0xbf98ebd9	-1.1946975
143	0xbdbccb26	-0.09218435
144	0xbd561770	-0.052268445
145	0xbd1a5b0e	-0.037684493
146	0xbeb8f9f5	-0.36128202
147	0x3e524f4b	0.2053806
148	0x3f90f012	1.1323264
149	0x3f5ef43d	0.8709143
150	0xbf6572f8	-0.89628553
151	0xbfdadec4	-1.7099233
152	0xbf1a1df1	-0.60201937
153	0xbf8799b4	-1.0593781
154	0x3f898d65	1.0746275
155	0xbf2d385c	-0.6766412
156	0x3fb74a74	1.4319596
157	0x3c75d409	0.015004166
158	0xbfa04334	-1.2520509
159	0x3f28389e	0.6571139
160	0x3e346cca	0.17619625
161	0xbf204ef5	-0.6262048
162	0x3f08d59a	0.5345093
163	0x3fea3278	1.8296652
164	0xbec3b5c5	-0.38224617
165	0xbf3fca1c	-0.7491777
166	0x3e8f9cfd	0.2804946
167	0x3f8e3904	1.111115
168	0x3ed3cf6b	0.41369185
169	0xbf285c03	-0.657654
170	0xbeee65f2	-0.46562153
171	0xbeffc689	-0.49956158
172	0xbfecdb4d	-1.8504425
173	0xbefed1ba	-0.49769384
174	0xbfca663d	-1.5812451
175	0x3e2039ba	0.15647021
176	0x3c550810	0.0130024105
177	0xbf911080	-1.133316
178	0xbf37676b	-0.7164218
179	0x3ea7a604	0.32743847
180	0xbffc9311	-1.9732381
181	0xbf913026	-1.1342819
182	0xbea1df45	-0.31615654
183	0xbe70c944	-0.23514277
184	0xbfb03efb	-1.376922
185	0xbfd92fff	-1.6967772
186	0x3f45d69c	0.7728059
187	0x3f862067	1.0478638
188	0x3fe835b7	1.8141392
189	0xbf103455	-0.5632985
190	0x3f7357eb	0.9505603
191	0x3ff6634d	1.9249054
192	0x3f0c354b	0.5476882
193	0x3ec2b158	0.38025928
194	0xbf9a3f67	-1.2050599
195	0x3eaa3bc5	0.33248726
196	0xbff0fb0e	-1.8826616
197	0x3dea6d84	0.1144667
198	0xbf4d8ddb	-0.8029458
199	0x3e6bbebe	0.23021981
200	0xbf0f4531	-0.5596495
201	0x3f839469	1.0279666
202	0x3eed3328	0.46328092
203	0x3f4564de	0.77107036
204	0xbf9ba1f8	-1.2158804
205	0xbf899cd9	-1.0750991
206	0xbf4c85f5	-0.798919
207	0xbff34532	-1.9005492
208	0xbf48a976	-0.78383577
209	0x3f6bbcb4	0.92084813
210	0x3fc62210	1.5479145
211	0x3f5e2898	0.8678069
212	0x40125f4a	2.287066
213	0xbecbe60e	-0.39823955
214	0x3e555f28	0.2083708
215	0xbf8db010	-1.1069355
216	0x3e99a951	0.3001199
217	0x4010b6bb	2.261153
218	0xbf316cf3	-0.6930687
219	0x401db025	2.463876
220	0x3f9800d3	1.1875252
221	0xbe83d5bb	-0.25749
222	0x3f9f0edb	1.2426409
223	0x3f32c0c2	0.69825375
224	0xbfb8eb28	-1.4446764
225	0x3fe89dee	1.8173196
226	0xbe00cc5c	-0.12577957
227	0x3efd04ba	0.4941767
228	0x4008c150	2.1367989
229	0xbd6d33ef	-0.057910856
230	0x3e29d3a3	0.16584639
231	0xbdba0fab	-0.0908502
232	0x3e760385	0.2402478
233	0xbff7e156	-1.9365642
234	0xbf23e44d	-0.64020234
235	0x3f96f971	1.1794873
236	0x3e68fa2f	0.22751687
237	0x4001ba4b	2.0269954
238	0xbdbeb28d	-0.093113996
239	0xbface07a	-1.3506005
240	0x3f6f91b9	0.9358173
241	0x3f88ba94	1.0681939
242	0xbed42041	-0.41430858
243	0xbea3ab90	-0.3196683
244	0x3fd3321a	1.6499665
245	0x3ce2fa93	0.027707374
246	0x3d7adf95	0.06124838
247	0x3f957267	1.1675538
248	0x3f51da19	0.81973416
249	0xbd4d00c6	-0.050049566
250	0x3d42322a	0.04741112
251	0x3ea6ae66	0.3255493
252	0xbe91430a	-0.2837146
253	0xbef48a2e	-0.47761673
254	0x3e4e0119	0.20117606
255	0xbff0760b	-1.8786024

b_out f4 [5]
0	0x3dcf32ad	0.101170875
1	0x3dcae516	0.09906976
2	0x3dd18d10	0.10231984
3	0x3dcd428d	0.10022459
4	0x3dd4b42c	0.103859276

b_fc f4 [256]
0	0x3dc6993e	0.096971974
1	0x3dd6a6a9	0.10481007
2	0x3dca1d4b	0.098688684
3	0x3dd0e794	0.1020042
4	0x3ddb7585	0.107157744
5	0x3dca60dd	0.098817565
6	0x3dbd671a	0.09248181
7	0x3dc794db	0.09745189
8	0x3dc3f9a1	0.09569097
9	0x3dc5b72c	0.09654078
10	0x3dce67e7	0.100784115
11	0x3dc32a8b	0.09529599
12	0x3dca3769	0.0987385
13	0x3dc53068	0.096283734
14	0x3dc600c7	0.09668117
15	0x3dcaa26a	0.09894259
16	0x3db850be	0.08999775
17	0x3dc34e59	0.09536428
18	0x3dc8ef67	0.098112874
19	0x3dc726bd	0.097241856
20	0x3dd6a606	0.10480885
21	0x3dd262c4	0.10272744
22	0x3dcf3d08	0.10119063
23	0x3dd0fe0e	0.10204707
24	0x3dc62db0	0.09676683
25	0x3dc318ff	0.09526252
26	0x3dd031fa	0.10165782
27	0x3dd8c9ae	0.10585342
28	0x3dc9c999	0.09852905
29	0x3dcd2e42	0.100185886
30	0x3dd40fa4	0.10354546
31	0x3dd36575	0.10322086
32	0x3dcbf2b4	0.09958401
33	0x3dc8ea47	0.0981031
34	0x3dc27c8b	0.09496411
35	0x3dc8b6ea	0.09800513
36	0x3dc89756	0.0979449
37	0x3dd4293c	0.10359427
38	0x3dd1ccc5	0.10244135
39	0x3ddb6c5e	0.10714029
40	0x3dcf2c31	0.10115851
41	0x3dc4291a	0.09578152
42	0x3dcc0b37	0.099630766
43	0x3dc82882	0.09773351
44	0x3dc728cb	0.097245775
45	0x3dcd48f9	0.10023684
46	0x3dcb8dbb	0.09939142
47	0x3dc5683c	0.09639022
48	0x3dd689ff	0.104755394
49	0x3dc389ce	0.095477685
50	0x3dbc6452	0.09198822
51	0x3dba5201	0.09097672
52	0x3dbf0170	0.09326446
53	0x3dccb94b	0.09996279
54	0x3dc783d6	0.097419426
55	0x3dd02ac2	0.101644054
56	0x3dbd3560	0.09238696
57	0x3dc14898	0.09437674
58	0x3dd000cd	0.10156403
59	0x3dd27327	0.1027587
60	0x3dc9c1ea	0.09851439
61	0x3dc205cd	0.09473763
62	0x3dbcdee3	0.092222
63	0x3dc7aa21	0.097492464
64	0x3dc8bf27	0.098020844
65	0x3dc3ba8d	0.09557066
66	0x3dbefea3	0.09325912
67	0x3dbbd7ed	0.09172044
68	0x3dc4e365	0.096136846
69	0x3dc9dccb	0.09856566
70	0x3dbf9e1e	0.0935633
71	0x3dc61d08	0.09673506
72	0x3dc4262e	0.09577595
73	0x3dce017c	0.10058877
74	0x3dcdae4d	0.10043011
75	0x3dbfc823	0.09364345
76	0x3dc70f17	0.09719675
77	0x3dc95e73	0.09832468
78	0x3da39244	0.07986882
79	0x3dc7325a	0.09726401
80	0x3dbb23b4	0.09137669
81	0x3dc693ca	0.09696157
82	0x3dc14d39	0.09438557
83	0x3dc8524a	0.097813204
84	0x3dcdb5f6	0.10044472
85	0x3db0b769	0.08628733
86	0x3dd3762f	0.10325276
87	0x3dcd9140	0.1003747
88	0x3dc48013	0.09594741
89	0x3dcf356d	0.10117612
90	0x3dc8cf33	0.09805145
91	0x3ddc33ed	0.107520916
92	0x3dbeca9f	0.09315991
93	0x3dc81c51	0.09771026
94	0x3dc9acf6	0.09847443
95	0x3dc89635	0.09794275
96	0x3dc4fee4	0.09618929
97	0x3dc11514	0.094278485
98	0x3db1f6dd	0.086896636
99	0x3dc8e53d	0.09809349
100	0x3dc83b51	0.09776939
101	0x3dccbffd	0.09997556
102	0x3dc0f746	0.09422164
103	0x3dc7cae3	0.097554944
104	0x3dbdb05c	0.092621535
105	0x3db47e8a	0.08813198
106	0x3dca71e3	0.098850034
107	0x3dc5e2a2	0.096623674
108	0x3dcb8521	0.09937502
109	0x3dc02ac8	0.0938316
110	0x3db2c47f	0.08728885
111	0x3dc97bc0	0.098380566
112	0x3dc904b1	0.09815348
113	0x3dd1998b	0.10234364
114	0x3dccb1c2	0.09994842
115	0x3dcd0d90	0.100123525
116	0x3dc57142	0.09640743
117	0x3dcd9e4b	0.100399576
118	0x3dc5b84a	0.09654291
119	0x3dd0c81b	0.10194417
120	0x3dcf1fcc	0.10113487
121	0x3dcacd8a	0.09902485
122	0x3dc9db5b	0.09856292
123	0x3dc64d7a	0.09682746
124	0x3dc68cf5	0.09694854
125	0x3dc0b0c0	0.094087124
126	0x3dbb61ac	0.09149489
127	0x3db79835	0.08964578
128	0x3dd2fa35	0.103016295
129	0x3dcfb9da	0.1014287
130	0x3dd019a1	0.10161138
131	0x3dc4cac1	0.09608985
132	0x3dc3b37f	0.095557205
133	0x3dcb099d	0.09913943
134	0x3dc14518	0.09437007
135	0x3db4edb1	0.088343985
136	0x3dc8d03c	0.098053426
137	0x3dc87b07	0.097890906
138	0x3dbfa53e	0.09357689
139	0x3dc5beb0	0.096555114
140	0x3dc33eb4	0.09533444
141	0x3dcca969	0.0999325
142	0x3dc6f8e5	0.097154416
143	0x3dbccd21	0.09218813
144	0x3dcebae3	0.100942396
145	0x3dd0ce50	0.10195601
146	0x3dcd57af	0.1002649
147	0x3dcd67a9	0.10029537
148	0x3db4a860	0.088211775
149	0x3dc5acd8	0.09652108
150	0x3dcac009	0.09899909
151	0x3dc16736	0.09443514
152	0x3dd30e68	0.10305482
153	0x3dc6d0bb	0.09707781
154	0x3dc8c7c4	0.09803727
155	0x3dd2390d	0.10264788
156	0x3dc5eaf1	0.09663952
157	0x3dc05554	0.09391275
158	0x3dd49283	0.103795074
159	0x3dc8310b	0.09774979
160	0x3dc14c33	0.09438362
161	0x3dc4780c	0.095932096
162	0x3dd75aa5	0.10515336
163	0x3dca40b0	0.098756194
164	0x3db3a098	0.08770865
165	0x3dc59ac5	0.096486606
166	0x3dd5f1b2	0.1044649
167	0x3dcb4766	0.099257275
168	0x3dbc8d42	0.0920663
169	0x3dc5c71a	0.09657116
170	0x3dc34180	0.095339775
171	0x3dce99e8	0.10087949
172	0x3dcea3e0	0.100898504
173	0x3dc3a3f5	0.09552757
174	0x3dbcc596	0.09217374
175	0x3dc6631a	0.09686871
176	0x3dc1f1cb	0.094699465
177	0x3dcb1de1	0.09917808
178	0x3dcb1fae	0.09918152
179	0x3dc71c7b	0.09722229
180	0x3dc10a76	0.094258234
181	0x3dc9f88a	0.09861858
182	0x3dca6fa1	0.09884573
183	0x3dd23b14	0.102651745
184	0x3dc5fb6d	0.09667096
185	0x3dc3de50	0.09563887
186	0x3dc9c263	0.098515294
187	0x3dcb2774	0.099196345
188	0x3dbd47cc	0.0924221
189	0x3dcd91da	0.100375846
190	0x3dd10045	0.102051295
191	0x3dbed0b2	0.09317149
192	0x3dd0bb6c	0.10191998
193	0x3dcabf7a	0.098998025
194	0x3dc21c9f	0.09478115
195	0x3dc629a3	0.0967591
196	0x3dbc530f	0.0919553
197	0x3dc40e43	0.09573033
198	0x3dcd72d6	0.10031669
199	0x3dc89d7d	0.097956635
200	0x3dcc10c0	0.09964132
201	0x3dd27a85	0.10277275
202	0x3dc23ec8	0.09484631
203	0x3dc8f899	0.09813041
204	0x3da8fba8	0.082511246
205	0x3dc72ee6	0.09725742
206	0x3dcf30e8	0.1011675
207	0x3dbeb14a	0.09311159
208	0x3dcecb7d	0.10097406
209	0x3dcc61cc	0.09979591
210	0x3dcbffbc	0.09960887
211	0x3dd247f4	0.1026763
212	0x3dbf4c55	0.09340731
213	0x3dc4dcbb	0.096124135
214	0x3dbe25b7	0.09284537
215	0x3ddb7fa8	0.10717708
216	0x3dc9e4dd	0.09858105
217	0x3dd0f1c8	0.10202366
218	0x3dca38b6	0.09874098
219	0x3dc5ad3e	0.09652184
220	0x3dbfa31e	0.09357284
221	0x3dc9ac9d	0.098473765
222	0x3dbf0883	0.09327795
223	0x3dc1713a	0.094454244
224	0x3dc2b738	0.095076025
225	0x3dc36cba	0.09542222
226	0x3dcc7ef9	0.099851556
227	0x3dbbb8e4	0.091661245
228	0x3dcc6fe5	0.0998228
229	0x3dc3232f	0.09528195
230	0x3dc982ac	0.09839377
231	0x3dd99f96	0.10626142
232	0x3dc3fb4a	0.09569414
233	0x3dc67c3f	0.09691667
234	0x3dc57eb4	0.09643307
235	0x3dd39038	0.10330242
236	0x3dc96d0b	0.098352514
237	0x3db94d5d	0.09047959
238	0x3dc90b90	0.098166585
239	0x3dcc15b2	0.099650756
240	0x3dc1b20d	0.094577886
241	0x3dcd2b20	0.10017991
242	0x3dd268a7	0.10273867
243	0x3dc9a101	0.09845162
244	0x3dc79a71	0.09746254
245	0x3dc783a3	0.097419046
246	0x3dc8ad40	0.0979867
247	0x3dc22d05	0.09481243
248	0x3dcc2c46	0.09969382
249	0x3dc8d93a	0.09807058
250	0x3dd2158a	0.102580145
251	0x3dc5a44b	0.09650477
252	0x3dc9e7e1	0.098586805
253	0x3dc6f518	0.09714717
254	0x3dd2d4f7	0.10294526
255	0x3dc135b8	0.09434074

b_conv2 f4 [32]
0	0x3dcccccd	0.1
1	0x3dcccccd	0.1
2	0x3dcccccd	0.1
3	0x3dcccccd	0.1
4	0x3dcccccd	0.1
5	0x3dcccccd	0.1
6	0x3dcccccd	0.1
7	0x3dcccccd	0.1
8	0x3dcccccd	0.1
9	0x3dcccccd	0.1
10	0x3dcccccd	0.1
11	0x3dcccccd	0.1
12	0x3dcccccd	0.1
13	0x3dcccccd	0.1
14	0x3dcccccd	0.1
15	0x3dcccccd	0.1
16	0x3dcccccd	0.1
17	0x3dcccccd	0.1
18	0x3dcccccd	0.1
19	0x3dcccccd	0.1
20	0x3dcccccd	0.1
21	0x3dcccccd	0.1
22	0x3dcccccd	0.1
23	0x3dcccccd	0.1
24	0x3dcccccd	0.1
25	0x3dcccccd	0.1
26	0x3dcccccd	0.1
27	0x3dcccccd	0.1
28	0x3dcccccd	0.1
29	0x3dcccccd	0.1
30	0x3dcccccd	0.1
31	0x3dcccccd	0.1

b_conv1 f4 [16]
0	0x3dcccccd	0.1
1	0x3dcccccd	0.1
2	0x3dcccccd	0.1
3	0x3dcccccd	0.1
4	0x3dcccccd	0.1
5	0x3dcccccd	0.1
6	0x3dcccccd	0.1
7	0x3dcccccd	0.1
8	0x3dcccccd	0.1
9	0x3dcccccd	0.1
10	0x3dcccccd	0.1
11	0x3dcccccd	0.1
12	0x3dcccccd	0.1
13	0x3dcccccd	0.1
14	0x3dcccccd	0.1
15	0x3dcccccd	0.1
