Models/Tensorflow/model_7x7_diamond.npz (npz, 552614 bytes, 8 tensors)

W_conv1 f4 [3, 3, 3, 16]
0	0xbe9d6e44	-0.30748188
1	0x3e4ea541	0.20180227
2	0x3f042b0f	0.516282
3	0x3ebed435	0.37271276
4	0xbfa35a2f	-1.2761897
5	0xbe80492c	-0.25055826
6	0x3f7d8441	0.9902993
7	0x3e84ceb2	0.25938946
8	0x3fbb9f38	1.4657965
9	0xbf9ce9dc	-1.2258868
10	0xbfa2fd38	-1.2733526
11	0xbfc5b5ac	-1.5446067
12	0x3f6ec3db	0.932676
13	0xbed403e9	-0.41409233
14	0xbd8fcaef	-0.070211284
15	0xbee3703e	-0.44421571
16	0xbfab79b1	-1.3396512
17	0x3f01492c	0.50502276
18	0xbe945700	-0.28972626
19	0x3b8d4fbc	0.0043124836
20	0x3f103539	0.5633121
21	0x3fcff7ee	1.6247537
22	0x3e3bf553	0.18355303
23	0xbd9fcf47	-0.07803207
24	0x3fdd905e	1.7309682
25	0x3f9f4a03	1.2444462
26	0xbfeb3722	-1.83762
27	0xbfeee50a	-1.8663647
28	0xbf5fe921	-0.874651
29	0x3fd36f1c	1.6518283
30	0xbed5ddc8	-0.41770768
31	0x3f49be62	0.78806126
32	0x3f25c34d	0.6475113
33	0x3f76125e	0.96121776
34	0x3fd64059	1.6738387
35	0x3fe4d3fb	1.7877191
36	0x3ee5d309	0.4488757
37	0xbf386d78	-0.72042036
38	0xbfbe2d85	-1.4857641
39	0x3f89788b	1.0739912
40	0xbf8cfc53	-1.1014503
41	0x3ff3c467	1.9044312
42	0xbf3c2857	-0.73499054
43	0xbf493a9d	-0.7860506
44	0x3e8651a4	0.26234162
45	0x3d899e32	0.067196265
46	0x3f83c746	1.0295188
47	0x3fa93f7f	1.3222502
48	0x3ff8be68	1.9433107
49	0xbebf90f7	-0.37415287
50	0xbee826f6	-0.45342225
51	0xbf699875	-0.91248256
52	0x3d75e47b	0.06003235
53	0xbb7d58ff	-0.0038657782
54	0x3d653686	0.0559602
55	0x3dd894a3	0.10575225
56	0xbeeacb26	-0.45858115
57	0xbe899f0e	-0.26879162
58	0x3f9a9369	1.2076236
59	0xbfbd61bc	-1.4795451
60	0xbf330718	-0.699327
61	0xbe965140	-0.29358864
62	0xbfd475c3	-1.6598438
63	0xbff228f9	-1.8918754
64	0xbfe1f6da	-1.7653458
65	0x3f81e035	1.0146548
66	0x3fdfc1c9	1.7481014
67	0x3ec3ead8	0.3826511
68	0x3f9d5549	1.2291652
69	0xbf579fd3	-0.8422825
70	0xbefe488f	-0.49664733
71	0xbe9555a9	-0.29166916
72	0x3fd890a3	1.691914
73	0x3e64905b	0.22320692
74	0x3f4fb6ee	0.81138504
75	0x3f03ee50	0.5153551
76	0x4004350d	2.065738
77	0xbf8d4383	-1.1036228
78	0xbf1b5ea3	-0.6069128
79	0xbf9ff504	-1.2496648
80	0xbe4a10e2	-0.19733003
81	0xbfaca905	-1.3489081
82	0x3f7a7d03	0.97847
83	0x3d562de3	0.052289855
84	0x3f836322	1.0264628
85	0xbf8fb882	-1.1228182
86	0x3fb71c4f	1.4305514
87	0xbef0fee3	-0.47069463
88	0xbf127185	-0.5720447
89	0xbf895fda	-1.0732377
90	0xbf086929	-0.5328546
91	0xbeae8ef2	-0.34093434
92	0x3dc3c505	0.09559063
93	0x3e74f6ff	0.23922347
94	0xbe91dd05	-0.28488937
95	0x3ef97d0b	0.48728213
96	0xbf5b4c22	-0.85663044
97	0xbe5fbdcd	-0.21849747
98	0x3f37b39c	0.7175844
99	0x3de4dded	0.111751415
100	0xbe9f7c88	-0.31149697
101	0xbf906940	-1.128212
102	0x3d8b5248	0.06802803
103	0xbfad0e58	-1.3520002
104	0xbf791594	-0.9729855
105	0x3f10e4f2	0.5659934
106	0x3eabff6f	0.33593318
107	0xbf7324e7	-0.94978184
108	0xbfd04da2	-1.6273692
109	0x3fbca4b5	1.4737765
110	0xbf9e5b7e	-1.2371671
111	0xbf809d72	-1.0048048
112	0x3ebe7584	0.37199032
113	0x3f832f27	1.0248765
114	0x3fc9316f	1.5718211
115	0xbf91d837	-1.1394109
116	0x3fc375eb	1.5270361
117	0x3db23109	0.08700759
118	0x3fb14105	1.3847967
119	0x3f8c732c	1.0972648
120	0x3fd9327b	1.696853
121	0x3e17cfd1	0.1482537
122	0xbf18aeff	-0.5964202
123	0xbf8a551f	-1.0807227
124	0x3f8ad08d	1.0844895
125	0x3f3663b4	0.71245885
126	0x3dcf3740	0.1011796
127	0xbe69263b	-0.2276849
128	0xbf7d878e	-0.99034965
129	0xbf26fed4	-0.65232587
130	0x3f29ba9a	0.66300356
131	0xbee055ca	-0.43815452
132	0x3e1876a7	0.14889012
133	0x3c907f27	0.017638756
134	0x3df8f0bc	0.121552914
135	0x3e4a07af	0.19729494
136	0xbe38a5a9	-0.18031944
137	0x3f8a7a34	1.0818543
138	0x3fd30d51	1.6488439
139	0x3f81bf0b	1.0136427
140	0xbf9d6b15	-1.2298304
141	0xbf6fa448	-0.9361005
142	0xbe030219	-0.12793769
143	0xbffac2f3	-1.9590744
144	0x3e826137	0.25464794
145	0xbf0f3447	-0.55939144
146	0xbf960de0	-1.1722984
147	0xbf837346	-1.0269554
148	0x3f0964f9	0.536697
149	0x3f26c56a	0.6514498
150	0xbf398c65	-0.7247985
151	0x3f4f2917	0.80922073
152	0x3e9e73ca	0.30947715
153	0x3ea4f9c0	0.32221794
154	0x3efea2cf	0.49733588
155	0xbfed95e6	-1.856137
156	0xbe783b25	-0.24241312
157	0x3f95998b	1.1687483
158	0x3f30a59f	0.6900272
159	0xbfadb7fb	-1.3571771
160	0xbeb58714	-0.3545462
161	0x3e439c30	0.1910255
162	0x3ed1e7f6	0.40997285
163	0x3f39709c	0.72437453
164	0xbde64d1b	-0.112451755
165	0xbf139d15	-0.57661563
166	0xbee80d3b	-0.45322594
167	0xbfadb13d	-1.3569714
168	0xbf06df6e	-0.52684677
169	0x3f9da642	1.2316363
170	0x3ea5cb96	0.32381886
171	0x3f73a53e	0.95174015
172	0xbbde79ee	-0.0067894375
173	0xbebe7f9f	-0.37206742
174	0x3dbf1ccb	0.09331664
175	0x3d0b6c03	0.034038555
176	0xbe90e7ae	-0.28301758
177	0x3f06fd36	0.5273012
178	0xbdaa84c7	-0.083261065
179	0xbf81022c	-1.0078788
180	0xbf09ac29	-0.5377832
181	0xbec9e867	-0.3943512
182	0x3f40b83d	0.75281125
183	0x3f96b5c1	1.1774217
184	0xbe45f4b9	-0.19331636
185	0x3fa4bf32	1.2870848
186	0x3f058cfe	0.5216826
187	0xbedccedb	-0.43126568
188	0x3f1273c2	0.5720788
189	0xbe8fee7b	-0.28111634
190	0xbdac4a64	-0.084126264
191	0x3f7eb3e1	0.99493223
192	0x3ffb8d62	1.9652522
193	0xbfd69bee	-1.6766336
194	0x3f1e8e5c	0.61935973
195	0x3edd6a2e	0.4324507
196	0x3e6a5048	0.22882187
197	0xbecb974c	-0.39763868
198	0xbfbd1a66	-1.4773681
199	0xbed7362e	-0.42033523
200	0xbf6b49f6	-0.9190973
201	0x3ca4612d	0.020065868
202	0x3f9a4a9a	1.2054017
203	0x3eb8a670	0.36064482
204	0xbd72d655	-0.059286434
205	0xbd31597f	-0.04329824
206	0xbea90d8c	-0.33018148
207	0x3f0c3fe9	0.5478502
208	0x3fa35d96	1.2762935
209	0x3fa8d052	1.3188574
210	0xbf76d6c3	-0.9642145
211	0x3e743e07	0.23851787
212	0xbf2a69df	-0.66567796
213	0x3f90e7b4	1.132071
214	0x3f072eae	0.528056
215	0x3f3186f8	0.6934657
216	0xbf5fff80	-0.8749924
217	0x3fa95fe2	1.3232386
218	0xbea26534	-0.31717837
219	0x3f9b08f5	1.2112108
220	0x3e92b27a	0.28651792
221	0xbee4700e	-0.4461674
222	0xbfc5fcac	-1.5467734
223	0xbf482c56	-0.7819265
224	0xbfcf5155	-1.6196696
225	0xbf344fbb	-0.7043416
226	0x3f8f13e3	1.1177944
227	0x3f855e33	1.0419372
228	0xbf381bf7	-0.7191767
229	0x3eedee43	0.46470842
230	0xbd174c35	-0.03693791
231	0xbd8ba4be	-0.068185315
232	0x3f89bb1f	1.076023
233	0xbf88c5d0	-1.0685368
234	0xbf1a3373	-0.60234755
235	0xbf42e8c8	-0.76136446
236	0x3f2e3dc7	0.68063015
237	0xbf6c7c97	-0.9237761
238	0x3fbcf56d	1.4762398
239	0x3f277a33	0.65420836
240	0x3f86ca6b	1.0530523
241	0xbf09622f	-0.5366544
242	0x3eccb168	0.399791
243	0xbf79d7b1	-0.97594744
244	0xbdad7323	-0.08469226
245	0xbf814f13	-1.0102257
246	0x3f3770d3	0.7165653
247	0x3e78fbd4	0.24314815
248	0xbfb52d4c	-1.4154449
249	0x3e94a194	0.29029524
250	0xbf318236	-0.6933931
251	0xbe0e6bd9	-0.13908328
252	0xbfab5bb6	-1.3387363
253	0x3ec1ccc1	0.37851527
254	0x3ee40923	0.4453822
255	0x3f4f051f	0.8086719

W_conv2 f4 [3, 3, 16, 32]
0	0xbf4fc723	-0.81163234
1	0x3fbbd8ce	1.4675539
2	0x3d863963	0.065539144
3	0x3db201bd	0.08691738
4	0x3f24150e	0.64094627
5	0x3fcd4b7a	1.6038659
6	0x3e20a7a9	0.15688957
7	0xbfbf0042	-1.4921954
8	0x3fae34a1	1.3609811
9	0x3f06c472	0.526435
10	0xbf5d5e41	-0.86471945
11	0x3ba40dd7	0.0050065327
12	0x3f085e00	0.5326843
13	0xbe091721	-0.13387729
14	0xbd206502	-0.03915883
15	0x3f260761	0.6485501
16	0xbe48b96c	-0.19601983
17	0x3cb4a66d	0.022052014
18	0x3ea50d34	0.32236636
19	0x3f126a37	0.5719332
20	0xbeb4bcd9	-0.3530033
21	0xbd97a891	-0.07405198
22	0xbf0b8ca2	-0.54511464
23	0x3dc5e30c	0.096624464
24	0xbf30f812	-0.69128525
25	0x3e9504f0	0.2910533
26	0x3e9fc2ff	0.31203458
27	0x3f9cc2aa	1.2246907
28	0xbfb59e8b	-1.4189008
29	0x3c7650b4	0.01503389
30	0xbeb33f79	-0.35009363
31	0x3e96ca51	0.2945123
32	0xbfd030e2	-1.6264918
33	0x3e80bf95	0.25146165
34	0x3efd9a9f	0.4953203
35	0xbed3b0be	-0.4134578
36	0x3fa27381	1.2691499
37	0x3ee58598	0.44828486
38	0x3eaf9498	0.34293056
39	0x3e44bfde	0.19213817
40	0xbf2a301d	-0.66479665
41	0xbecff094	-0.40613234
42	0x3fe9e4f9	1.8273002
43	0x3f2eb9f3	0.68252486
44	0xbef9b146	-0.4876806
45	0xbf8578f8	-1.0427542
46	0xbf5f3f58	-0.8720603
47	0xbff76827	-1.932866
48	0x3edfb60e	0.43693584
49	0x3c7ecbae	0.015551491
50	0x3e054139	0.13013162
51	0xbfc3244f	-1.5245456
52	0x3f24fd3d	0.6444891
53	0x3f45f720	0.7733021
54	0xbe469d3e	-0.1939592
55	0xbfccb001	-1.5991212
56	0x3f2024ca	0.62556136
57	0xbfd992c0	-1.699791
58	0xbfc99cd7	-1.5750989
59	0x3f282096	0.6567472
60	0x3f99b980	1.2009735
61	0x3e211c87	0.15733539
62	0xbf37fc97	-0.71869797
63	0x3fa72148	1.3057032
64	0x3eb112e8	0.34584737
65	0xbff8b74c	-1.9430938
66	0xbfb73841	-1.4314042
67	0xbfae41b9	-1.3613807
68	0x3fd8e886	1.694596
69	0x3f224fe5	0.6340316
70	0x3ef92406	0.48660296
71	0x3f45f863	0.77332133
72	0x3ebfc6be	0.37456316
73	0xbf76b262	-0.9636594
74	0x3c85e07c	0.016342394
75	0x3db18da9	0.08669598
76	0x3e8a8452	0.27054077
77	0xbf57de55	-0.84323627
78	0xbf85a012	-1.0439475
79	0xbf8b291f	-1.0871924
80	0xbf43edfa	-0.76535
81	0xbee21ff9	-0.44165018
82	0x3edcf3d4	0.43154776
83	0xbe84478b	-0.25835833
84	0xbf01c16a	-0.5068575
85	0xbe865ddc	-0.26243484
86	0x3f1f9005	0.6232913
87	0xbf16557d	-0.58724195
88	0x3f0710af	0.5275983
89	0x3ec37852	0.38177735
90	0x3e9a7878	0.30170035
91	0xbe24a85f	-0.16079853
92	0x3fe7ca38	1.8108587
93	0xbfd52e04	-1.6654668
94	0x3da5e90c	0.08101091
95	0xbfe79af0	-1.8094158
96	0xbe88ae71	-0.26695588
97	0x3f392ad8	0.72331
98	0x3ed34069	0.4126008
99	0xbffcf55a	-1.9762375
100	0xbe958932	-0.29206234
101	0x3f7ab2f3	0.97929305
102	0x3e1118ae	0.14169571
103	0x3f9f1e7c	1.2431178
104	0x3f187be2	0.5956403
105	0x3f0cde6d	0.55026895
106	0x3eccd28c	0.40004385
107	0x3e74cc67	0.23906098
108	0x3e92230f	0.28542373
109	0xbe84e554	-0.25956213
110	0x3e9cabf5	0.30599943
111	0xbf8a48e0	-1.080349
112	0x3cf85a8f	0.03031662
113	0xbe05d217	-0.13068424
114	0xbf3021e8	-0.68801737
115	0xbf62f9df	-0.88662523
116	0xbf93bdff	-1.1542357
117	0xbf952603	-1.1652225
118	0xbea5c494	-0.3237654
119	0xbe52da07	-0.20590983
120	0x3fb13b78	1.3846273
121	0x3e669bd8	0.22520387
122	0x3f5dcb1e	0.8663806
123	0xbfaa0cbe	-1.3285139
124	0xbf43edae	-0.76534545
125	0xbe7aa6bc	-0.24477667
126	0xbf33aa2c	-0.70181537
127	0x3f82e1a5	1.0225111
128	0xbf8fed26	-1.1244247
129	0x3ee68db9	0.4503
130	0xbf94a5d3	-1.1613106
131	0x3f374d45	0.7160228
132	0xbe2d9010	-0.16949487
133	0xbc6ef12a	-0.014583865
134	0xbfb00fed	-1.375486
135	0x3f93462f	1.1505793
136	0x3faa9a52	1.3328345
137	0xbe626820	-0.22110033
138	0xbf9d0de8	-1.2269869
139	0x3eb2865a	0.34868127
140	0xbe3eff0b	-0.18651979
141	0x3e32db2a	0.17466417
142	0xbee9f95a	-0.45698053
143	0x3f00fd3c	0.50386405
144	0x3e6b6ec8	0.22991478
145	0xbe6636d3	-0.22481851
146	0xbdba0844	-0.09083608
147	0x3cbe02d1	0.023194702
148	0x3f88f8d8	1.0700941
149	0x3f39a2a9	0.72513825
150	0xbf1c9193	-0.6115963
151	0xbfa7b8e8	-1.3103304
152	0xbe244a19	-0.16043891
153	0xbfaf045d	-1.3673207
154	0x3f4017aa	0.7503611
155	0xbf71e235	-0.9448579
156	0x3f85f2f0	1.0464764
157	0xbc65b633	-0.01402049
158	0xbfbc2454	-1.4698586
159	0x3f936a61	1.1516839
160	0x3f1e4017	0.61816543
161	0xbf3e6246	-0.74368703
162	0x3f1bf3b9	0.60918766
163	0x3ff777d5	1.9333445
164	0xbf61cf4a	-0.88206923
165	0xbf7fd58c	-0.9993522
166	0xbbecfc9d	-0.0072322623
167	0x3f4a70f7	0.7907862
168	0x3ee80240	0.45314217
169	0xbf3e92f9	-0.7444301
170	0xbe0c16e8	-0.13680613
171	0xbd656948	-0.056008607
172	0xbfc4dd48	-1.538003
173	0xbf5fa1cb	-0.8735625
174	0xbf515431	-0.8176909
175	0x3c2b868b	0.010469089
176	0xbea31851	-0.3185449
177	0xbfa49a42	-1.2859576
178	0xbf194271	-0.59867007
179	0xbe32ae30	-0.1744926
180	0xbfbf6b70	-1.4954662
181	0xbf61130a	-0.87919676
182	0x3d4fe5c9	0.05075625
183	0xbf645aca	-0.89201033
184	0xbfaa1692	-1.3288138
185	0xbff5de49	-1.9208461
186	0x3f366940	0.7125435
187	0x3ea12526	0.31473655
188	0x3fcb2368	1.587018
189	0xbedee970	-0.43537474
190	0x3f625b7a	0.8842083
191	0x3f634b29	0.8878656
192	0x3f881d1f	1.0633887
193	0x3f739ec6	0.95164144
194	0xbfba9da6	-1.457936
195	0xbdabb877	-0.08384793
196	0xbfaaf9c3	-1.3357471
197	0xb9d44809	-0.0004048946
198	0xbf000dec	-0.50021243
199	0x3daa9851	0.08329833
200	0xbe91935a	-0.28432733
201	0x3f625d9b	0.8842408
202	0x3f61d384	0.8821337
203	0x3f399968	0.72499704
204	0xbf492c3d	-0.7858313
205	0xbf13b871	-0.5770331
206	0x3f2d3d3c	0.6767156
207	0xbfd927d6	-1.6965282
208	0xbf25a7f7	-0.6470942
209	0x3f5e2821	0.8677998
210	0x3f6179ab	0.88076276
211	0x3e8acbe8	0.27108693
212	0x3fd1a6e3	1.6379055
213	0xbeb8ac9a	-0.36069185
214	0x3ebc2a44	0.36750996
215	0xbfaef5cb	-1.366876
216	0x3e740435	0.2382973
217	0x3f99986a	1.1999638
218	0xbf4e7664	-0.806494
219	0x3ffca106	1.973664
220	0x3f820064	1.0156369
221	0x3db923bc	0.09040019
222	0x3f91ae52	1.1381323
223	0x3dd4ca6d	0.10390172
224	0xbf9cc9a6	-1.2249038
225	0x3fddd9ca	1.7332089
226	0xbd9a9a38	-0.07548946
227	0x3ec90466	0.39261168
228	0x3fea948a	1.832658
229	0x3e12b085	0.1432515
230	0xbdb5bb2f	-0.08873593
231	0x3f2bf9c0	0.67177963
232	0xbd754848	-0.059883386
233	0xbfadec56	-1.3587749
234	0xbf6b61b4	-0.9194596
235	0x3f8dab9b	1.1067995
236	0xbec43479	-0.38321283
237	0x3fd99f78	1.7001791
238	0xbf5dab59	-0.8658958
239	0xbfaac00f	-1.3339862
240	0x3f500bd3	0.8126804
241	0x3f84587e	1.0339506
242	0xbf315be4	-0.6928084
243	0xbeebdde2	-0.4606772
244	0x3fc284cb	1.5196775
245	0xbe9c0f9f	-0.30480668
246	0x3f165002	0.5871583
247	0x3f9a78d6	1.2068126
248	0x3f22bf11	0.63572794
249	0xbec4c646	-0.3843252
250	0xbe7a024a	-0.24414936
251	0x3f0681f4	0.5254204
252	0xbedb77dc	-0.42864883
253	0xbedd324f	-0.43202445
254	0xbde74bb7	-0.11293738
255	0xbfde2ef7	-1.7358083

W_fc f4 [512, 256]
0	0xbf5ae174	-0.85500264
1	0xbe495789	-0.19662298
2	0x3e0e4907	0.13895045
3	0xbf9c52cc	-1.2212768
4	0xbe53b58a	-0.2067472
5	0xbfe3c45f	-1.7794303
6	0xbee4a8b3	-0.44659957
7	0xbde7bd59	-0.11315412
8	0xbf8c88b0	-1.0979214
9	0x3edcae36	0.43101662
10	0xbd2f2724	-0.042761937
11	0x3e8c9219	0.27455214
12	0xbcb83925	-0.022488186
13	0x3f52c032	0.82324517
14	0x3e845d04	0.25852215
15	0x3f15e6fe	0.5855559
16	0xbd668b5d	-0.05628525
17	0xbe2dbf73	-0.16967563
18	0x3dc1bf6f	0.09460341
19	0x3ffc52d1	1.9712774
20	0x3e948862	0.29010302
21	0xbd8a5654	-0.06754747
22	0xbda7b001	-0.08187867
23	0x3fe8742b	1.8160452
24	0x3ec0bdf7	0.37644932
25	0xbe50ec4c	-0.2040264
26	0x3ed813dc	0.42202652
27	0xbf06050a	-0.5235144
28	0x3f33df62	0.7026273
29	0x3ff5c3a8	1.9200335
30	0x3d5897b2	0.052879043
31	0x3f227de0	0.6347332
32	0x3eadb29b	0.33925328
33	0xbe532109	-0.2061807
34	0x3eab4b3a	0.3345583
35	0xbf0ebf06	-0.5576023
36	0xbedce3ee	-0.43142647
37	0x3fbe5957	1.4871014
38	0xbfdf4ec7	-1.7445916
39	0xbf9d7d54	-1.2303872
40	0x3fd30662	1.6486323
41	0xbfc00e4c	-1.5004363
42	0xbe734bb2	-0.23759344
43	0xbd2f1de8	-0.04275313
44	0xbf893ac4	-1.0721059
45	0x3e320e1d	0.17388196
46	0x3da0e34d	0.07855854
47	0x3edd81ab	0.4326299
48	0xbeca0928	-0.3946011
49	0xbffcabd2	-1.9739935
50	0xbfde4ebf	-1.7367781
51	0xbe988e6f	-0.29796168
52	0xbf56f0d2	-0.8396121
53	0x3fdb755e	1.7145193
54	0xbeed4c6b	-0.46347365
55	0xbecb4846	-0.39703578
56	0xbf82b54e	-1.021158
57	0xbe27ef43	-0.16399865
58	0x3f3e1eeb	0.7426593
59	0xbdf248eb	-0.11830314
60	0x3f8cdeaf	1.1005458
61	0x3fe1d7a2	1.7643931
62	0xbd3b494d	-0.045724202
63	0x3f5d7f35	0.8652223
64	0xbe3e5fe9	-0.18591274
65	0xbe9ef1a3	-0.3104373
66	0x3f876eb7	1.0580662
67	0x3f0da2d6	0.5532659
68	0xbfcd30c6	-1.603051
69	0x3f7bd4bb	0.98371476
70	0x3f833503	1.0250553
71	0x3e3410e3	0.17584567
72	0xbfa0e7e0	-1.2570763
73	0x3ee2d60e	0.44303936
74	0x3fd4b7b3	1.661856
75	0xbda1d2c1	-0.07901526
76	0xbf537e10	-0.8261423
77	0x3ed9b3ac	0.4251989
78	0x3f2cda26	0.6752037
79	0x3f85364b	1.0407194
80	0x3f62353a	0.8836247
81	0x3f116699	0.56797177
82	0x3fb59831	1.418707
83	0x3f4d9b99	0.8031555
84	0x3cdb7227	0.02678783
85	0xbf79dc9b	-0.9760224
86	0xbf04363c	-0.51645255
87	0x3f417e9c	0.75583816
88	0xbf4a1ca4	-0.7894995
89	0xbe0152e5	-0.12629278
90	0xbe7104d9	-0.23537005
91	0xbfa13c81	-1.2596589
92	0x3fbea9b8	1.4895544
93	0xbf58dbf9	-0.8471065
94	0x3e631371	0.22175385
95	0xbffba8ce	-1.966089
96	0x3f385264	0.7200072
97	0xbec5b49a	-0.3861435
98	0xbee7b054	-0.45251715
99	0x3f74a69a	0.95566714
100	0x3e71b4b8	0.23604095
101	0x3f62086e	0.8829411
102	0x3f96aea7	1.177205
103	0x3e2d7a62	0.16941217
104	0x3e0d2810	0.13784814
105	0xbe84fb7b	-0.25973114
106	0x3f2200ae	0.6328229
107	0xbfceb39f	-1.6148566
108	0xbf54b045	-0.83081466
109	0xbe7789af	-0.24173616
110	0x3fa000bc	1.2500224
111	0x3f48cc30	0.78436565
112	0xbf5373f7	-0.82598823
113	0x3f28a4d7	0.65876526
114	0x3f63f140	0.89039993
115	0x3da39dac	0.07989058
116	0x3f956cac	1.1673789
117	0xbdae60a1	-0.08514524
118	0xbfc7e763	-1.5617489
119	0x3fd1fc82	1.6405184
120	0x3eba648b	0.36404833
121	0xbf1bae8e	-0.60813224
122	0xbfb9cc0c	-1.4515395
123	0x3996d2f2	0.00028767396
124	0xbec6b8e6	-0.3881294
125	0xbf033df7	-0.51266426
126	0x3e7983f9	0.2436675
127	0xbf5b96c2	-0.85776913
128	0x3f2f369f	0.6844272
129	0x3ee5b02e	0.44860977
130	0x3f946dc7	1.1596001
131	0xbe37989e	-0.17929313
132	0x3f48280e	0.7818612
133	0xbd539122	-0.05165208
134	0x3f3462b4	0.7046311
135	0x3fe0f873	1.7575821
136	0x3fb51430	1.4146786
137	0x3f2a9c72	0.66644967
138	0xbfd7cd17	-1.6859463
139	0x3d45967d	0.04823922
140	0xbe916b07	-0.28401968
141	0x3f7e4fb4	0.9934037
142	0x3f825002	1.0180666
143	0xbe0aeabb	-0.13566105
144	0xbe6e9c6a	-0.23301855
145	0xbddf5fa6	-0.10906915
146	0x3eda6ae1	0.42659667
147	0xbf2b0cee	-0.66816604
148	0xbec68952	-0.38776642
149	0x3e7c23af	0.24622987
150	0x3f41ad72	0.7565528
151	0x3ee1b644	0.4408437
152	0x3f28e2ba	0.6597096
153	0x3fb34c50	1.4007664
154	0x3f5aa40e	0.8540658
155	0x3f63a292	0.8891994
156	0x3fae097d	1.3596646
157	0xbf21da6b	-0.63223904
158	0x3dcd0172	0.10010041
159	0xbfad61f5	-1.3545519
160	0x3f2f5676	0.68491304
161	0x3f3c9554	0.73665357
162	0xbed7f650	-0.4218011
163	0x3f638e04	0.88888574
164	0x3fa0bba2	1.2557261
165	0x3f1a8ad9	0.60368115
166	0x3de8c901	0.113664635
167	0xbeccf0d1	-0.40027478
168	0xbe4f969c	-0.20272297
169	0x3f842dba	1.0326455
170	0xbf8fdfd6	-1.1240184
171	0xbe9dce28	-0.30821347
172	0x3ecd6a22	0.40120035
173	0x3fd1345c	1.6344104
174	0xbf42d2dc	-0.76102996
175	0xbf8a75a6	-1.0817153
176	0xbe2cb73e	-0.16866776
177	0x3cf48513	0.029848611
178	0x3e8330ff	0.2562332
179	0x3eb20ce9	0.34775475
180	0xbd9433fe	-0.07236479
181	0xbf2ce3d5	-0.67535144
182	0xbf29d945	-0.6634715
183	0xbf2cfc90	-0.6757288
184	0x3e190e68	0.14946902
185	0xbeb32d81	-0.34995654
186	0xbe9cbba8	-0.3061192
187	0x3fd4cd3a	1.662513
188	0x3e65ea47	0.22452651
189	0xbeb078d1	-0.34467176
190	0xbf8e7f47	-1.1132592
191	0x3f5140ee	0.817397
192	0xbf304471	-0.68854433
193	0xbef51fc1	-0.4787579
194	0x3e8803b2	0.2656532
195	0xbf0dcc09	-0.5538946
196	0xbed65923	-0.4186488
197	0x3ee2f206	0.44325274
198	0xbf2966dd	-0.6617258
199	0x3e9d0ca7	0.30673715
200	0xbe2a0534	-0.16603547
201	0xbdf427d6	-0.119216606
202	0xbf973664	-1.1813474
203	0x3ec1f895	0.37884966
204	0x3facda9a	1.3504212
205	0xbc85df75	-0.016341904
206	0xbdf66746	-0.120314166
207	0xbde93244	-0.113865405
208	0xbee9b9c3	-0.45649537
209	0x3f4adbda	0.79241717
210	0x3f32e6a7	0.698832
211	0xbfae7b5f	-1.36314
212	0xbf1ca6b1	-0.6119185
213	0xbf821d03	-1.0165104
214	0x3e491b79	0.19639386
215	0x3f121747	0.5706677
216	0x3f81e614	1.0148339
217	0x3c07dd0f	0.008292451
218	0xbfc9ed63	-1.577557
219	0x3f24ef61	0.64427763
220	0x3f8770eb	1.0581335
221	0x3e30855e	0.17238376
222	0x3d65329a	0.05595646
223	0xbf9d08a7	-1.2268265
224	0x3fae1890	1.3601246
225	0x3daee382	0.085394874
226	0x3e7ba491	0.24574496
227	0xbf67abe9	-0.9049669
228	0x3f0235e1	0.5086346
229	0xbf548e4a	-0.83029616
230	0xbf932c09	-1.1497813
231	0xbeefce52	-0.46837097
232	0xbf4b01a5	-0.79299384
233	0x3fc95cfe	1.5731504
234	0xbf8be9a1	-1.0930673
235	0x3fd9f998	1.7029295
236	0x3fa38560	1.2775078
237	0x3fcfc099	1.6230651
238	0xbe396d70	-0.18108153
239	0x3f97e0f0	1.186552
240	0x3e5feb43	0.21867089
241	0x3f8ada8c	1.0847945
242	0x3e4c3126	0.19940624
243	0x3f50a43b	0.81500596
244	0xbfb3e3f1	-1.4053937
245	0xbf63d08a	-0.8899008
246	0x3eba0828	0.36334348
247	0xbfebb8be	-1.8415754
248	0xbdb14948	-0.086565554
249	0x3f1adaa1	0.6048985
250	0x3e3afeaa	0.18261209
251	0xbf9cdfe1	-1.2255822
252	0xbf952156	-1.1650798
253	0xbfb04b54	-1.3772988
254	0xbdb469be	-0.08809231
255	0x3ffc1048	1.9692469

W_out f4 [256, 5]
0	0x3f8f0dfb	1.1176142
1	0xbf5219c6	-0.8207058
2	0x3e305735	0.17220767
3	0x3e6a2c2a	0.2286841
4	0xbdc66794	-0.09687725
5	0xbf6431e0	-0.89138603
6	0xbf510f4a	-0.81663954
7	0x3f1d6bd9	0.6149269
8	0x3f53bdf3	0.82711715
9	0x3fcd81bd	1.6055218
10	0x3ed57bae	0.41695923
11	0xbf88c886	-1.0686195
12	0xbe2a805d	-0.16650529
13	0xbe9acd92	-0.30234963
14	0xbfa306de	-1.2736471
15	0x3f2179e1	0.630766
16	0xbe133a9e	-0.1437783
17	0x3ec6789a	0.38763887
18	0xbf8c73a7	-1.0972794
19	0x3fa1fe5a	1.2655747
20	0x3f974016	1.1816432
21	0xbe950b80	-0.29110336
22	0x3ea83e6f	0.32860133
23	0x3d8d935b	0.069128715
24	0xbf952075	-1.165053
25	0xbf82fefc	-1.0234065
26	0xbd88669c	-0.06660196
27	0x3eb2b877	0.3490636
28	0xbffc7007	-1.9721688
29	0x3f876fb2	1.0580962
30	0x3f8a2020	1.0791054
31	0xbde9d333	-0.11417236
32	0xbfc76994	-1.5579095
33	0xbf005257	-0.5012564
34	0xbf486cae	-0.7829083
35	0xbedff6e8	-0.43743062
36	0xbf0cc11d	-0.5498217
37	0x3faf0939	1.367469
38	0x3d38eb80	0.045146465
39	0xbf48e5ce	-0.78475654
40	0x3f0245a7	0.5088753
41	0xbed45c6f	-0.4147677
42	0x3e46cc85	0.19413956
43	0xbfaf958e	-1.3717515
44	0xbfe7af3c	-1.8100352
45	0x3e79ca73	0.24393634
46	0x3fc42686	1.5324256
47	0x3f2eeeb9	0.6833301
48	0xbeb2ee96	-0.34947652
49	0xbebff02b	-0.3748792
50	0x3eff5abe	0.49873918
51	0xbe7abf1b	-0.24486963
52	0x3fa4d8aa	1.2878621
53	0x3f00d8a9	0.503306
54	0xbe8aaf8e	-0.27087063
55	0xbd857bfd	-0.065177895
56	0xbf1a97a9	-0.60387665
57	0x3c719502	0.014744999
58	0x3fec9df1	1.84857
59	0xbe442ed2	-0.19158486
60	0xbe4c87bf	-0.19973658
61	0xbe9acfa3	-0.3023654
62	0xbeeba7ae	-0.46026367
63	0x3e811329	0.2520993
64	0x3e98a776	0.29815263
65	0xbf9b3210	-1.2124653
66	0xbeba534d	-0.36391678
67	0xbf63f79e	-0.8904971
68	0x3f08321a	0.5320145
69	0xbf478371	-0.7793494
70	0x3e778915	0.24173386
71	0x3f52a277	0.8227915
72	0x3e5512ac	0.20807904
73	0xbf42b467	-0.7605652
74	0x3f6e0cfb	0.92988557
75	0xbfa754bc	-1.3072734
76	0x3e756ba8	0.23966849
77	0x3ea603c7	0.32424757
78	0x3f88324f	1.0640353
79	0xbec2282b	-0.3792127
80	0x3e8ec2e0	0.27883053
81	0x3f8899ee	1.0671976
82	0x3e60d985	0.21957977
83	0x3f431ff5	0.7622064
84	0x3dc9a392	0.09845652
85	0xbfb9c9f9	-1.4514762
86	0xbf84748b	-1.0348066
87	0x3f89797b	1.0740198
88	0x3f490781	0.78527075
89	0x3fc6b2d8	1.5523329
90	0x3e739106	0.23785791
91	0xbf8f96d2	-1.1217902
92	0x3ded758d	0.11594687
93	0xbe946c51	-0.2898889
94	0x3e3832f4	0.17988187
95	0xbfbef3c4	-1.4918141
96	0xbe868b5c	-0.26278198
97	0x3e6fdb94	0.23423606
98	0x3f773268	0.9656129
99	0x3f6dcda6	0.9289192
100	0x3fa4a8de	1.2864034
101	0xbf394a96	-0.72379434
102	0xbec304a8	-0.3808949
103	0xbfc29ca2	-1.520405
104	0xbef41978	-0.4767568
105	0x3eb11c6a	0.3459199
106	0xbf4155fe	-0.7552184
107	0x3f2389dc	0.6388223
108	0x3ef5ce43	0.48008928
109	0xbe9dc776	-0.3081624
110	0x3f5810e4	0.84400773
111	0xbfb2d4b3	-1.3971161
112	0x3f9f24e2	1.2433131
113	0x3efc1eba	0.49242193
114	0xbf513c53	-0.8173267
115	0xbdb6dd3f	-0.08928918
116	0x3f15ec98	0.5856414
117	0x3f90c5a9	1.1310321
118	0x3edac0d1	0.42725232
119	0xbf5446c7	-0.829205
120	0xbde5ec17	-0.11226671
121	0xbfaf04bf	-1.3673323
122	0x3eda1f49	0.42601994
123	0x3efe58ee	0.49677223
124	0xbeb7ee85	-0.35924163
125	0x3fbc7072	1.4721816
126	0xbf616670	-0.8804693
127	0x3d8f1d28	0.06987983
128	0xbe0941d4	-0.13404018
129	0x3fbd2994	1.4778314
130	0xbefad215	-0.48988405
131	0xbeb62d75	-0.35581556
132	0xbf7efc89	-0.9960409
133	0x3f893423	1.0719036
134	0x3e49e60d	0.19716664
135	0xbf558037	-0.83398765
136	0x3dba3a16	0.0909311
137	0xbf4734c2	-0.7781488
138	0xbfc090d2	-1.5044196
139	0x3fed0ae5	1.851895
140	0x3f81a6a0	1.0128975
141	0xbfb2e336	-1.3975589
142	0x3f51ee90	0.8200464
143	0xbf46db21	-0.77678114
144	0x3e3bf8ae	0.18356583
145	0xbf4a23d1	-0.789609
146	0xbfb00ab1	-1.3753263
147	0xbc917ec7	-0.017760647
148	0xbfc2b421	-1.5211221
149	0xbe0b58b2	-0.13608053
150	0x3f27cead	0.6554974
151	0x3e9ec602	0.31010443
152	0xbff07584	-1.8785863
153	0x3f273b25	0.6532462
154	0x3f972168	1.180707
155	0x3fefdf14	1.8739953
156	0xbfb94e89	-1.4477092
157	0x3ef8903c	0.48547542
158	0xbfe11e91	-1.7587453
159	0x3f223220	0.63357735
160	0xbf654233	-0.89554137
161	0xbfc1c579	-1.5138389
162	0x3f69f837	0.9139437
163	0xbde99749	-0.114058085
164	0x3fe3d1cd	1.7798401
165	0xbc108414	-0.008820552
166	0x3dcdf130	0.100557685
167	0x3ef628aa	0.480779
168	0xbe919dcc	-0.28440702
169	0xbf343e78	-0.7040782
170	0xbe78a14b	-0.24280278
171	0x3f74534a	0.9543959
172	0x3ec155af	0.37760684
173	0x3d961a2f	0.07329213
174	0xbff6d32b	-1.9283193
175	0xbf7ac41f	-0.9795551
176	0xbe0c7027	-0.13714658
177	0x3f06ca8b	0.52652806
178	0xbf027f9b	-0.5097596
179	0x3f6940e4	0.9111464
180	0xbf89afeb	-1.0756811
181	0xbf552fec	-0.8327625
182	0xbf0029ed	-0.50063974
183	0xbf780fa9	-0.96898896
184	0xbe585b55	-0.2112859
185	0x3e93eac4	0.2889005
186	0xbf43c3ed	-0.76470834
187	0x3fcdb8ac	1.6071982
188	0x3d7df47f	0.062000748
189	0xbfb498d4	-1.410914
190	0x3e8aa67c	0.27080142
191	0xbeb06fc8	-0.34460282
192	0x3ec4aa58	0.38411212
193	0x3fdc085b	1.719005
194	0x3f0be7b3	0.5465042
195	0xbee9d798	-0.45672297
196	0xbf33ce51	-0.7023669
197	0x3f950104	1.1640935
198	0xbe3fd713	-0.18734388
199	0xbfdd251b	-1.7276949
200	0x3f1a1025	0.60180885
201	0xbf4789cf	-0.77944654
202	0xbf249d14	-0.6430218
203	0x3e2854fa	0.16438666
204	0xbeb5aa51	-0.35481504
205	0x3f740c6a	0.9533144
206	0xbc5dbd29	-0.013533869
207	0x3e502015	0.20324738
208	0x3e323d2f	0.17406152
209	0xbf1ca7f4	-0.61193776
210	0x3fb50a9e	1.4143865
211	0x3df602a0	0.120122194
212	0x3e99991b	0.29999623
213	0x3f61cf6b	0.8820712
214	0xbfb7b17e	-1.4351041
215	0xbea9ac7a	-0.33139402
216	0x3e322013	0.17395048
217	0x3db3f8d7	0.08787697
218	0xbf03faab	-0.51554364
219	0xbf210b60	-0.6290798
220	0x3f5ca092	0.8618251
221	0xbfbebfb9	-1.4902259
222	0xbe855fc1	-0.26049617
223	0xbfcdc916	-1.6076992
224	0xbeceaf12	-0.40367943
225	0x3e970a62	0.2950011
226	0x3e71b90b	0.23605745
227	0x3f529092	0.82251847
228	0x3cbf449d	0.023348147
229	0xbf0979e3	-0.5370161
230	0x3f273429	0.65313965
231	0xbe318c8a	-0.17338768
232	0x3eb32de5	0.34995952
233	0x3ed892ae	0.42299408
234	0x3dff7de3	0.12475183
235	0xbf9b90bf	-1.2153548
236	0x3ea28609	0.31742886
237	0xbf0cd8cf	-0.55018324
238	0xbf64c58c	-0.8936393
239	0xbf88f968	-1.0701113
240	0x3f32860b	0.69735783
241	0x3f06a483	0.52594775
242	0x3f473329	0.7781244
243	0xbf495389	-0.7864309
244	0xbf03c6de	-0.5147532
245	0x3eeda3fd	0.46414176
246	0x3fe4241d	1.7823521
247	0x3f3f56bf	0.7474174
248	0x3fb611fb	1.4224237
249	0x3f934b3d	1.1507336
250	0x3f73deb7	0.9526171
251	0x3ff8b6a6	1.943074
252	0x3f46a455	0.775945
253	0xbf556453	-0.8335621
254	0x3d863008	0.0655213
255	0x3eb17b1a	0.34664232

b_conv1 f4 [16]
0	0x3dcccccd	0.1
1	0x3dcccccd	0.1
2	0x3dcccccd	0.1
3	0x3dcccccd	0.1
4	0x3dcccccd	0.1
5	0x3dcccccd	0.1
6	0x3dcccccd	0.1
7	0x3dcccccd	0.1
8	0x3dcccccd	0.1
9	0x3dcccccd	0.1
10	0x3dcccccd	0.1
11	0x3dcccccd	0.1
12	0x3dcccccd	0.1
13	0x3dcccccd	0.1
14	0x3dcccccd	0.1
15	0x3dcccccd	0.1

b_conv2 f4 [32]
0	0x3dcccccd	0.1
1	0x3dcccccd	0.1
2	0x3dcccccd	0.1
3	0x3dcccccd	0.1
4	0x3dcccccd	0.1
5	0x3dcccccd	0.1
6	0x3dcccccd	0.1
7	0x3dcccccd	0.1
8	0x3dcccccd	0.1
9	0x3dcccccd	0.1
10	0x3dcccccd	0.1
11	0x3dcccccd	0.1
12	0x3dcccccd	0.1
13	0x3dcccccd	0.1
14	0x3dcccccd	0.1
15	0x3dcccccd	0.1
16	0x3dcccccd	0.1
17	0x3dcccccd	0.1
18	0x3dcccccd	0.1
19	0x3dcccccd	0.1
20	0x3dcccccd	0.1
21	0x3dcccccd	0.1
22	0x3dcccccd	0.1
23	0x3dcccccd	0.1
24	0x3dcccccd	0.1
25	0x3dcccccd	0.1
26	0x3dcccccd	0.1
27	0x3dcccccd	0.1
28	0x3dcccccd	0.1
29	0x3dcccccd	0.1
30	0x3dcccccd	0.1
31	0x3dcccccd	0.1

b_fc f4 [256]
0	0x3dcd0ce8	0.10012227
1	0x3dcccccd	0.1
2	0x3dcccccd	0.1
3	0x3dcccccd	0.1
4	0x3dccd71c	0.10001966
5	0x3dcc314c	0.0997034
6	0x3dcc5a9e	0.09978221
7	0x3dccda08	0.10002524
8	0x3dcc60ce	0.099794015
9	0x3dcd32dc	0.10019466
10	0x3dcccccd	0.1
11	0x3dccf150	0.10006964
12	0x3dcccccd	0.1
13	0x3dcccccd	0.1
14	0x3dcce498	0.10004538
15	0x3dcccccd	0.1
16	0x3dcd4f7c	0.10024926
17	0x3dcccccd	0.1
18	0x3dcccccd	0.1
19	0x3dcccccd	0.1
20	0x3dcccccd	0.1
21	0x3dcc8917	0.09987085
22	0x3dccae11	0.09994138
23	0x3dcccccd	0.1
24	0x3dcccccd	0.1
25	0x3dccb2bd	0.09995029
26	0x3dcccccd	0.1
27	0x3dcc6f0d	0.09982119
28	0x3dccd977	0.100024156
29	0x3dcc0c15	0.09963242
30	0x3dccf247	0.10007148
31	0x3dcccccd	0.1
32	0x3dccc66b	0.09998783
33	0x3dccc644	0.09998754
34	0x3dcc905c	0.09988472
35	0x3dccb714	0.09995857
36	0x3dcc2248	0.09967476
37	0x3dcccccd	0.1
38	0x3dcd3f27	0.10021811
39	0x3dcccccd	0.1
40	0x3dccb718	0.0999586
41	0x3dcccccd	0.1
42	0x3dcd086f	0.10011374
43	0x3dcc9c9b	0.099908076
44	0x3dcbedac	0.09957442
45	0x3dcccccd	0.1
46	0x3dccc7fb	0.09999081
47	0x3dcccccd	0.1
48	0x3dcccccd	0.1
49	0x3dcde39d	0.100531794
50	0x3dcd9e1d	0.10039923
51	0x3dcc840f	0.09986126
52	0x3dcd35a1	0.100199945
53	0x3dcccccd	0.1
54	0x3dcccccd	0.1
55	0x3dcc411b	0.099733554
56	0x3dcccccd	0.1
57	0x3dcc3979	0.099718995
58	0x3dcccccd	0.1
59	0x3dcd704f	0.10031187
60	0x3dccccbc	0.099999875
61	0x3dcc55db	0.09977313
62	0x3dcce977	0.100054674
63	0x3dcccccd	0.1
64	0x3dcccccd	0.1
65	0x3dcd120d	0.100132085
66	0x3dcc8a4a	0.09987314
67	0x3dcc1645	0.09965185
68	0x3dcca1bf	0.09991788
69	0x3dcccccd	0.1
70	0x3dccf426	0.10007505
71	0x3dcc78b8	0.09983963
72	0x3dccfbd1	0.10008968
73	0x3dccf2cd	0.10007248
74	0x3dcc7827	0.09983855
75	0x3dcccccd	0.1
76	0x3dcc4ece	0.09975968
77	0x3dcccccd	0.1
78	0x3dcc60d6	0.099794075
79	0x3dcc624d	0.09979687
80	0x3dcd81e9	0.10034544
81	0x3dcccccd	0.1
82	0x3dcccccd	0.1
83	0x3dccd539	0.100016065
84	0x3dcccccd	0.1
85	0x3dcd81b3	0.10034504
86	0x3dcccb7c	0.09999749
87	0x3dcd8ddf	0.100368254
88	0x3dccf0a4	0.10006836
89	0x3dcccccd	0.1
90	0x3dcccccd	0.1
91	0x3dcd3f50	0.100218415
92	0x3dccefa5	0.10006646
93	0x3dcccccd	0.1
94	0x3dcccccd	0.1
95	0x3dccd807	0.100021414
96	0x3dcccccd	0.1
97	0x3dcd37fd	0.100204445
98	0x3dcd95d1	0.10038341
99	0x3dcc9ec0	0.09991217
100	0x3dcccccd	0.1
101	0x3dcccccd	0.1
102	0x3dcc869e	0.09986614
103	0x3dcccccd	0.1
104	0x3dccca6d	0.09999547
105	0x3dcc8277	0.09985822
106	0x3dccd563	0.10001638
107	0x3dce03a9	0.10059292
108	0x3dcccccd	0.1
109	0x3dcd4824	0.10023525
110	0x3dcccccd	0.1
111	0x3dcccccd	0.1
112	0x3dcccccd	0.1
113	0x3dcccccd	0.1
114	0x3dcccccd	0.1
115	0x3dcccccd	0.1
116	0x3dcccccd	0.1
117	0x3dcd22d2	0.10016407
118	0x3dcccc95	0.099999584
119	0x3dcccccd	0.1
120	0x3dccb233	0.09994926
121	0x3dcc8d54	0.09987894
122	0x3dccd81f	0.10002159
123	0x3dcd3ec3	0.100217365
124	0x3dcccdfe	0.100002274
125	0x3dcd6135	0.100283064
126	0x3dcc0834	0.09962502
127	0x3dcd01d3	0.100101136
128	0x3dcccccd	0.1
129	0x3dcccccd	0.1
130	0x3dcd1a1a	0.10014744
131	0x3dccb6ad	0.0999578
132	0x3dcccccd	0.1
133	0x3dcccccd	0.1
134	0x3dcc65a1	0.09980322
135	0x3dcce71f	0.1000502
136	0x3dcccccd	0.1
137	0x3dcc84e6	0.09986286
138	0x3dcccc23	0.099998735
139	0x3dccd8cb	0.100022875
140	0x3dcccccd	0.1
141	0x3dcccccd	0.1
142	0x3dccb78d	0.09995947
143	0x3dcc8937	0.09987109
144	0x3dcd66ae	0.1002935
145	0x3dccb90b	0.09996232
146	0x3dcc34b0	0.09970987
147	0x3dcd412b	0.100221954
148	0x3dcc3a52	0.09972061
149	0x3dccccbf	0.0999999
150	0x3dcccccd	0.1
151	0x3dcdd3db	0.10050174
152	0x3dcd134a	0.10013445
153	0x3dccb49c	0.09995386
154	0x3dcccccd	0.1
155	0x3dccba6a	0.09996493
156	0x3dcccccd	0.1
157	0x3dccd172	0.10000886
158	0x3dccc63f	0.0999875
159	0x3dcd5e96	0.100278065
160	0x3dcccccd	0.1
161	0x3dccb866	0.09996109
162	0x3dcd2ced	0.100183345
163	0x3dcccccd	0.1
164	0x3dcc16c3	0.09965279
165	0x3dcc96da	0.0998971
166	0x3dcccc96	0.09999959
167	0x3dcd5e6c	0.10027775
168	0x3dcc618d	0.09979544
169	0x3dccb8d0	0.09996188
170	0x3dccbe1a	0.099971965
171	0x3dcdf94a	0.10057314
172	0x3dcd60a9	0.10028202
173	0x3dccd95e	0.10002397
174	0x3dcc25b1	0.099681266
175	0x3dccb0d9	0.099946685
176	0x3dccd57e	0.10001658
177	0x3dcccccd	0.1
178	0x3dcccccd	0.1
179	0x3dcde5af	0.10053574
180	0x3dcccccd	0.1
181	0x3dcc9cd9	0.09990854
182	0x3dcc6771	0.099806674
183	0x3dccd776	0.100020334
184	0x3dcccccd	0.1
185	0x3dcccccd	0.1
186	0x3dcc4470	0.09973991
187	0x3dcccccd	0.1
188	0x3dccadca	0.09994085
189	0x3dcccccd	0.1
190	0x3dcccccd	0.1
191	0x3dcd2172	0.10016145
192	0x3dcd2dd6	0.10018508
193	0x3dccd7d5	0.10002104
194	0x3dccc61c	0.09998724
195	0x3dccbb60	0.099966764
196	0x3dcccccd	0.1
197	0x3dcd1e29	0.10015518
198	0x3dccca44	0.099995166
199	0x3dccb4ee	0.09995447
200	0x3dcccccd	0.1
201	0x3dcd299a	0.100177005
202	0x3dcc3a9a	0.09972115
203	0x3dccd18c	0.100009054
204	0x3dcd5a6d	0.10027013
205	0x3dcccccd	0.1
206	0x3dcccccd	0.1
207	0x3dccc87c	0.09999177
208	0x3dcd7f28	0.10034019
209	0x3dcce262	0.100041166
210	0x3dcccccd	0.1
211	0x3dcccccd	0.1
212	0x3dcd4837	0.100235395
213	0x3dccf286	0.10007195
214	0x3dcd69f4	0.100299746
215	0x3dcccccd	0.1
216	0x3dcc96d0	0.09989703
217	0x3dccfd4d	0.10009251
218	0x3dcccccd	0.1
219	0x3dcc9c05	0.09990696
220	0x3dcc924a	0.0998884
221	0x3dcccccd	0.1
222	0x3dccc0f7	0.099977426
223	0x3dcccc40	0.09999895
224	0x3dcc7e6b	0.0998505
225	0x3dcc9b64	0.09990576
226	0x3dcce22c	0.10004076
227	0x3dccad7c	0.09994027
228	0x3dcccccd	0.1
229	0x3dcd0a86	0.10011773
230	0x3dcc216a	0.09967311
231	0x3dcccccd	0.1
232	0x3dcccccd	0.1
233	0x3dcccccd	0.1
234	0x3dcd3d90	0.10021508
235	0x3dcccf25	0.10000447
236	0x3dcc7bbd	0.09984539
237	0x3dccb64a	0.099957064
238	0x3dccf27f	0.1000719
239	0x3dcccccd	0.1
240	0x3dcd2338	0.10016483
241	0x3dcccee2	0.10000397
242	0x3dcc603c	0.09979293
243	0x3dcc8d98	0.09987944
244	0x3dcc4e05	0.099758185
245	0x3dcccccd	0.1
246	0x3dccc12c	0.09997782
247	0x3dccc353	0.09998193
248	0x3dcce003	0.10003664
249	0x3dcccccd	0.1
250	0x3dce2e38	0.10067409
251	0x3dccd27d	0.10001085
252	0x3dcc8e4d	0.09988079
253	0x3dcccccd	0.1
254	0x3dcc524c	0.099766344
255	0x3dcd5711	0.10026372

b_out f4 [5]
0	0x3dcceeb7	0.10006469
1	0x3dccfbd5	0.10008971
2	0x3dcd07cd	0.100112535
3	0x3dcce261	0.10004116
4	0x3dccfbf8	0.10008997
