Models/Tensorflow/model_local9_diamond.npz (npz, 552614 bytes, 8 tensors)

W_conv1 f4 [3, 3, 3, 16]
-0.30643323 0.27988127 0.504292 0.3619613 -1.1174977 -0.38481954 0.9660735 0.38918427
1.4864178 -1.0832723 -1.2342336 -1.5955377 1.0304223 -0.33333868 0.08220837 -0.48678795
-1.4106612 0.44738027 -0.3718674 0.18744358 0.64565605 1.5645238 0.10086117 -0.1454899
1.8280866 1.282974 -1.7502991 -1.9187771 -0.68860865 1.7604079 -0.42923304 0.83254814
0.5128569 1.0408738 1.6039327 1.6417421 0.26689404 -0.7350126 -1.6241759 1.2002032
-1.2330347 1.9714504 -0.55459064 -0.9201198 0.2894115 -0.04819876 1.0923915 1.1623535
1.8352323 -0.30048433 -0.45474264 -1.074589 0.05466313 0.1125536 0.06875568 0.17192161
-0.63805103 -0.3476421 1.253821 -1.5612667 -0.653986 -0.34626716 -1.713361 -1.9483021
-1.679971 1.0444291 1.7819585 0.042652547 1.0248282 -0.7187813 -0.4187636 -0.24238889
1.5634186 0.42477408 0.88335174 0.45340702 2.0097528 -0.9945972 -0.76345044 -1.5217716
-0.17946666 -1.2831106 0.83180195 0.040981416 0.64129996 -1.1998309 1.5059384 -0.51088655
-0.7339369 -1.1995977 -0.62155426 -0.5169236 -0.14085981 0.2902009 -0.4748275 0.5636808
-0.93406487 -0.42229903 0.7532245 0.12564489 -0.36653274 -1.2616532 -0.15829375 -1.3536804
-0.8482441 0.56230015 0.33389145 -0.8605464 -1.8101172 1.3709873 -1.3598355 -1.0233219
0.51745844 0.9866461 1.3747575 -0.9493286 1.2603285 -0.101113304 1.2600496 1.1909839
1.61027 0.19275017 -0.6548746 -1.1541506 0.84097886 0.5328495 -0.036314406 -0.17463003
-1.0325042 -0.533657 0.68862987 -0.34873092 0.35419947 -0.06369809 0.101110876 0.27051914
-0.11895857 1.0762264 1.744594 0.959434 -1.2897614 -0.9746865 -0.20864893 -1.9835373
0.26119992 -0.73363173 -1.221966 -0.8746667 0.43796298 0.54202485 -0.92863256 0.83351666
0.48265272 0.3831241 0.44768074 -1.7053419 -0.21773307 1.2389464 0.6926681 -1.3192092
-0.29785186 0.07894868 0.32812026 0.828696 -0.4028378 -0.4130935 -0.702476 -1.4073412
-0.5440347 1.3676621 0.10954305 0.908693 0.019866174 -0.5869551 0.16681239 -0.05112859
-0.37781355 0.63679796 -0.14863257 -1.0552747 -0.7465658 -0.2453868 0.95060074 1.0292789
-0.161952 1.3658919 0.3276835 -0.6788642 0.58286995 -0.23855643 -0.11789929 1.013574
1.8775935 -1.4063828 0.5856562 0.44228253 0.18361065 -0.4371804 -1.3759099 -0.5419061
-1.1948483 0.14448436 1.1534731 0.3473413 0.047338866 0.09077368 -0.424519 0.4625045
1.2937281 1.4197872 -1.058729 0.292531 -0.73620975 1.2403046 0.55812 0.8210366
-0.8692359 1.3224694 -0.40313083 1.1500996 0.37450773 -0.3047916 -1.591561 -0.7492277
-1.828812 -0.46616524 0.95133895 0.94365525 -0.5635435 0.33666942 0.0060053715 -0.06311538
1.1000487 -1.2138904 -0.7597736 -1.0696675 0.6134031 -0.9519199 1.2617685 0.65836704
1.1925739 -0.45290187 0.35091543 -0.98747176 -0.05468079 -0.9359062 0.74782234 0.1633511
-1.2548897 0.38531825 -0.720501 -0.36407566 -1.5145288 0.3064459 0.34965572 0.8053843
00000000: d1e4 9cbe 994c 8f3e 4819 013f fe52 b93e
00000010: 2a0a 8fbf 1107 c5be 9850 773f 2943 c73e
00000020: f042 be3f aba8 8abf 5efb 9dbf 943a ccbf
00000030: e1e4 833f 5eab aabe dd5c a83d 453c f9be
00000040: 8c90 b4bf 070f e53e 6765 bebe 36f1 3f3e
00000050: b749 253f 5142 c83f 4d90 ce3d 4efb 14be
00000060: befe e93f 7e38 a43f cd09 e0bf 7d9a f5bf
00000070: a848 30bf 0c55 e13f 6fc4 dbbe e021 553f
00000080: 974a 033f 5a3b 853f ab4d cd3f 9b24 d23f
00000090: 56a6 883e c929 3cbf ffe4 cfbf 42a0 993f
000000a0: 15d4 9dbf 7d58 fc3f a7f9 0dbf f98c 6bbf
000000b0: be2d 943e 106c 45bd 7cd3 8b3f 00c8 943f
000000c0: e4e8 ea3f 15d9 99be 07d4 e8be 228c 89bf
000000d0: 72e6 5f3d 8082 e63d c7cf 8c3d 380c 303e
000000e0: 5057 23bf 25fe b1be 357d a03f 96d7 c7bf
000000f0: a06b 27bf ee49 b1be 6a4f dbbf f761 f9bf
00000100: 4a09 d7bf daaf 853f 3717 e43f 70b4 2e3d
00000110: 922d 833f 0d02 38bf 2f68 d6be cb34 78be
00000120: 1a1e c83f fd7b d93e 5723 623f f724 e83e
00000130: ca9f 0040 ec9d 7ebf 7d71 43bf 69c9 c2bf
00000140: 1cc6 37be f83c a4bf f9f0 543f 21dc 273d
00000150: 3c2c 243f 0f94 99bf 97c2 c03f 76c9 02bf
00000160: 4ae3 3bbf 6b8c 99bf 2e1e 1fbf 1b55 04bf
00000170: 8e3d 10be 3695 943e 971c f3be 634d 103f
00000180: e01e 6fbf 9437 d8be 52d3 403f 0ea9 003e
00000190: 2eaa bbbe da7d a1bf c217 22be 6645 adbf
000001a0: 8626 59bf e7f2 0f3f d2f3 aa3e c54c 5cbf
000001b0: ecb1 e7bf 837c af3f 170f aebf 36fc 82bf
000001c0: 2878 043f d794 7c3f 0ef8 af3f 3307 73bf
000001d0: 7252 a13f 7e14 cfbd 4e49 a13f 2972 983f
000001e0: 541d ce3f 4d60 453e dda5 27bf 35bb 93bf
000001f0: 644a 573f d368 083f 6abe 14bd 37d2 32be
00000200: 1929 84bf bf9d 08bf 0c4a 303f dc8c b2be
00000210: a259 b53e 2574 82bd 3813 cf3d 7c81 8a3e
00000220: 8da0 f3bd c9c1 893f db4e df3f 779d 753f
00000230: e716 a5bf 0e85 79bf 11a8 55be 8de4 fdbf
00000240: ffbb 853e 4acf 3bbf 6269 9cbf 28ea 5fbf
00000250: af3c e03e 24c2 0a3f ddba 6dbf 5961 553f
00000260: 421e f73e d828 c43e 6936 e53e a548 dabf
00000270: 6bf5 5ebe cc95 9e3f b252 313f d9db a8bf
00000280: 0a80 98be d8af a13d 61ff a73e 6c25 543f
00000290: c240 cebe fe80 d3be 78d5 33bf c223 b4bf
000002a0: dc45 0bbf 8d0f af3f 1b58 e03d 1ba0 683f
000002b0: 63be a23c b042 16bf ded0 2a3e 366c 51bd
000002c0: c770 c1be 3105 233f 2333 18be 3e13 87bf
000002d0: f01e 3fbf ad46 7bbe 925a 733f 69bf 833f
000002e0: bfd6 25be 8cd5 ae3f 22c6 a73e 0bca 2dbf
000002f0: f736 153f 2348 74be 2f75 f1bd cbbc 813f
00000300: fc54 f03f 5a04 b4bf 91ed 153f db72 e23e
00000310: 6e04 3c3e 1cd6 dfbe d11d b0bf 5cba 0abf
00000320: caf0 98bf b5f3 133e 02a5 933f b8d6 b13e
00000330: 66e6 413d 8de7 b93d 8e5a d9be 64cd ec3e
00000340: e298 a53f 96bb b53f 6f84 87bf a0c6 953e
00000350: 3e78 3cbf 4dc2 9e3f f4e0 0e3f 742f 523f
00000360: 3e86 5ebf ad46 a93f 2a67 cebe 7736 933f
00000370: 7abf bf3e a50d 9cbe 45b8 cbbf 63cd 3fbf
00000380: 8316 eabf 36ad eebe f38a 733f 6493 713f
00000390: 6344 10bf ef5f ac3e b5c8 c43b a342 81bd
000003a0: 65ce 8c3f c360 9bbf 8680 42bf ddea 88bf
000003b0: fc07 1d3f 06b1 73bf a181 a13f be8a 283f
000003c0: 43a6 983f c1e2 e7be 30ab b33e f3ca 7cbf
000003d0: f7f8 5fbd 8c97 6fbf 4971 3f3f 8345 273e
000003e0: 3aa0 a0bf 6f48 c53e c172 38bf 2068 babe
000003f0: 14dc c1bf 7ae6 9c3e 1306 b33e aa2d 4e3f

W_conv2 f4 [3, 3, 16, 32]
-0.8112014 1.4636637 0.120987974 0.09089124 0.58945584 1.6450238 0.20661557 -1.5192238
1.4063689 0.5319857 -0.85732216 0.040139705 0.61331624 -0.14883916 -0.047493096 0.68584347
-0.17564404 0.010436822 0.30359584 0.5921063 -0.3354484 -0.036527947 -0.55592376 0.120561235
-0.6500074 0.27845764 0.32776865 1.2045329 -1.4125363 0.030665284 -0.4007146 0.317378
-1.5854855 0.2558284 0.5583322 -0.38667613 1.2333133 0.48498067 0.31657803 0.15307917
-0.6292077 -0.4526114 1.8521338 0.6962675 -0.47739324 -1.0464041 -0.85167485 -1.9343641
0.43900496 0.009125217 0.13357265 -1.5394652 0.6323821 0.79743487 -0.21547297 -1.5944592
0.641615 -1.7071898 -1.5066552 0.6825728 1.1685091 0.14911824 -0.7439297 1.3359646
0.30978176 -1.934741 -1.4665962 -1.3060971 1.637626 0.646735 0.47068313 0.8189306
0.392628 -0.9910453 -0.011483463 0.12640232 0.3285395 -0.8720193 -1.0713022 -1.1636282
-0.73065126 -0.43459198 0.40329453 -0.27511084 -0.556389 -0.2639404 0.67660636 -0.5258333
0.5304595 0.3807497 0.2775773 -0.22668834 1.7536036 -1.6900572 0.13595852 -1.8033357
-0.30622372 0.7392907 0.39935893 -1.9674842 -0.34866577 0.9899512 0.14141284 1.2249473
0.59889895 0.5221993 0.4061485 0.24361537 0.27548358 -0.23768903 0.29756317 -1.0857153
-0.00019716557 -0.16068701 -0.69575316 -0.91053146 -1.1912668 -1.1914059 -0.33694968 -0.21825778
1.4108574 0.20147347 0.8966719 -1.289058 -0.7811373 -0.26954508 -0.66390675 1.0616472
-1.0742166 0.44014874 -1.1466631 0.7086449 -0.25146315 -0.014005548 -1.403241 1.1373179
1.3371103 -0.17802894 -1.2023169 0.32078177 -0.19147287 0.13722734 -0.44525447 0.48586398
0.25239113 -0.19270208 -0.04789501 0.06492049 1.085795 0.7123903 -0.5993039 -1.2906805
-0.17056939 -1.3797774 0.77939874 -0.9948123 1.0163387 -0.030191327 -1.5424944 1.1079321
0.5812699 -0.7243222 0.6414883 1.8911717 -0.7901921 -1.0157205 -0.06390279 0.7667376
0.41932327 -0.76697 -0.15957476 -0.092922986 -1.5187399 -0.87403375 -0.83480966 0.019055214
-0.28301054 -1.2943071 -0.5907139 -0.1576102 -1.5088108 -0.88627154 0.059345853 -0.90925795
-1.3620443 -1.8679438 0.7495357 0.39846352 1.66733 -0.41863635 0.830371 0.8855757
1.0802974 1.0126625 -1.513241 -0.065195076 -1.3640344 -0.007966342 -0.47716668 0.08730443
-0.26752684 0.94951516 0.8386372 0.7056684 -0.6969142 -0.6871966 0.71052414 -1.8038417
-0.57555395 0.9073391 0.95792115 0.3478349 1.6404786 -0.36043388 0.34921992 -1.3769617
0.21430838 1.2096938 -0.75470895 2.0271714 1.0034171 0.05327376 1.0681875 0.057252232
-1.2022786 1.8225807 -0.043472886 0.40989494 1.833602 0.19650131 -0.05822713 0.631259
-0.030486135 -1.332288 -0.9116773 1.181533 -0.44996703 1.6736914 -0.81144166 -1.2952673
0.79524606 1.0366299 -0.69428396 -0.44745043 1.5709724 -0.240002 0.5341725 1.2195551
0.6433284 -0.45595962 -0.24748777 0.50687224 -0.47650012 -0.41133976 -0.10674005 -1.7274146
00000000: e5aa 4fbf 5559 bb3f 8bc8 f73d 3025 ba3d
00000010: 94e6 163f 2490 d23f 0893 533e ed75 c2bf
00000020: e503 b43f 3730 083f 7779 5bbf 8869 243d
00000030: 4b02 1d3f 4b69 18be 1f88 42bd 7093 2f3f
00000040: 08dc 33be 34ff 2a3c ea70 9b3e 4794 173f
00000050: e5bf abbe 549e 15bd 0551 0ebf cfe8 f63d
00000060: e366 26bf 0092 8e3e 4bd1 a73e 222e 9a3f
00000070: fdcd b4bf c335 fb3c 772a cdbe 5f7f a23e
00000080: 30f1 cabf f1fb 823e dcee 0e3f 6afa c5be
00000090: 36dd 9d3f 634f f83e 8416 a23e c9c0 1c3e
000000a0: c113 21bf aebc e7be b812 ed3f 963e 323f
000000b0: e36c f4be 92f0 85bf 5d07 5abf 3e99 f7bf
000000c0: 42c5 e03e ef81 153c 45c7 083e 320d c5bf
000000d0: cbe3 213f b124 4c3f f2a4 5cbe 3d17 ccbf
000000e0: e140 243f 3285 dabf 14da c0bf 17bd 2e3f
000000f0: b591 953f 74b2 183e 2d72 3ebf e300 ab3f
00000100: b79b 9e3e 98a5 f7bf 6db9 bbbf 312e a7bf
00000110: bb9d d13f 6d90 253f 61fd f03e 70a5 513f
00000120: 8a06 c93e 25b5 7dbf 2325 3cbc 9c6f 013e
00000130: 5436 a83e a83c 5fbf 6e20 89bf c5f1 94bf
00000140: f60b 3bbf d782 debe 9f7c ce3e 54db 8cbe
00000150: 826f 0ebf 3223 87be 1336 2d3f 039d 06bf
00000160: 32cc 073f a0f1 c23e 9d1e 8e3e fd20 68be
00000170: 1576 e03f cb53 d8bf b638 0b3e b4d3 e6bf
00000180: 5bc9 9cbe 2842 3d3f c678 cc3e 86d6 fbbf
00000190: 5284 b2be 716d 7d3f 87ce 103e 13cb 9c3f
000001a0: 7151 193f daae 053f b2f2 cf3e 4f76 793e
000001b0: 2f0c 8d3e c164 73be 335a 983e b8f8 8abf
000001c0: 3bbe 4eb9 238b 24be e11c 32bf 9718 69bf
000001d0: 6e7b 98bf fd7f 98bf ab84 acbe f87e 5fbe
000001e0: fa96 b43f 104f 4e3e 4a8c 653f daff a4bf
000001f0: 9df8 47bf d001 8abe cbf5 29bf 0ee4 873f
00000200: ee7f 89bf 2d5b e13e dbc5 92bf c169 353f
00000210: c7bf 80be 8777 65bc 679d b3bf a293 913f
00000220: 6e26 ab3f 384d 36be 85e5 99bf 823d a43e
00000230: 7711 44be 5385 0c3e 65f8 e3be 2ac3 f83e
00000240: 6939 813e b253 45be 8f2d 44bd 09f5 843d
00000250: 55fb 8a3f 365f 363f fb6b 19bf 0535 a5bf
00000260: bea9 2ebe 8c9c b0bf ad86 473f 05ac 7ebf
00000270: 6317 823f cd53 f7bc 7570 c5bf b8d0 8d3f
00000280: 1bce 143f 2e6d 39bf 9438 243f ea11 f23f
00000290: 084a 4abf 2103 82bf 77df 82bd ea48 443f
000002a0: 8ab1 d63e 2558 44bf 9167 23be 684e bebd
000002b0: 1266 c2bf adc0 5fbf 16b6 55bf ae19 9c3c
000002c0: c2e6 90be dbab a5bf 0739 17bf 9164 21be
000002d0: b620 c1bf b1e2 62bf a314 733d 21c5 68bf
000002e0: 7857 aebf c818 efbf 92e1 3f3f 6903 cc3e
000002f0: 126b d53f 8157 d6be 3293 543f 17b5 623f
00000300: 2f47 8a3f ed9e 813f e2b1 c1bf ff84 85bd
00000310: ae98 aebf 4385 02bc 314f f4be aacc b23d
00000320: 47f9 88be 6d13 733f edb0 563f afa6 343f
00000330: f868 32bf 1eec 2fbf e9e4 353f 49e4 e6bf
00000340: 8157 13bf 6047 683f 523a 753f 6a17 b23e
00000350: 34fb d13f ca8a b8be f4cc b23e 4840 b0bf
00000360: a873 5b3e 3fd7 9a3f 9b34 41bf 2dbd 0140
00000370: f96f 803f 9635 5a3d 5eba 883f 5181 6a3d
00000380: 44e4 99bf 534a e93f a010 32bd c0dd d13e
00000390: 78b3 ea3f a437 493e 927f 6ebd 319a 213f
000003a0: 0fbe f9bc 6a88 aabf af63 69bf 793c 973f
000003b0: 1462 e6be 853b d63f a4ba 4fbf 52cb a5bf
000003c0: 3f95 4b3f 4ab0 843f 98bc 31bf 3918 e5be
000003d0: a015 c93f 16c3 75be 87bf 083f 621a 9c3f
000003e0: 2cb1 243f 8a73 e9be 6f6d 7dbe 61c2 013f
000003f0: d3f7 f3be 209b d2be 879a dabd ec1b ddbf

W_fc f4 [512, 256]
-0.8597211 -0.19662298 0.13589057 -1.2240826 -0.20825803 -1.7734978 -0.44986913 -0.10862395
-1.0905142 0.43646765 -0.042761937 0.26969254 -0.023347482 0.81752515 0.25331146 0.58197206
-0.056000542 -0.1696764 0.09460341 1.9678066 0.29010302 -0.067747824 -0.076220855 1.8158484
0.37634972 -0.2039004 0.42253783 -0.5289555 0.7030364 1.9271346 0.039297916 0.63725245
0.32788274 -0.20011133 0.34322268 -0.55327266 -0.43371168 1.4860045 -1.7558411 -1.2324158
1.6482415 -1.5004363 -0.23643634 -0.041344956 -1.0746503 0.17391627 0.07872369 0.4326299
-0.3946011 -1.9790254 -1.7263492 -0.29775515 -0.852034 1.7145193 -0.4698816 -0.40689376
-1.021158 -0.16505235 0.7426593 -0.11873935 1.095528 1.7507483 -0.04034328 0.86927223
-0.18591274 -0.30804893 1.0698628 0.5487552 -1.6107341 0.98371476 1.0114466 0.18673688
-1.2675396 0.4402851 1.6467946 -0.080450445 -0.8144843 0.4251989 0.67249 1.036755
0.89845586 0.5668712 1.4225013 0.79017216 0.027894614 -0.98589015 -0.515611 0.7325229
-0.7952625 -0.12489692 -0.23537005 -1.2770114 1.4887049 -0.85051304 0.22675467 -1.9685345
0.7198875 -0.37998772 -0.4417589 0.9564212 0.23595905 0.88124275 1.1804634 0.16935667
0.13622476 -0.25777656 0.6321225 -1.6149275 -0.8310092 -0.24545866 1.2432104 0.78436565
-0.825976 0.6546905 0.8897174 0.07989058 1.1674095 -0.092397794 -1.564837 1.6405215
0.35717785 -0.6147579 -1.4501741 -0.0056088073 -0.39176464 -0.5144074 0.24823068 -0.8649666
0.6844272 0.44860977 1.1784276 -0.1766247 0.7846047 -0.05165208 0.7076832 1.7437314
1.413515 0.6717571 -1.703368 0.040153854 -0.28401968 0.9986698 1.0211775 -0.12843129
-0.24293914 -0.10571978 0.43207416 -0.66184175 -0.38725728 0.24623033 0.7566208 0.4418795
0.6732032 1.400483 0.8540658 0.88723683 1.3702474 -0.63290507 0.09826148 -1.3858786
0.68491304 0.7160749 -0.4179432 0.8890127 1.2469622 0.5994716 0.10992973 -0.40459257
-0.2010226 1.0311345 -1.1035728 -0.30281493 0.39903775 1.6392416 -0.76192385 -1.0969019
-0.17166278 0.029848611 0.2562332 0.34837437 -0.07236479 -0.67587775 -0.6611899 -0.67787814
0.14946902 -0.351325 -0.29654667 1.662513 0.23452835 -0.34210944 -1.1134733 0.8134183
-0.68173206 -0.4812571 0.26351556 -0.55721116 -0.42315558 0.43248066 -0.6584839 0.30256274
-0.16614643 -0.11077135 -1.1820958 0.37293032 1.3519982 -0.014142405 -0.120314166 -0.11896288
-0.45387155 0.80487096 0.69888306 -1.3594971 -0.60025585 -1.0127847 0.19352266 0.5706677
1.0035275 0.0041851006 -1.5776038 0.6336057 1.0560943 0.17238376 0.056194387 -1.2288083
1.3501272 0.084994026 0.24826372 -0.89971995 0.5086346 -0.83132035 -1.172049 -0.46837097
-0.79299384 1.5741545 -1.0711482 1.6995083 1.2843328 1.6226422 -0.17529348 1.186552
0.2202173 1.1134187 0.20118172 0.81864107 -1.4093119 -0.89098996 0.36331362 -1.8442816
-0.08705553 0.6048985 0.18325275 -1.2254608 -1.1695174 -1.3771077 -0.09038789 1.968535
00000000: af16 5cbf 8957 49be e626 0b3e bdae 9cbf
00000010: 9841 55be fa01 e3bf 3f55 e6be 3c76 debd
00000020: f895 8bbf b078 df3e 2427 2fbd 2415 8a3e
00000030: 3843 bfbc 5449 513f 0ab2 813e 1ffc 143f
00000040: d360 65bd a6bf 2dbe 6fbf c13d 16e1 fb3f
00000050: 6288 943e 5fbf 8abd ae19 9cbd b86d e83f
00000060: e9b0 c03e 44cb 50be e156 d83e a169 07bf
00000070: 32fa 333f 59ac f63f daf6 203d fa22 233f
00000080: 3fe0 a73e fce9 4cbe e2ba af3e 47a3 0dbf
00000090: 750f debe 6535 be3f 67bf e0bf cdbf 9dbf
000000a0: 94f9 d23f 4c0e c0bf 5e1c 72be 5459 29bd
000000b0: 248e 89bf 1b17 323e e339 a13d ab81 dd3e
000000c0: 2809 cabe b450 fdbf 03f9 dcbf 5d73 98be
000000d0: e61e 5abf 5e75 db3f 5294 f0be 6154 d0be
000000e0: 4eb5 82bf 7c03 29be eb1e 3e3f 9e2d f3bd
000000f0: 433a 8c3f 8518 e03f ff3e 25bd a088 5e3f
00000100: e95f 3ebe 97b8 9dbe 44f1 883f 397b 0c3f
00000110: 892c cebf bbd4 7b3f 1577 813f f437 3f3e
00000120: bd3e a2bf 0c6d e13e 2aca d23f 34c3 a4bd
00000130: 0b82 50bf acb3 d93e 4e28 2c3f 63b4 843f
00000140: 3401 663f 791e 113f 8614 b63f b948 4a3f
00000150: 3f83 e43c 4c63 7cbf 15ff 03bf 9f86 3b3f
00000160: 5396 4bbf f5c9 ffbd d904 71be 1c75 a3bf
00000170: e28d be3f 39bb 59bf 6032 683e f0f8 fbbf
00000180: 8c4a 383f c08d c2be 392e e2be 05d8 743f
00000190: 409f 713e 2099 613f 6d19 973f d66b 2d3e
000001a0: 817e 0b3e 4afb 83be c8d2 213f f2b5 cebf
000001b0: 05bd 54bf 8459 7bbe 8521 9f3f 30cc 483f
000001c0: 2a73 53bf cc99 273f 85c4 633f ac9d a33d
000001d0: ad6d 953f 0e3b bdbd 944c c8bf 9cfc d13f
000001e0: 04e0 b63e c660 1dbf 4e9f b9bf 16ca b7bb
000001f0: 6095 c8be 34b0 03bf 2f30 7e3e 736e 5dbf
00000200: 9f36 2f3f 2eb0 e53e b7d6 963f 1bdd 34be
00000210: dbdb 483f 2291 53bd ba2a 353f 9732 df3f
00000220: 0fee b43f 46f8 2b3f f607 dabf 5e78 243d
00000230: 076b 91be d3a8 7f3f f2b5 823f 7e83 03be
00000240: 0ac5 78be 9d83 d8bd d338 dd3e 766e 29bf
00000250: 9646 c6be ce23 7c3e e7b1 413f 083e e23e
00000260: 0b57 2c3f 0743 b33f 0ea4 5a3f f421 633f
00000270: 4464 af3f 1106 22bf 513d c93d 7864 b1bf
00000280: 7656 2f3f af50 373f a7fc d5be 5696 633f
00000290: 759c 9f3f f976 193f d722 e13d c226 cfbe
000002a0: ded8 4dbe 37fc 833f e041 8dbf 8f0a 9bbe
000002b0: ad4e cc3e abd2 d13f 710d 43bf 4867 8cbf
000002c0: 5ec8 2fbe 1385 f43c ff30 833e 205e b23e
000002d0: fe33 94bd 5306 2dbf be43 29bf 6c89 2dbf
000002e0: 680e 193e dfe0 b3be f7d4 97be 3acd d43f
000002f0: 3328 703e f828 afbe 4b86 8ebf 2f3c 503f
00000300: fe85 2ebf 5567 f6be 83eb 863e 64a5 0ebf
00000310: d9a7 d8be 1b6e dd3e 6792 28bf 81e9 9a3e
00000320: 4a22 2abe 17dc e2bd ea4e 97bf b9f0 be3e
00000330: 470e ad3f 8cb5 67bc 4667 f6bd cfa2 f3bd
00000340: da61 e8be 060c 4e3f 00ea 323f 0004 aebf
00000350: 5eaa 19bf eea2 81bf ce2a 463e 4717 123f
00000360: 9773 803f 2b23 893b ecee c9bf fc33 223f
00000370: 192e 873f 5e85 303e 162c 663d 9749 9dbf
00000380: f8d0 ac3f 5911 ae3d d838 7e3e 0c54 66bf
00000390: e135 023f 69d1 54bf b405 96bf 52ce efbe
000003a0: a501 4bbf e57d c93f 621b 89bf 7d89 d93f
000003b0: 0465 a43f bdb2 cf3f 2280 33be f0e0 973f
000003c0: a580 613e 8184 8e3f 9502 4e3e 7692 513f
000003d0: 5564 b4bf eb17 64bf 3e04 ba3e 6b11 ecbf
000003e0: 2b4a b2bd a1da 1a3f 9ca6 3b3e e6db 9cbf
000003f0: bfb2 95bf 1145 b0bf 491d b9bd f4f8 fb3f

W_out f4 [256, 5]
1.0396091 -0.86178946 0.053639073 0.03188459 -0.004106785 -0.89138603 -0.81663954 0.6149269
0.82711715 1.6055218 0.3929329 -1.0576456 -0.16577853 -0.29181314 -1.2552447 0.6354721
-0.14054593 0.3909759 -1.0935092 1.2564412 1.1371089 -0.34795335 0.33357713 0.1404743
-1.2572979 -1.0829768 -0.09718612 0.3769971 -1.9888277 1.1138283 0.9664397 -0.12935537
-1.5974003 -0.50923574 -0.77024955 -0.49529216 -0.5580759 1.2732675 0.011616907 -0.7708173
0.542427 -0.45118162 0.14932595 -1.2624388 -1.7560415 0.1465602 1.6067476 0.5546215
-0.3538963 -0.3803097 0.49873918 -0.24486963 1.2878621 0.503306 -0.27087063 -0.09201309
-0.61612314 -0.08625538 1.8602833 -0.28776127 -0.19266835 -0.29842287 -0.45061308 0.23909125
0.29317346 -1.1610092 -0.35678554 -0.9129805 0.54757595 -0.8346981 0.109714024 0.8585488
0.24458006 -0.85986745 1.0092653 -1.2900811 0.20661318 0.28116053 1.0751423 -0.39606097
0.18835352 0.906905 0.305521 0.6742996 0.10569221 -1.4515834 -1.03495 1.073382
0.7859626 1.5517308 0.23785791 -1.1217902 0.11594687 -0.2898889 0.17988187 -1.4900063
-0.26423937 0.20838377 0.99032724 0.9075514 1.2864034 -0.72379434 -0.3808949 -1.520405
-0.4767568 0.31239727 -0.77726763 0.6069199 0.3214404 -0.09628149 0.803147 -1.2453119
1.1586095 0.36031514 -0.75664634 -0.073482566 0.6029295 1.1053865 0.4413047 -0.84489024
-0.11868143 -1.3869585 0.36600056 0.5357593 -0.36550564 1.4716597 -0.88126713 0.07054874
-0.13455562 1.4779792 -0.4901367 -0.35617593 -0.99810785 1.0725113 0.19973363 -0.8231906
0.091579646 -1.0538956 -1.4884377 1.8927206 0.91834635 -1.3861097 0.68617666 -0.8199043
0.09865567 -0.9524882 -1.5105523 -0.18812144 -1.5621569 -0.08568966 0.7105779 0.33439654
-1.9667622 0.7089128 0.8453526 1.8729511 -1.4493876 0.48699462 -1.76073 0.63445497
-0.9896562 -1.5879247 0.8215077 -0.17106874 1.9207733 -0.059453174 0.18954323 0.51209307
-0.28312176 -0.8182813 -0.2697313 0.9641621 0.48436403 -0.0525755 -2.000756 -1.0289954
-0.15441951 0.5202268 -0.5156994 0.95181096 -1.0740362 -0.84047675 -0.5519553 -1.0032973
-0.1809694 0.29325065 -0.7584268 1.6241177 0.065046765 -1.4265704 0.300183 -0.21091615
0.33235142 1.7240096 0.408552 -0.47169837 -0.53924507 1.1976695 -0.21057831 -1.8520901
0.5811095 -0.7653873 -0.59255683 0.16714208 -0.3935964 0.9533144 -0.013533869 0.20324738
0.17406152 -0.61193776 1.3976657 0.12428957 0.3142285 0.8726595 -1.4395303 -0.37929824
0.06217925 0.09056986 -0.5949999 -0.6156417 0.88985085 -1.4676365 -0.3477704 -1.526982
-0.35043874 0.2993913 0.23125568 0.82588845 0.018370565 -0.5338027 0.6526998 -0.17201787
0.34918824 0.4290841 0.12229424 -1.2153548 0.31742886 -0.55018324 -0.8936393 -1.0701113
0.69735783 0.52594775 0.7781244 -0.7864309 -0.5147532 0.50089806 1.9046052 0.6882616
1.2962762 1.0942979 0.9844504 1.8821267 0.8906978 -0.8812944 0.06829502 0.23998389
00000000: e911 853f 3c9e 5cbf a5b4 5b3d 6a99 023d
00000010: 3692 86bb e031 64bf 4a0f 51bf d96b 1d3f
00000020: f3bd 533f bd81 cd3f 802e c93e ee60 87bf
00000030: d9c1 29be 8868 95be dcab a0bf 4dae 223f
00000040: 46eb 0fbe fe2d c83e 1cf8 8bbf 11d3 a03f
00000050: c98c 913f f126 b2be 9fca aa3e 7fd8 0f3e
00000060: 23ef a0bf fc9e 8abf 8409 c7bd c405 c13e
00000070: e891 febf ed91 8e3f 9868 773f bc75 04be
00000080: 9d77 ccbf 465d 02bf 132f 45bf ef96 fdbe
00000090: 10de 0ebf 6efa a23f d754 3e3c 4854 45bf
000000a0: 7fdc 0a3f 4701 e7be e7e8 183e 9897 a1bf
000000b0: f8c5 e0bf e113 163e e8a9 cd3f adfb 0d3f
000000c0: e531 b5be f4b7 c2be be5a ff3e 1bbf 7abe
000000d0: aad8 a43f a9d8 003f 8eaf 8abe 5c71 bcbd
000000e0: 3fba 1dbf a9a6 b0bd c31d ee3f 7255 93be
000000f0: da4a 45be e2ca 98be c2b6 e6be 56d4 743e
00000100: d51a 963e f39b 94bf 98ac b6be 17b9 69bf
00000110: f02d 0c3f c6ae 55bf bfb1 e03d dbc9 5b3f
00000120: 3273 7a3e 4620 5cbf 9b2f 813f 6121 a5bf
00000130: 6892 533e 46f4 8f3e 439e 893f 81c8 cabe
00000140: bfdf 403e ed2a 683f 406d 9c3e e69e 2c3f
00000150: 2875 d83d 7ccd b9bf 3e79 84bf 9564 893f
00000160: d834 493f 1d9f c63f 0691 733e d296 8fbf
00000170: 8d75 ed3d 516c 94be f432 383e 87b8 bebf
00000180: 624a 87be 8e62 553e 1686 7d3f 4a55 683f
00000190: dea8 a43f 964a 39bf a804 c3be a29c c2bf
000001a0: 7819 f4be 89f2 9f3e 03fb 46bf 1a5f 1b3f
000001b0: d693 a43e 3b2f c5bd 0b9b 4d3f 6166 9fbf
000001c0: 514d 943f 3a7b b83e 93b3 41bf 077e 96bd
000001d0: 9659 1a3f 4e7d 8d3f b1f2 e13e ba4a 58bf
000001e0: 400f f3bd db87 b1bf 6d64 bb3e 8627 093f
000001f0: 8e23 bbbe 585f bc3f b99a 61bf dc7b 903d
00000200: f3c8 09be 6c2e bd3f 33f3 fabe b15c b6be
00000210: ff83 7fbf 0d48 893f f986 4c3e 9fbc 52bf
00000220: 1c8e bb3d 0de6 86bf 2085 bebf ab44 f23f
00000230: bf18 6b3f 0b6c b1bf 46a9 2f3f 40e5 51bf
00000240: fc0b ca3d 44d6 73bf c759 c1bf e8a2 40be
00000250: c2f4 c7bf 0f7e afbd 6fe8 353f 0636 ab3e
00000260: ddbe fbbf 4f7b 353f 0769 583f ddbc ef3f
00000270: 8885 b9bf 5c57 f93e 9a5f e1bf a46b 223f
00000280: 1c5a 7dbf 1e41 cbbf 544e 523f a52c 2fbe
00000290: e6db f53f 2c85 73bd 9f17 423e 8818 033f
000002a0: 56f5 90be e27a 51bf 391a 8abe 54d3 763f
000002b0: 90fe f73e 6859 57bd 630c 00c0 1fb6 83bf
000002c0: 2620 1ebe 952d 053f e004 04bf e2a9 733f
000002d0: 057a 89bf 7c29 57bf f14c 0dbf 0c6c 80bf
000002e0: 0b50 39be f324 963e 4228 42bf 17e3 cf3f
000002f0: 3d37 853d dc99 b6bf 96b1 993e 67fa 57be
00000300: f729 aa3e 59ac dc3f ba2d d13e 7382 f1be
00000310: f70b 0abf 3c4d 993f d7a1 57be 4a11 edbf
00000320: 98c3 143f 6cf0 43bf ceb1 17bf 4b27 2b3e
00000330: 7885 c9be 6a0c 743f 29bd 5dbc 1520 503e
00000340: 2f3d 323e f4a7 1cbf b6e6 b23f 888b fe3d
00000350: 8fe2 a03e 9d66 5f3f 8742 b8bf 6133 c2be
00000360: abaf 7e3d b17c b93d ea51 18bf b29a 1dbf
00000370: 44cd 633f 83db bbbf f60e b2be 2574 c3bf
00000380: b56c b3be d149 993e 4ace 6c3e 6d6d 533f
00000390: de7d 963c 4ba7 08bf 5617 273f 7425 30be
000003a0: cdc8 b23e e9b0 db3e 6775 fa3d bf90 9bbf
000003b0: 0986 a23e cfd8 0cbf 8cc5 64bf 68f9 88bf
000003c0: 0b86 323f 83a4 063f 2933 473f 8953 49bf
000003d0: dec6 03bf db3a 003f 1aca f33f ea31 303f
000003e0: 61ec a53f f411 8c3f f104 7c3f 87e9 f03f
000003f0: c504 643f 839c 61bf 42de 8b3d 56be 753e

b_conv1 f4 [16]
0.1 0.1 0.1 0.1 0.1 0.1 0.1 0.1
0.1 0.1 0.1 0.1 0.1 0.1 0.1 0.1
00000000: cdcc cc3d cdcc cc3d cdcc cc3d cdcc cc3d
00000010: cdcc cc3d cdcc cc3d cdcc cc3d cdcc cc3d
00000020: cdcc cc3d cdcc cc3d cdcc cc3d cdcc cc3d
00000030: cdcc cc3d cdcc cc3d cdcc cc3d cdcc cc3d

b_conv2 f4 [32]
0.1 0.1 0.1 0.1 0.1 0.1 0.1 0.1
0.1 0.1 0.1 0.1 0.1 0.1 0.1 0.1
0.1 0.1 0.1 0.1 0.1 0.1 0.1 0.1
0.1 0.1 0.1 0.1 0.1 0.1 0.1 0.1
00000000: cdcc cc3d cdcc cc3d cdcc cc3d cdcc cc3d
00000010: cdcc cc3d cdcc cc3d cdcc cc3d cdcc cc3d
00000020: cdcc cc3d cdcc cc3d cdcc cc3d cdcc cc3d
00000030: cdcc cc3d cdcc cc3d cdcc cc3d cdcc cc3d
00000040: cdcc cc3d cdcc cc3d cdcc cc3d cdcc cc3d
00000050: cdcc cc3d cdcc cc3d cdcc cc3d cdcc cc3d
00000060: cdcc cc3d cdcc cc3d cdcc cc3d cdcc cc3d
00000070: cdcc cc3d cdcc cc3d cdcc cc3d cdcc cc3d

b_fc f4 [256]
0.09967437 0.1 0.099571325 0.099768296 0.100215785 0.10090972 0.09893331 0.10020991
0.09997013 0.10087779 0.1 0.09905625 0.09989919 0.10009444 0.09881462 0.10012039
0.09875987 0.09987527 0.1 0.0998691 0.1 0.099801585 0.10079908 0.09996422
0.10007214 0.099995814 0.1000622 0.10061116 0.100729495 0.1000259 0.09950845 0.100244835
0.09881269 0.10042318 0.100709885 0.10011119 0.09907073 0.10011724 0.09827413 0.10022776
0.09976107 0.1 0.100064725 0.09942192 0.10060641 0.100002185 0.10001079 0.1
0.1 0.10085233 0.101462506 0.09948984 0.100085065 0.1 0.09975442 0.099207945
0.1 0.09976246 0.1 0.09949126 0.09924229 0.10057467 0.10166309 0.09925716
0.1 0.09975592 0.10043231 0.09989168 0.10004966 0.1 0.09883551 0.100281835
0.101519 0.09993191 0.098861605 0.099873915 0.10075605 0.1 0.100358486 0.099153854
0.10139527 0.100796156 0.10027289 0.09875365 0.10044775 0.09949198 0.09879922 0.10029725
0.09933265 0.100109 0.1 0.09987629 0.10005492 0.09915292 0.10005751 0.09969381
0.099990554 0.10071308 0.100724556 0.10001248 0.09998318 0.09956612 0.10000282 0.09998553
0.09982278 0.100660324 0.10018005 0.10103861 0.09996218 0.0998225 0.10020078 0.1
0.0997717 0.09967089 0.09988585 0.1 0.100003086 0.09911715 0.10105095 0.099997126
0.09961192 0.099213615 0.09942125 0.0997975 0.09896358 0.10032441 0.09968292 0.09930546
0.1 0.1 0.099740036 0.09952769 0.10009004 0.1 0.09947322 0.10057218
0.09993183 0.10037388 0.0994552 0.09945422 0.1 0.099164255 0.099511534 0.10089021
0.09974692 0.10011092 0.10060327 0.09904663 0.099140964 0.1 0.1000339 0.1003923
0.1010069 0.100429036 0.1 0.0996584 0.10034977 0.09987797 0.0991821 0.09903983
0.1 0.09828597 0.10014442 0.100023046 0.100168556 0.0994172 0.09981119 0.09988187
0.10048476 0.09861705 0.10149531 0.10026081 0.10032157 0.10042821 0.099639185 0.10038349
0.100185044 0.1 0.1 0.10017091 0.1 0.10021215 0.10001876 0.0996973
0.1 0.099618316 0.10077336 0.1 0.09887252 0.09974506 0.09996406 0.09918668
0.100320525 0.099364646 0.10030903 0.09955863 0.099935725 0.09886585 0.10028115 0.099774376
0.09998489 0.09997611 0.09979132 0.09905083 0.10083163 0.09986466 0.1 0.10015142
0.10086165 0.099889785 0.099939905 0.100587845 0.09990289 0.099455915 0.09993566 0.1
0.10001466 0.09969815 0.09990873 0.09895338 0.09991106 0.1 0.10001368 0.0999633
0.09904227 0.099041425 0.10000112 0.10057195 0.1 0.0999601 0.1000371 0.1
0.1 0.09969471 0.100628376 0.10130695 0.10097588 0.10019369 0.101183675 0.1
0.09808195 0.10111426 0.100530155 0.10006463 0.09960466 0.09979753 0.09962006 0.09957996
0.09997702 0.1 0.10104157 0.10002657 0.101306155 0.10010332 0.10009411 0.100520365
00000000: 1322 cc3d cdcc cc3d 0dec cb3d 5253 cc3d
00000010: ef3d cd3d c1a9 ce3d 8c9d ca3d da3a cd3d
00000020: 24bd cc3d 0499 ce3d cdcc cc3d 01de ca3d
00000030: f297 cc3d 50fe cc3d 525f ca3d eb0b cd3d
00000040: 9d42 ca3d 688b cc3d cdcc cc3d 2c88 cc3d
00000050: cdcc cc3d c664 cc3d c06f ce3d 0aba cc3d
00000060: 9ff2 cc3d 9bca cc3d 69ed cc3d 390d ce3d
00000070: 444b ce3d 61da cc3d 16cb cb3d 2a4d cd3d
00000080: 4f5e ca3d abaa cd3d fc40 ce3d 1807 cd3d
00000090: 98e5 ca3d 440a cd3d f243 c93d 3644 cd3d
000000a0: 884f cc3d cdcc cc3d bcee cc3d b89d cb3d
000000b0: bc0a ce3d f2cd cc3d 75d2 cc3d cdcc cc3d
000000c0: cdcc cc3d ab8b ce3d 93cb cf3d 54c1 cb3d
000000d0: 66f9 cc3d cdcc cc3d 0c4c cc3d 892d cb3d
000000e0: cdcc cc3d 4350 cc3d cdcc cc3d 13c2 cb3d
000000f0: 8b3f cb3d 18fa cd3d bd34 d03d 5747 cb3d
00000100: cdcc cc3d d54c cc3d 74af cd3d 0294 cc3d
00000110: d6e6 cc3d cdcc cc3d 466a ca3d 9060 cd3d
00000120: 32e9 cf3d 1aa9 cc3d f477 ca3d b28a cc3d
00000130: 3059 ce3d cdcc cc3d c088 cd3d 2d11 cb3d
00000140: 53a8 cf3d 376e ce3d df5b cd3d 5b3f ca3d
00000150: 8db7 cd3d 74c2 cb3d 3f57 ca3d a568 cd3d
00000160: eb6e cb3d f305 cd3d cdcc cc3d f18b cc3d
00000170: 98e9 cc3d b010 cb3d f4ea cc3d 452c cc3d
00000180: d9c7 cc3d a942 ce3d ad48 ce3d 58d3 cc3d
00000190: fbc3 cc3d 52e9 cb3d 47ce cc3d 37c5 cc3d
000001a0: e36f cc3d 0027 ce3d 332b cd3d 55ed ce3d
000001b0: f9b8 cc3d bd6f cc3d 1136 cd3d cdcc cc3d
000001c0: 1b55 cc3d 4020 cc3d f490 cc3d cdcc cc3d
000001d0: 6bce cc3d effd ca3d cdf3 ce3d 4bcb cc3d
000001e0: 5601 cc3d 8230 cb3d 5e9d cb3d a262 cc3d
000001f0: 6bad ca3d e276 cd3d 8f26 cc3d a960 cb3d
00000200: cdcc cc3d cdcc cc3d 8144 cc3d 2cd5 cb3d
00000210: 02fc cc3d cdcc cc3d 9eb8 cb3d c9f8 cd3d
00000220: 0fa9 cc3d d290 cd3d 2baf cb3d a7ae cb3d
00000230: cdcc cc3d a116 cb3d b4cc cb3d 879f ce3d
00000240: 1d48 cc3d f406 cd3d 1609 ce3d f6d8 ca3d
00000250: 6b0a cb3d cdcc cc3d 93de cc3d 7a9a cd3d
00000260: b5dc ce3d bdad cd3d cdcc cc3d b419 cc3d
00000270: 2e84 cd3d d28c cc3d fc1f cb3d 65d5 ca3d
00000280: cdcc cc3d 284a c93d 8518 cd3d e2d8 cc3d
00000290: 2c25 cd3d 3f9b cb3d cf69 cc3d de8e cc3d
000002a0: f4ca cd3d bcf7 c93d c6dc cf3d 8a55 cd3d
000002b0: 6575 cd3d 4ead cd3d a10f cc3d dc95 cd3d
000002c0: d12d cd3d cdcc cc3d cdcc cc3d 6826 cd3d
000002d0: cdcc cc3d 073c cd3d a3d6 cc3d 192e cc3d
000002e0: cdcc cc3d b004 cc3d 4362 ce3d cdcc cc3d
000002f0: ad7d ca3d 2347 cc3d f5b9 cc3d 6322 cb3d
00000300: d974 cd3d b17f cb3d d26e cd3d 65e5 cb3d
00000310: 1aab cc3d 2e7a ca3d 3460 cd3d 8256 cc3d
00000320: e1c4 cc3d 46c0 cc3d 645f cc3d 29db ca3d
00000330: d080 ce3d d885 cc3d cdcc cc3d 301c cd3d
00000340: 8e90 ce3d 0493 cc3d 4bad cc3d 0001 ce3d
00000350: e399 cc3d 8baf cb3d 11ab cc3d cdcc cc3d
00000360: 7cd4 cc3d 8b2e cc3d f39c cc3d 12a8 ca3d
00000370: 2b9e cc3d cdcc cc3d f9d3 cc3d 8fb9 cc3d
00000380: acd6 ca3d 3bd6 ca3d 63cd cc3d abf8 cd3d
00000390: cdcc cc3d e2b7 cc3d 40e0 cc3d cdcc cc3d
000003a0: cdcc cc3d bd2c cc3d 4016 ce3d 057a cf3d
000003b0: 71cc ce3d 5932 cd3d 6339 cf3d cdcc cc3d
000003c0: 30df c83d fe14 cf3d c1e2 cd3d afee cc3d
000003d0: 87fd cb3d a662 cc3d 9a05 cc3d 94f0 cb3d
000003e0: c0c0 cc3d cdcc cc3d e2ee ce3d bbda cc3d
000003f0: 9a79 cf3d f802 cd3d 24fe cc3d 9fdd cd3d

b_out f4 [5]
0.097334646 0.09738063 0.0972951 0.09694193 0.096924804
00000000: 6357 c73d 7f6f c73d a742 c73d 7e89 c63d
00000010: 8380 c63d
