Models/Tensorflow/model2.npz (npz, 159398 bytes, 8 tensors)

b_conv1 f4 [16]
00000000: cdcc cc3d cdcc cc3d cdcc cc3d cdcc cc3d
00000010: cdcc cc3d cdcc cc3d cdcc cc3d cdcc cc3d
00000020: cdcc cc3d cdcc cc3d cdcc cc3d cdcc cc3d
00000030: cdcc cc3d cdcc cc3d cdcc cc3d cdcc cc3d
0.1 0.1 0.1 0.1 0.1 0.1 0.1 0.1
0.1 0.1 0.1 0.1 0.1 0.1 0.1 0.1

b_out f4 [5]
00000000: a9bd cc3d edba cc3d 68d3 cc3d 10e0 cc3d
00000010: f5c8 cc3d
0.09997112 0.09996591 0.1000126 0.10003674 0.09999267

W_fc f4 [128, 256]
00000000: f888 5bbf 8957 49be 0749 0e3e cc52 9cbf
00000010: faeb 54be 33a1 e3bf 54c4 e4be 3391 e5bd
00000020: f88b 8cbf 55e0 dc3e 8f6c 2dbd c6b0 8c3e
00000030: 2539 b8bc 32c0 523f 4c8c 833e fee6 153f
00000040: 6210 69bd 9e9e 2bbe e9d2 c03d bf84 fc3f
00000050: 00fb 933e ce4e 88bd 2560 acbd 297e e83f
00000060: 7b6e c13e cd94 51be dc13 d83e 22bf 05bf
00000070: c5e3 323f 5cf1 f53f b98a 503d e07d 223f
00000080: 1387 ad3e 8d24 52be 732e ad3e ed82 0ebf
00000090: 74bb dbbe b772 be3f a17f dfbf 547d 9dbf
000000a0: a10c d33f 611c c0bf 8b09 74be 9a8b 27bd
000000b0: f757 89bf f311 323e 42a7 a03d ebad dd3e
000000c0: 417c cabe 890d fdbf 4b6a debf 9b46 98be
000000d0: 6fc2 57bf 5e75 db3f 6b4c edbe c3bc cbbe
000000e0: dc9d 82bf 26a2 24be 8305 3e3f de31 f4bd
000000f0: 9ed2 8c3f f6ba e13f 44d1 33bd b26f 5d3f
00000100: ea5f 3ebe 2f3e a0be 5378 873f e021 0e3f
00000110: 6f10 cdbf a249 7b3f 7183 833f 3dbf 343e
00000120: 99b6 a0bf 8aca e33e c2d5 d43f c1d2 a1bd
00000130: 4368 53bf a3ed d93e 6cce 2c3f 2f6c 853f
00000140: 4b39 623f 7c3f 113f 3198 b53f 8a16 4d3f
00000150: 2772 db3c c8bf 79bf fd22 04bf 5877 403f
00000160: ad0e 4abf 41b5 03be d904 71be fcde a1bf
00000170: 8d83 be3f f8db 58bf 16fa 603e 7cec fbbf
00000180: 1c87 383f 6990 c6be f85f e9be c7d1 743f
00000190: b8b4 713e 626b 623f 86b0 963f 69af 2d3e
000001a0: 15b8 0c3e 0a1f 85be 540f 223f 501c cfbf
000001b0: 45b0 54bf f85e 7cbe 070d a03f 90d2 483f
000001c0: f773 53bf d7a4 283f 40f1 633f c4ba a33d
000001d0: 7c82 953f 560d b4bd 5fb6 c7bf 82fc d13f
000001e0: f080 ba3e e495 1abf 7eb4 b9bf bd2d b33a
000001f0: 57ed c6be cd46 03bf bc4f 7d3e b04c 5bbf
00000200: 9e36 2f3f aab2 e53e 4864 943f 3dcf 37be
00000210: dc10 483f 2291 53bd 5726 353f abe7 e03f
00000220: 3014 b53f 26de 2a3f 58a4 d7bf e811 4f3d
00000230: bb1d 92be b44f 7e3f f508 833f 5f04 05be
00000240: 1fe8 75be 5375 e0bd 793e dd3e 070f 2bbf
00000250: 3085 c5be be8c 7c3e 8a76 413f f83b e13e
00000260: 99c2 283f cb7f b33f 07ee 5a3f 7c78 633f
00000270: 4dff ad3f e0c7 21bf 4e5a c93d f3d8 adbf
00000280: 7656 2f3f c7f0 3c3f 2db6 d6be ff92 633f
00000290: 5935 a13f 33a8 1a3f 7306 e53d 0818 cebe
000002a0: a83a 4dbe 1a38 843f 8c5b 8fbf 7aa8 9ebe
000002b0: 6bb9 cc3e 2cc5 d13f 31bc 41bf 116f 8abf
000002c0: 0368 2cbe f57d f83c ff30 833e 9498 b13e
000002d0: 7ae9 91bd 31e2 2cbf 007c 29bf dbaf 2cbf
000002e0: 4564 193e dec1 b2be 5f5b 99be 27b9 d43f
000002f0: 3758 6a3e b3ad afbe f855 8ebf 0ea6 503f
00000300: 5c3e 30bf dccb f6be dd1c 883e 29ca 0dbf
00000310: c051 d6be 7924 e33e 0575 29bf 7edb 9c3e
00000320: 3405 2abe 603e f6bd 3f29 97bf f2d3 c13e
00000330: 6cab ac3f 4e2e 81bc 4767 f6bd 3380 e5bd
00000340: 0eef e9be 0e0d 4b3f 7cad 323f 5f7b aebf
00000350: 9810 1dbf 9740 82bf 3d5a 463e 4717 123f
00000360: b050 813f 4fc8 e13b 63ed c9bf f184 253f
00000370: 326c 873f 5e85 303e 5ae4 6a3d 9535 9dbf
00000380: e20f ae3f d951 ad3d c913 7b3e 4120 67bf
00000390: e135 023f e242 54bf 5f73 93bf ac5d f0be
000003a0: a501 4bbf 6945 c93f 194d 8cbf 021e da3f
000003b0: d141 a33f b49d cf3f fd3e 38be f0e0 973f
000003c0: 40aa 5d3e cd2d 8a3f ed32 4d3e 1733 513f
000003d0: 2ad9 b3bf f988 63bf 532b ba3e dabc ebbf
000003e0: 5913 b2bd 5a16 1b3f 010d 383e 43d7 9cbf
000003f0: a8e3 94bf 544b b0bf f888 b2bd 3442 fc3f
-0.8575587 -0.19662298 0.13895045 -1.2212768 -0.20793143 -1.7783569 -0.44681036 -0.11209335
-1.0980215 0.43139902 -0.042339858 0.27478617 -0.022488186 0.82324517 0.25692976 0.5855559
-0.05690039 -0.16759726 0.09415228 1.9728011 0.28902435 -0.06655656 -0.084167756 1.8163501
0.37779602 -0.20466919 0.42202652 -0.5224477 0.698788 1.9214282 0.050913546 0.6347332
0.33892116 -0.20521756 0.338245 -0.55668527 -0.42916453 1.4878758 -1.7460824 -1.2303872
1.6488229 -1.500866 -0.23831765 -0.04090462 -1.072997 0.1738966 0.07844402 0.4329675
-0.39547923 -1.9769756 -1.7376188 -0.29741368 -0.8428106 1.7145193 -0.46347365 -0.3979245
-1.0204425 -0.1607748 0.7422716 -0.11923574 1.1001775 1.7635181 -0.043900743 0.8649856
-0.18591276 -0.31297442 1.0583595 0.5552044 -1.602064 0.9815923 1.0274488 0.17651077
-1.2555724 0.44490463 1.6627734 -0.07901526 -0.82580966 0.42564115 0.67502475 1.042364
0.8836867 0.56737494 1.418707 0.80112517 0.02678783 -0.9755826 -0.5161589 0.75182104
-0.78928643 -0.12862112 -0.23537005 -1.2646174 1.4883896 -0.84710646 0.219704 -1.9681544
0.7208116 -0.3878205 -0.4558103 0.95632595 0.23604095 0.88445103 1.1772621 0.16961445
0.13742097 -0.26000243 0.6330464 -1.6180515 -0.83081466 -0.24645603 1.2503976 0.7844629
-0.82598823 0.65876526 0.89039993 0.07994607 1.1680446 -0.08791606 -1.560253 1.6405184
0.36426497 -0.60384965 -1.4508207 0.0013670247 -0.3885295 -0.5127991 0.24737448 -0.8566389
0.68442714 0.44862872 1.1593103 -0.17950149 0.78150725 -0.05165208 0.70761627 1.75707
1.4146786 0.6674522 -1.6847029 0.050554186 -0.28538308 0.9934037 1.0237108 -0.12989949
-0.24014328 -0.10959878 0.43211725 -0.66819805 -0.38578176 0.24663064 0.755715 0.43991065
0.6592193 1.4023374 0.8551945 0.8885572 1.3593537 -0.6319561 0.098316774 -1.3581833
0.68491304 0.738049 -0.41935864 0.88896173 1.2594405 0.604129 0.11182871 -0.4025271
-0.20041907 1.0329621 -1.1199813 -0.30987912 0.39985213 1.6388297 -0.7567778 -1.0815145
-0.16836552 0.030333498 0.2562332 0.3468672 -0.0712461 -0.6753264 -0.66204834 -0.67455834
0.14979656 -0.34913534 -0.29952523 1.6619004 0.22885214 -0.3431221 -1.1119986 0.8150338
-0.6884515 -0.48202407 0.2658452 -0.55386597 -0.41859245 0.44363764 -0.6619418 0.3063621
-0.16603547 -0.12023616 -1.1809462 0.37857014 1.3489814 -0.01576915 -0.12031417 -0.11206093
-0.45690197 0.79316795 0.69795966 -1.36314 -0.61353445 -1.0175961 0.1937036 0.5706677
1.0102749 0.0068903337 -1.577557 0.6465598 1.0579894 0.17238376 0.05734668 -1.2281977
1.3598597 0.08462877 0.24519266 -0.9028359 0.5086346 -0.82914555 -1.1519583 -0.46946466
-0.79299384 1.5724307 -1.0961028 1.7040408 1.275446 1.6220002 -0.17992778 1.186552
0.21646976 1.0795227 0.20038958 0.8171858 -1.4050648 -0.8888088 0.3636118 -1.8417008
-0.086950965 0.6058098 0.1797371 -1.2253193 -1.1631975 -1.3772988 -0.08717531 1.9707704

b_fc f4 [256]
00000000: 92dd cc3d cdcc cc3d cdcc cc3d cdcc cc3d
00000010: cdcc cc3d e2b5 cc3d cdcc cc3d 75d2 cc3d
00000020: adb9 cc3d d6ad cc3d 9fdc cc3d 63fd cc3d
00000030: cdcc cc3d cdcc cc3d 66a9 cc3d cdcc cc3d
00000040: 27c5 cc3d 6605 cd3d c8bf cc3d 51f8 cc3d
00000050: 28a8 cc3d 60e3 cc3d cdcc cc3d c7d5 cc3d
00000060: bbf3 cc3d 73be cc3d cdcc cc3d cdcc cc3d
00000070: cdcc cc3d d3d4 cc3d cdcc cc3d cdcc cc3d
00000080: 6ef2 cc3d cdcc cc3d 4bca cc3d 08d4 cc3d
00000090: cdcc cc3d 06e0 cc3d cdcc cc3d cdcc cc3d
000000a0: cdcc cc3d e1c1 cc3d b4cd cc3d abc7 cc3d
000000b0: cdcc cc3d 19cd cc3d aecf cc3d 38c8 cc3d
000000c0: c2af cc3d 6e82 cc3d cdcc cc3d cdcc cc3d
000000d0: fac3 cc3d cdcc cc3d cdcc cc3d cdcc cc3d
000000e0: dddb cc3d 1ed1 cc3d fec2 cc3d 14e5 cc3d
000000f0: cebb cc3d 66ec cc3d 10ca cc3d 23c5 cc3d
00000100: cdcc cc3d cdcc cc3d cdcc cc3d 39db cc3d
00000110: cdcc cc3d 928f cc3d b2b3 cc3d f7d2 cc3d
00000120: cdcc cc3d 90ef cc3d cdcc cc3d cdcc cc3d
00000130: 9f04 cd3d f6d6 cc3d 33d9 cc3d cdcc cc3d
00000140: c7c4 cc3d b5cd cc3d cdcc cc3d cdcc cc3d
00000150: cdcc cc3d 86db cc3d cdcc cc3d cdc9 cc3d
00000160: 0ae6 cc3d b997 cc3d cdcc cc3d b6a2 cc3d
00000170: c9c8 cc3d cdcc cc3d 1591 cc3d cdcc cc3d
00000180: ece0 cc3d cdcc cc3d f26a cc3d cdcc cc3d
00000190: cdcc cc3d e4f5 cc3d cdcc cc3d 33d0 cc3d
000001a0: 7dbc cc3d 81ad cc3d cdcc cc3d cdcc cc3d
000001b0: cdcc cc3d cdcc cc3d 3ae1 cc3d bbc4 cc3d
000001c0: cdcc cc3d cdcc cc3d cdcc cc3d 96c9 cc3d
000001d0: 5cda cc3d 23da cc3d f2bf cc3d cdcc cc3d
000001e0: 7ec5 cc3d cdcc cc3d cdcc cc3d cdcc cc3d
000001f0: 9db7 cc3d 2e05 cd3d 83d0 cc3d 31d0 cc3d
00000200: cdcc cc3d 55c7 cc3d cdcc cc3d bbb7 cc3d
00000210: 79c6 cc3d cdcc cc3d c4d9 cc3d 34b3 cc3d
00000220: cdcc cc3d cdcc cc3d 5df2 cc3d 0aef cc3d
00000230: cea8 cc3d cdcc cc3d e8ed cc3d 99bf cc3d
00000240: cdcc cc3d edc5 cc3d cdcc cc3d cdcc cc3d
00000250: 51e9 cc3d 05d0 cc3d 8cb4 cc3d ae9f cc3d
00000260: cdcc cc3d a600 cd3d 5de5 cc3d 71af cc3d
00000270: d6c3 cc3d cdcc cc3d 4ec2 cc3d 5fac cc3d
00000280: cdcc cc3d cdcc cc3d cdcc cc3d e3c3 cc3d
00000290: cdcc cc3d cdcc cc3d cdcc cc3d cdcc cc3d
000002a0: cdcc cc3d 41cd cc3d 24f7 cc3d cdcc cc3d
000002b0: 63d0 cc3d cdcc cc3d cdcc cc3d 4bd2 cc3d
000002c0: 59de cc3d 15e6 cc3d cdcc cc3d cdcc cc3d
000002d0: 80f1 cc3d cdcc cc3d d7be cc3d 60d3 cc3d
000002e0: 67d5 cc3d a2d1 cc3d 1ce8 cc3d cbb6 cc3d
000002f0: 04a3 cc3d 7f06 cd3d 15f3 cc3d cdcc cc3d
00000300: 5bb1 cc3d cdcc cc3d 3bc6 cc3d cdcc cc3d
00000310: decd cc3d ce12 cd3d cdcc cc3d cdcc cc3d
00000320: cdcc cc3d fec1 cc3d cdcc cc3d cdcc cc3d
00000330: bbb5 cc3d 89e3 cc3d cdcc cc3d 2ed9 cc3d
00000340: cdcc cc3d 72de cc3d 5ab2 cc3d cdcc cc3d
00000350: cab9 cc3d cdc4 cc3d 9bb7 cc3d cdcc cc3d
00000360: 8a8c cc3d cdcc cc3d cdcc cc3d a4ca cc3d
00000370: cdcc cc3d cdcc cc3d 3bf7 cc3d cca6 cc3d
00000380: cdcc cc3d cdcc cc3d cdcc cc3d cdcc cc3d
00000390: cdcc cc3d cdcc cc3d cdcc cc3d 86b6 cc3d
000003a0: cdcc cc3d 9bb7 cc3d 51a4 cc3d c9ec cc3d
000003b0: cdcc cc3d 86d2 cc3d 1ade cc3d cdcc cc3d
000003c0: 99bd cc3d cdcc cc3d cdcc cc3d cdcc cc3d
000003d0: cdcc cc3d 62f5 cc3d cdcc cc3d cdcc cc3d
000003e0: cdcc cc3d 15eb cc3d cdcc cc3d a1da cc3d
000003f0: cdcc cc3d cdcc cc3d cdcc cc3d 0ed1 cc3d
0.10003199 0.1 0.1 0.1 0.1 0.09995629 0.1 0.10001079
0.09996352 0.09994094 0.10003018 0.10009267 0.1 0.1 0.09993248 0.1
0.09998541 0.10010795 0.09997517 0.100083 0.09993011 0.10004306 0.1 0.10001712
0.100074254 0.09997263 0.1 0.1 0.1 0.100015305 0.1 0.1
0.10007177 0.1 0.09999522 0.10001379 0.1 0.100036666 0.1 0.1
0.1 0.09997917 0.10000172 0.09999021 0.1 0.10000057 0.10000549 0.09999126
0.09994461 0.09985815 0.1 0.1 0.09998317 0.1 0.1 0.1
0.10002873 0.100008234 0.09998129 0.10004631 0.099967584 0.10006027 0.09999478 0.09998538
0.1 0.1 0.1 0.10002751 0.1 0.09988321 0.09995212 0.10001176
0.1 0.100066304 0.1 0.1 0.10010647 0.10001938 0.10002365 0.1
0.0999847 0.10000173 0.1 0.1 0.1 0.10002808 0.1 0.09999428
0.10004814 0.09989876 0.1 0.09991972 0.09999234 0.1 0.0998861 0.1
0.10003838 0.1 0.09981336 0.1 0.1 0.100078374 0.1 0.10000648
0.09996889 0.09994031 0.1 0.1 0.1 0.1 0.10003896 0.09998461
0.1 0.1 0.1 0.09999387 0.10002586 0.10002544 0.09997548 0.1
0.09998606 0.1 0.1 0.1 0.09995959 0.100107536 0.10000708 0.10000647
0.1 0.09998957 0.1 0.09995981 0.09998793 0.1 0.10002473 0.09995118
0.1 0.1 0.100071646 0.100065306 0.099931344 0.1 0.100063145 0.09997482
0.1 0.09998689 0.1 0.1 0.10005439 0.10000614 0.09995374 0.09991394
0.1 0.10009889 0.10004685 0.099944 0.0999829 0.1 0.09997998 0.09993815
0.1 0.1 0.1 0.099983 0.1 0.1 0.1 0.1
0.1 0.100000866 0.10008076 0.1 0.10000684 0.1 0.1 0.10001048
0.10003347 0.10004822 0.1 0.1 0.10007 0.1 0.09997337 0.10001254
0.10001641 0.10000922 0.10005209 0.099958025 0.0999203 0.10011005 0.10007302 0.1
0.09994765 0.1 0.09998747 0.1 0.100002035 0.10013352 0.1 0.1
0.1 0.099979386 0.1 0.1 0.099956 0.100043364 0.1 0.10002361
0.1 0.100033656 0.09994955 0.1 0.09996374 0.09998474 0.099959575 0.1
0.09987743 0.1 0.1 0.09999588 0.1 0.1 0.10008093 0.099927515
0.1 0.1 0.1 0.1 0.1 0.1 0.1 0.09995751
0.1 0.099959575 0.09992278 0.10006101 0.1 0.10001092 0.100033 0.1
0.099971004 0.1 0.1 0.1 0.1 0.100077406 0.1 0.1
0.1 0.10005776 0.1 0.10002638 0.1 0.1 0.1 0.100008115

W_out f4 [256, 5]
00000000: f7f2 873f 1046 61bf 5363 e53d 6701 453e
00000010: b0df 25be df31 64bf 4a0f 51bf d96b 1d3f
00000020: f3bd 533f bd81 cd3f ae7b d53e 86c8 88bf
00000030: 5d80 2abe 91cd 9abe de06 a3bf e279 213f
00000040: 9e3a 13be 9a78 c63e a773 8cbf 5afe a13f
00000050: f09a 953f c299 a4be e24e 963e 801d 9c3d
00000060: 7737 9cbf 3bce 83bf e435 9ebd bd57 b13e
00000070: df97 fbbf 55d3 873f 5516 893f 73f2 0fbe
00000080: 2e06 cfbf 0130 04bf 894e 59bf 397c f6be
00000090: dd21 01bf 1ab1 aa3f 3279 d03c c589 53bf
000000a0: 8e38 013f ce31 dcbe 96a1 493e 1707 aebf
000000b0: 8eea e7bf c923 343e 840a be3f 2507 243f
000000c0: f48f c2be e03a d6be 3c5b ff3e 8f90 7dbe
000000d0: 48e2 a43f 680a 033f d197 8abe e369 b8bd
000000e0: 9958 23bf 8afe 49bc e92a ec3f a347 80be
000000f0: c087 4cbe a4cf 9abe aea7 ebbe 2913 813e
00000100: 76a7 983e 1032 9bbf 4d53 babe 9ef7 63bf
00000110: 1932 083f 7183 47bf fddb 583e 549b 523f
00000120: 6bc8 563e d1e6 43bf 3dbd 673f bc54 a7bf
00000130: a96b 753e c803 a63e 4f32 883f 2c28 c2be
00000140: 3d6f 573e bb46 853f c5f7 3c3e 1f65 3c3f
00000150: 875e 2d3d 0a0b babf f3a6 84bf 3091 893f
00000160: d027 493f bda4 c63f fba4 743e 0496 8fbf
00000170: 891a ed3d e46f 91be 59e6 383e 65b6 bfbf
00000180: 1f98 89be 9d42 723e a558 773f fc4a 6d3f
00000190: 1458 a43f da17 3abf 118d c2be 5971 c2bf
000001a0: a57d f4be fe69 a63e cdac 44bf 4f3a 233f
000001b0: 67ba f63e 2508 9bbe b5c1 553f 46b4 adbf
000001c0: b0ec 9a3f 3553 f53e c52b 5dbf 9646 cbbd
000001d0: c1d2 123f f053 913f 635b e03e ef02 55bf
000001e0: d346 f9bd 0cba b0bf b761 dc3e 2ff6 033f
000001f0: ae25 b9be 603a bc3f d2d3 61bf 2a48 913d
00000200: 11a7 0abe b620 bd3f 15d2 fabe 752d b6be
00000210: 8afc 7ebf 2334 893f 0de6 493e 5275 59bf
00000220: 127a 983d 4548 4bbf 0ec3 c4bf ce62 ed3f
00000230: 380a 733f df87 b7bf 16c7 483f 51c3 52bf
00000240: 208a 233e d494 53bf ec13 b1bf f05d 8fbd
00000250: c88e c1bf 8f4d 69be af64 1e3f 7a3f 6f3e
00000260: b687 f8bf 32f8 223f 653d 8f3f 14df ef3f
00000270: 894e b9bf 3c90 f83e 911e e1bf 1f32 223f
00000280: 8aba 69bf 614c c9bf 53f5 633f 60be f1bd
00000290: 33b9 e03f b787 71bd 51be 1f3d c250 f13e
000002a0: fe8b 95be ba7e 2bbf d39b 91be 0670 753f
000002b0: 0c06 b33e 4219 4d3d fd09 febf 1ed9 7bbf
000002c0: 818a 11be 9ecb 073f b92a 00bf 059f 683f
000002d0: 2106 8bbf 563c 59bf 3d6c 04bf 3c4f 7bbf
000002e0: 0eb5 75be bf09 943e a5d6 43bf 42b8 cd3f
000002f0: 907c 843d e290 b4bf e1c9 733e 4217 d0be
00000300: 2566 c03e 0ba8 d93f e56e 0e3f 98d7 e9be
00000310: 51ce 33bf 0401 953f 13d7 3fbe 1b25 ddbf
00000320: c51d 1a3f af8d 47bf 78a2 24bf bd5c 283e
00000330: 18c6 b5be e5f9 733f 0490 64bc 9430 503e
00000340: 97bd 313e 16b3 1cbf 9151 b43f 1dea f63d
00000350: 0269 9a3e b116 613f 4ad1 b7bf 1589 b1be
00000360: 19ce 0e3e 871a 883d ba45 05bf 5210 2bbf
00000370: 9774 583f 1f0e c4bf 17c5 8dbe 8e19 cebf
00000380: 0d82 cabe 5d0a 973e 0fb9 713e 9290 523f
00000390: 4144 bf3c e479 09bf dfeb 253f c015 36be
000003a0: d245 b43e 143b da3e 4455 fc3d f989 9cbf
000003b0: e2f0 9d3e 4a05 0cbf 46ca 62bf dc3d 89bf
000003c0: 726c 2f3f cde3 023f 2f91 483f 289e 44bf
000003d0: 467c 04bf 3e23 ea3e 3aaf e63f 4881 363f
000003e0: 5417 b43f dae1 8b3f 0064 6f3f 1399 f83f
000003f0: 7dfd 3c3f d36e 61bf 4ad8 583d 646c ad3e
1.0621022 -0.8799753 0.11200585 0.19238816 -0.16198611 -0.891386 -0.81663954 0.6149269
0.82711715 1.6055218 0.41695923 -1.0686195 -0.16650529 -0.3023496 -1.2736471 0.63076603
-0.1437783 0.38763887 -1.0972794 1.2655747 1.1687908 -0.32148558 0.29357058 0.07622814
-1.2204427 -1.0297312 -0.077251226 0.34637251 -1.9655722 1.0611368 1.070994 -0.14057331
-1.6173761 -0.5163575 -0.8488546 -0.4814165 -0.50442296 1.3335297 0.025448415 -0.82632095
0.5047692 -0.43006748 0.19690546 -1.3595914 -1.8118455 0.17591776 1.4846959 0.640734
-0.38000453 -0.41841793 0.49874294 -0.24762176 1.2881556 0.51187754 -0.27068952 -0.09004571
-0.63807064 -0.012328753 1.8450595 -0.25054654 -0.1997366 -0.30236542 -0.46026367 0.2520993
0.29815263 -1.2124653 -0.36391678 -0.8904971 0.5320144 -0.7793494 0.21177669 0.8226826
0.20974891 -0.7652407 0.9052313 -1.3072734 0.2396685 0.3242476 1.0640353 -0.37921274
0.21038528 1.041221 0.18453892 0.735918 0.042326476 -1.4534619 -1.0363449 1.0747433
0.78576374 1.5519024 0.2389106 -1.1217656 0.11577327 -0.28405678 0.1805662 -1.4977537
-0.26873872 0.23658223 0.96619636 0.9269254 1.2839379 -0.72692645 -0.3799825 -1.5190841
-0.4775211 0.3250274 -0.76826173 0.63760847 0.4818909 -0.3027965 0.834987 -1.357064
1.2103481 0.47915044 -0.8639491 -0.099255726 0.57352835 1.1353741 0.43819723 -0.832076
-0.12171712 -1.3806777 0.430433 0.5154752 -0.3616156 1.4705315 -0.8821384 0.07093842
-0.13540293 1.4775608 -0.48988405 -0.35581556 -0.99604094 1.0719036 0.19716664 -0.8494464
0.07445158 -0.7940715 -1.5372026 1.8545778 0.9493747 -1.433834 0.7842878 -0.8232928
0.1597066 -0.8264897 -1.3834205 -0.07000339 -1.5121698 -0.22783493 0.6187238 0.23364058
-1.9416416 0.63659966 1.1190611 1.8739953 -1.4477092 0.48547542 -1.7587453 0.6335773
-0.9130026 -1.5726434 0.8904621 -0.11803889 1.7556518 -0.05896732 0.03899986 0.47131926
-0.29208368 -0.66990244 -0.28439197 0.9587406 0.3496555 0.050072916 -1.9846798 -0.9837817
-0.14212991 0.5304507 -0.5006519 0.90867645 -1.0861245 -0.8485769 -0.5172766 -0.9816778
-0.23994848 0.28913686 -0.76499397 1.6071856 0.06469071 -1.4106715 0.2380748 -0.40642744
0.3757793 1.7004408 0.5563796 -0.45672297 -0.7023669 1.1640935 -0.18734388 -1.7276949
0.60201675 -0.77950567 -0.6431041 0.16441627 -0.35502696 0.95303184 -0.013950352 0.20331031
0.17357479 -0.61210763 1.4087392 0.12056372 0.3015824 0.8792525 -1.4360745 -0.34674898
0.13945808 0.06645685 -0.5205952 -0.6682178 0.845529 -1.531681 -0.2768943 -1.6101549
-0.39552346 0.29500094 0.2360575 0.82251847 0.023347976 -0.53701615 0.64813036 -0.17781734
0.3520952 0.42623198 0.123209506 -1.2229606 0.30847842 -0.5469557 -0.88589895 -1.0722003
0.6852485 0.51128846 0.7834653 -0.7680383 -0.51752126 0.45730013 1.8022225 0.7129102
1.4069619 1.09283 0.9351196 1.9421715 0.7382429 -0.8805973 0.052940644 0.33871758

W_conv2 f4 [3, 3, 16, 32]
00000000: 9ea3 4fbf dac4 bd3f b162 863d b139 c73d
00000010: 948c 243f 6ffd cd3f b923 273e 3c1f c2bf
00000020: 0dea ad3f 1147 0a3f f6cc 5bbf c9e7 82bb
00000030: 0b09 0e3f 0242 08be b70a 38bd 59dc 2b3f
00000040: 8a9a 55be b81f a93b bd74 a03e be01 193f
00000050: d3d7 babe d626 94bd 4eb9 0cbf 8a43 cf3d
00000060: d3ac 2cbf 839e 913e c25c a53e 6acb 9a3f
00000070: f0f6 b3bf 06b4 e53b 8ba4 b6be 0d1d 9a3e
00000080: a2d7 d0bf 77b4 773e 33de 033f 7394 d6be
00000090: 60ca 9e3f 9103 e63e 3743 a93e 5bd4 423e
000000a0: 88c1 2abf 5c91 d4be 5566 e93f 7774 2e3f
000000b0: 2b5e fdbe 774d 87bf d370 5dbf 6b7d f7bf
000000c0: 3a5b dc3e 919b 023d 4749 f23d 29b3 c6bf
000000d0: daf0 253f 8fac 453f e781 46be ce55 cebf
000000e0: 72a8 263f 322f d8bf 4fe9 c9bf 37dc 253f
000000f0: 2100 993f ee47 1d3e 0d53 3bbf 20fa a73f
00000100: f4b9 b13e c904 f8bf e612 b9bf 6a5e afbf
00000110: 2d6b d43f 26f6 213f 9543 f73e c840 493f
00000120: f634 b93e 0460 78bf 054c 97bc 301b b93d
00000130: fd0a 933e ef15 59bf 5d19 86bf a27f 8ebf
00000140: afaa 44bf 6d0d e6be 2e2e e13e 662f 7cbe
00000150: 22d9 02bf e7d4 7bbe 2b97 213f c643 18bf
00000160: 0321 093f d20a b73e addb 883e 1208 1abe
00000170: 28a2 e73f c9f1 d6bf f58c b43d 55a9 e6bf
00000180: b974 89be e225 3a3f 5b5a d33e 8606 ffbf
00000190: 5839 a7be 8dd2 7d3f bae0 0e3e 7501 a13f
000001a0: cf81 193f 3c70 0b3f bf7a cd3e bfc9 723e
000001b0: 8285 913e 8476 8bbe db18 9a3e f8ba 8bbf
000001c0: 01de 073d 0fd1 04be 9f4f 2dbf 7653 65bf
000001d0: 461b 94bf 52b1 95bf 61e7 a7be 02a6 4fbe
000001e0: 5d1b b33f 3cdb 5b3e e71e 583f d96b a7bf
000001f0: 822a 44bf 96ea 84be 5f63 31bf 4176 823f
00000200: 6e05 91bf 368b e43e 5fb7 91bf 34b7 393f
00000210: 4ed2 47be 80ce 8abc 08d7 b0bf 59de 923f
00000220: 00b9 aa3f 28ee 4bbe 499f 9ebf 8d9c b33e
00000230: a207 40be 76ef 373e 9be5 e7be ff2f fd3e
00000240: 24c9 663e 60d9 64be d132 e1bd 2620 043d
00000250: f0ef 893f 9c28 3b3f 8239 1cbf a2b1 a9bf
00000260: 7f1a 23be ef87 acbf 119d 3f3f 17ca 6fbf
00000270: 25f5 853f 8ee8 a9bb 55ab bebf 94d4 933f
00000280: 838a 1c3f 32ab 39bf dfcb 1e3f 65f1 f63f
00000290: 6b69 5bbf 541e 81bf 7e9f a2bc 1cc6 4b3f
000002a0: c557 ec3e 4d08 40bf 92d2 f4bd 73d0 7fbd
000002b0: 09c1 c4bf 0d81 5cbf ddb7 56bf 49e3 693c
000002c0: dcbc 9abe 48dc a3bf 0f75 19bf aaa5 2fbe
000002d0: cffb bfbf 3cde 62bf 94e2 593d a099 64bf
000002e0: 1ed1 abbf 7792 f4bf c810 3a3f 3f70 a13e
000002f0: 9421 cd3f cfa3 debe 6e76 633f ced6 633f
00000300: 0ace 873f 1bbd 753f 19bc b5bf f941 97bd
00000310: e544 a7bf 5041 e0bc 133c 04bf 5d34 ab3d
00000320: fe63 91be f214 643f 40e7 653f 625f 373f
00000330: e07f 45bf e387 10bf ee4d 2a3f 7db9 ddbf
00000340: 2eb8 25bf 59d0 603f 8133 5f3f ce5c 913e
00000350: 1021 d13f c82d b6be 276d ba3e 456a b1bf
00000360: cca5 703e 5bfd 9a3f afa9 4cbf d5c0 fd3f
00000370: 3660 813f 36d7 d53d fa75 903f 8f97 d43d
00000380: cd6b 9cbf dbfd dd3f b300 a6bd 433f ce3e
00000390: 7d84 ea3f c561 2b3e e71c 96bd 33fe 2d3f
000003a0: 256b 85bd 23ac acbf b967 6dbf 01b8 8c3f
000003b0: 59bd bbbe 06d5 d93f 4901 5cbf adfa a6bf
000003c0: 5fec 4f3f 60c8 843f 6031 32bf 06ac f5be
000003d0: 7a58 c23f 0779 a1be 4609 173f b4f5 993f
000003e0: fd73 233f 1a1c d4be af57 73be 221f 073f
000003f0: f3d4 dcbe 4985 ddbe 8210 bbbd 8284 ddbf
-0.81109035 1.4825699 0.06561793 0.09727801 0.64277005 1.6092967 0.16322221 -1.5165782
1.3587052 0.5401469 -0.8585962 -0.003994916 0.5548255 -0.1330643 -0.044932093 0.671331
-0.20859733 0.005161252 0.31339064 0.59768283 -0.36492786 -0.0723397 -0.5497025 0.10120304
-0.6745121 0.28441247 0.3229733 1.2093327 -1.4059734 0.007009986 -0.3567241 0.3010029
-1.6315806 0.24189936 0.51510924 -0.41910133 1.240551 0.44924596 0.33059093 0.1902632
-0.66701555 -0.4151715 1.8234354 0.6814646 -0.49485907 -1.0570515 -0.8650028 -1.933515
0.4303835 0.03188664 0.11830383 -1.5523425 0.64820635 0.7721643 -0.19385491 -1.6119936
0.6510078 -1.6889403 -1.5774325 0.64789146 1.1953164 0.1535947 -0.731736 1.3123207
0.34712183 -1.937646 -1.4458892 -1.3700688 1.6595207 0.6326622 0.48293748 0.78614473
0.36173218 -0.9702151 -0.018468866 0.09038389 0.2871932 -0.84799093 -1.047649 -1.11327
-0.7682294 -0.44932118 0.43980545 -0.24627456 -0.5111257 -0.24592935 0.6312129 -0.59478414
0.53565997 0.35750443 0.267301 -0.15042141 1.8096361 -1.6792537 0.08815948 -1.8020426
-0.26846865 0.72714055 0.41279873 -1.9923866 -0.32660937 0.991494 0.13952914 1.257857
0.599637 0.5446813 0.4013271 0.23709773 0.2842217 -0.27238858 0.30097088 -1.0916433
0.033170704 -0.12970375 -0.6769962 -0.89580476 -1.1570823 -1.1694739 -0.32793716 -0.2027817
1.3992726 0.2147035 0.84422153 -1.3079787 -0.7662736 -0.25960225 -0.69292253 1.0192338
-1.1329782 0.4463746 -1.1384085 0.7254517 -0.19513819 -0.01694417 -1.3815622 1.1474105
1.3337708 -0.19915068 -1.239236 0.35080376 -0.18752912 0.17962441 -0.45292363 0.4945068
0.22537667 -0.22348547 -0.109960206 0.03225722 1.0776348 0.7310884 -0.6102525 -1.3257334
-0.15928076 -1.3478984 0.7484904 -0.9366774 1.0465437 -0.0051851934 -1.4896036 1.1549249
0.6114885 -0.7252685 0.6202983 1.9292418 -0.8570773 -1.008738 -0.019851442 0.79599166
0.46160713 -0.75012666 -0.119542256 -0.062454652 -1.537141 -0.86134416 -0.83874303 0.01427538
-0.30222213 -1.28016 -0.5994424 -0.1715304 -1.4998721 -0.8862035 0.053194597 -0.89296913
-1.3423193 -1.9107198 0.72681856 0.3153095 1.6025872 -0.4348435 0.88852584 0.8899964
1.0609753 0.9599168 -1.4198028 -0.0738563 -1.30679 -0.027374893 -0.51654166 0.08359597
-0.283966 0.8909446 0.89805984 0.7162992 -0.77148247 -0.56457347 0.6652516 -1.7322232
-0.6473416 0.87817913 0.87187964 0.28391117 1.6338215 -0.35581803 0.36411402 -1.3860556
0.23500746 1.2108568 -0.79946417 1.9824473 1.0107486 0.10441439 1.1286004 0.1038047
-1.2220398 1.7343096 -0.08105602 0.4028264 1.8321682 0.16736515 -0.073297314 0.67966
-0.06514577 -1.3490032 -0.92736393 1.0993654 -0.36667898 1.7018135 -0.8593946 -1.304525
0.8122005 1.037365 -0.6960659 -0.47982806 1.5183251 -0.3153765 0.58998525 1.2028108
0.6384886 -0.4142769 -0.23763917 0.5278188 -0.43131217 -0.4326575 -0.09134008 -1.7306063

W_conv1 f4 [3, 3, 3, 16]
00000000: a75b ccbe 461c 303e 3ae2 0b3f db30 da3e
00000010: fa6f 98bf d8e0 8dbe 3373 833f af6d 923e
00000020: c729 c13f e788 9ebf 7e8c a5bf 77cd c6bf
00000030: 7599 7a3f ecc0 cabe 74ea 06bd 6933 bcbe
00000040: ba3d b2bf 2372 0d3f d79e a1be c236 d83c
00000050: 56f8 183f 0a67 cf3f 9f8b e23d e2dc c9bd
00000060: a7e6 e13f bc6a a03f ef34 edbf 6afa f1bf
00000070: ebb9 5dbf 0e9c d73f 8896 ecbe b1da 4b3f
00000080: d7d9 1f3f fc56 893f bb5c cc3f f1e5 ea3f
00000090: 1d2a e73e bfcb 46bf fb6e bbbf 4ff3 8d3f
000000a0: cdf3 8cbf 8f13 e93f 0c72 3cbf dd8f 5cbf
000000b0: cc33 7f3e 564b 623c e918 863f 7ee7 a73f
000000c0: 79bf f33f e5c7 aabe 3c6c 07bf bed6 6abf
000000d0: 2393 a93d b1f6 343b 66dc a93d 682d da3d
000000e0: 9c68 fabe 6142 9bbe c403 a73f bbef babf
000000f0: 4009 39bf fe86 8cbe e85d d2bf aed2 f6bf
00000100: d083 e4bf 6072 853f 6a5f e13f 02c9 bb3e
00000110: ea96 a23f 9d23 4cbf 251a fbbe 7844 8ebe
00000120: 881b db3f 1045 563e d5b1 483f b4e3 033f
00000130: f55b 0040 28e2 90bf 2773 2ebf 2426 9fbf
00000140: 3634 46be a5b5 afbf ec9d 763f 33f5 8e3d
00000150: 4e3d 7b3f 177e 95bf 9c7a b93f 95fd e4be
00000160: ae91 0bbf 4abd 8ebf bdbf 15bf c3f1 9ebe
00000170: ce26 a33d 629b 923e 147b 78be ae87 003f
00000180: 801e 5cbf 7207 61be b0c7 383f d0d0 c93d
00000190: daf5 9abe 2a8b 94bf 1467 863d e1e0 a6bf
000001a0: eb31 74bf ef57 0c3f a859 aa3e 0d50 6dbf
000001b0: 69f8 d8bf 3618 c03f b27e 9fbf 6044 7cbf
000001c0: 9ccb cb3e 8e25 8b3f 7438 c53f 107c 8abf
000001d0: 9e72 c13f 167e 003e 28aa b93f b1c5 893f
000001e0: 0c3c dd3f 46a2 273e 5f57 16bf 14ea 87bf
000001f0: b7bf 8c3f f49e 403f 4a9f 353e 9bb1 80be
00000200: 1645 83bf 4cc1 29bf 90e2 353f 6efb fabe
00000210: 257b 4f3e 97cd a23d 4942 fb3d 558b 3e3e
00000220: 7a00 36be 7aad 8c3f d426 d73f bc14 863f
00000230: 43a6 9bbf 52cd 77bf de9e 15be ff0b febf
00000240: fb0a 643e e17d 18bf 1274 91bf 56f0 86bf
00000250: 0028 fa3e dbe6 073f 279c 29bf 5c68 643f
00000260: 725b ca3e 2840 b93e ca48 053f 7643 e9bf
00000270: 8093 3dbe a448 a03f 6475 4e3f 59f9 adbf
00000280: d5cc a3be 46d3 7b3e 7cfe e03e 1e80 3e3f
00000290: b38b 1dbe 3d50 17bf 5aa7 c2be 4c09 b5bf
000002a0: 6c7d 09bf 9123 a13f 5ed5 a23e c311 813f
000002b0: 0b69 793d 8e6a cabe 2bf5 153e dc85 0b3d
000002c0: e53c 9fbe 2415 1a3f 6d47 1bbe 6325 71bf
000002d0: 89f5 04bf ac27 c9be a4bc 543f ee0d 9b3f
000002e0: 96c0 6fbe 0c89 a13f 974a 193f cac8 e4be
000002f0: 591c 2b3f 2f75 81be 1cb1 423d 18c9 793f
00000300: 5ce3 fc3f 133b d7bf 2d98 123f 4187 013f
00000310: 79cd 793e 351f d6be f18a adbf fa57 debe
00000320: 1ece 79bf 7c4e e93c 297d a13f 4684 c73e
00000330: 5aa8 233b f58b c0bc 2d87 80be 9ef0 003f
00000340: 17f6 a73f 81e5 ad3f 1993 75bf 808e 873e
00000350: 61ff 2cbf 9bd3 923f 37a2 123f 3961 3c3f
00000360: d01e 50bf 3965 ae3f aa9e 8ebe dc93 993f
00000370: 6a57 a33e 7a6e e5be 3c4a c3bf d396 4abf
00000380: 9768 c8bf 5147 18bf c8c7 903f 8706 853f
00000390: 6385 3dbf b80a dc3e 6eec a0bc c756 b7bc
000003a0: 5987 8a3f 7730 87bf c9c5 00bf 6247 36bf
000003b0: 7881 333f 9980 73bf 52ce c43f 58f3 1a3f
000003c0: d980 893f eddc debe b21c d73e ae23 82bf
000003d0: 86f9 89bd 873d 86bf 160f 2b3f b6ac 833e
000003e0: 1272 b2bf fe8a 7e3e a247 28bf 06a9 e4bd
000003f0: 47b4 a7bf 2cf7 b63e b715 063f 8453 443f
-0.39913675 0.17198285 0.5464207 0.426154 -1.1909173 -0.27710605 1.0269531 0.28599307
1.5090874 -1.2385529 -1.29335 -1.5531453 0.97890407 -0.39600313 -0.032938436 -0.36757973
-1.3925087 0.55252284 -0.31566498 0.026393298 0.5975393 1.620332 0.11061787 -0.09856583
1.7648515 1.2532573 -1.8531779 -1.8904545 -0.86611813 1.6844499 -0.46208596 0.7963057
0.6244177 1.072967 1.5965799 1.8351423 0.45149317 -0.7765464 -1.4643244 1.1089877
-1.1011902 1.8209094 -0.7361152 -0.8615702 0.24922103 0.013811907 1.0476352 1.3117521
1.9042808 -0.33355632 -0.5289953 -0.9173392 0.08280017 0.002761286 0.08293991 0.10653192
-0.48907936 -0.3032408 1.3048024 -1.460441 -0.7227974 -0.2744674 -1.6434908 -1.9283044
-1.7852726 1.042553 1.7607243 0.36676794 1.2702305 -0.7974184 -0.49043384 -0.27786613
1.7117777 0.20924783 0.7839635 0.5151932 2.0056126 -1.1319017 -0.6814446 -1.2433515
-0.19355854 -1.3727309 0.9633472 0.06980362 0.9814042 -1.1679105 1.4490542 -0.44724718
-0.54519165 -1.1151516 -0.58495694 -0.31043825 0.07966386 0.28634173 -0.242657 0.5020703
-0.8598404 -0.21975496 0.721797 0.09854281 -0.30265695 -1.160497 0.06562629 -1.3037378
-0.9538867 0.54821676 0.33271527 -0.9270027 -1.6950809 1.5007389 -1.2460539 -0.9854183
0.3980378 1.0870836 1.5407853 -1.0819111 1.5113103 0.12548098 1.4505053 1.0763456
1.728395 0.16370496 -0.5872707 -1.061831 1.0996007 0.75242543 0.17736545 -0.25135502
-1.0255458 -0.6631057 0.7104883 -0.4901995 0.2026182 0.079493694 0.12268502 0.18607838
-0.1777362 1.0990441 1.6808724 1.0475078 -1.2160114 -0.9679767 -0.14611384 -1.9847411
0.22269814 -0.59567076 -1.1363547 -1.0542095 0.48858643 0.5308663 -0.66253895 0.8922174
0.39522892 0.3618176 0.5206419 -1.8223712 -0.18513298 1.2522168 0.80647874 -1.359172
-0.31992212 0.24592313 0.43944156 0.7441424 -0.15385322 -0.5910681 -0.38018304 -1.4143462
-0.53707004 1.2588979 0.3180341 1.0083545 0.060891192 -0.3953442 0.14644305 0.034063205
-0.31101146 0.6018851 -0.15163966 -0.9419767 -0.51937157 -0.3928808 0.8310034 1.2113626
-0.2341331 1.2619948 0.5987944 -0.4468444 0.6684013 -0.25284716 0.047532186 0.9757247
1.9756885 -1.6814903 0.5726345 0.50597006 0.24394788 -0.41820684 -1.3558027 -0.43426496
-0.97580135 0.028479807 1.2616321 0.38968104 0.0024972172 -0.023504237 -0.2510313 0.5036715
1.3121976 1.3585664 -0.9592758 0.26475906 -0.6757718 1.1470827 0.5727877 0.7358585
-0.81297016 1.3624641 -0.27855426 1.1998248 0.3190263 -0.4481085 -1.525703 -0.7913639
-1.5656918 -0.5948382 1.1310968 1.0392617 -0.74031657 0.42976928 -0.019643988 -0.022380246
1.0822555 -1.0561665 -0.50301796 -0.7120267 0.7011943 -0.951181 1.5375464 0.60527563
1.0742446 -0.43527928 0.4201408 -1.0167139 -0.06737046 -1.0487527 0.66819894 0.25717705
-1.3941061 0.24857709 -0.65734303 -0.11165051 -1.3101891 0.35735452 0.52376884 0.76689935

b_conv2 f4 [32]
00000000: cdcc cc3d cdcc cc3d cdcc cc3d cdcc cc3d
00000010: cdcc cc3d cdcc cc3d cdcc cc3d cdcc cc3d
00000020: cdcc cc3d cdcc cc3d cdcc cc3d cdcc cc3d
00000030: cdcc cc3d cdcc cc3d cdcc cc3d cdcc cc3d
00000040: cdcc cc3d cdcc cc3d cdcc cc3d cdcc cc3d
00000050: cdcc cc3d cdcc cc3d cdcc cc3d cdcc cc3d
00000060: cdcc cc3d cdcc cc3d cdcc cc3d cdcc cc3d
00000070: cdcc cc3d cdcc cc3d cdcc cc3d cdcc cc3d
0.1 0.1 0.1 0.1 0.1 0.1 0.1 0.1
0.1 0.1 0.1 0.1 0.1 0.1 0.1 0.1
0.1 0.1 0.1 0.1 0.1 0.1 0.1 0.1
0.1 0.1 0.1 0.1 0.1 0.1 0.1 0.1
