Models/Tensorflow/model1.npz (npz, 159398 bytes, 8 tensors)

W_conv1 f4 [3, 3, 3, 16]
00000000: 49a9 1bbf ac3f af3d 301f 083f 40b4 723f
00000010: 4ab3 a5bf 4090 40bf a539 6a3f 6b75 403f
00000020: a063 1c40 306b 89bf 028b dbbf d0d4 2bc0
00000030: 8c03 0140 bdfb 453f de66 dabe 2826 65bf
00000040: 3d67 ddbf f630 bf3e e970 f93c 9353 7cbe
00000050: deb0 d63e 1b4f 9f3f 0b4e 7a3e 809d 30bf
00000060: c90e f43f 7cec e43f a34b 04c0 e26f ffbf
00000070: 0c57 25bf 0fae fe3f 69a5 d0bd 2d23 233f
00000080: 1e38 d33f 95d0 1440 a6a2 943f 5333 3140
00000090: 305d 8b3f 73ea 99bf 9346 dfbf 01fe f43f
000000a0: e78e c0be 15ea 4840 9a2c 63bf 591f dabf
000000b0: 9dfd 073d 538a 88be c1f2 a73f 25f0 623f
000000c0: ce03 2340 d757 2fbf 048c 59bf ee8c 5dbf
000000d0: 0a9c 2b3f 4258 8f3f 2e8d 9fbe 08f8 d33d
000000e0: 0d79 51bf 58f0 19bf b2db d03f 8f66 1dc0
000000f0: 6d9d 88bf 0e6d 08bf 31e8 09c0 14b7 0ec0
00000100: f79b e8bf c064 d03f f37f f23f 2fa2 433f
00000110: c620 c13f 8636 c9bf db37 7ebf 4bf0 36be
00000120: 54b3 c63f 1245 c4bd 71cf 813f c615 403e
00000130: e61b 0540 f251 a4bf d22b 01bf ac5d 84bf
00000140: 485d 81be 33b9 b0bf aef6 7a3f 77b2 8dbf
00000150: 04da fc3f 9a6d 83bf b136 ba3f df91 96bf
00000160: 0ebe c9be f3df a2bf 15d7 ec3d a008 4ebf
00000170: adfb 4cbe c232 583f a16b 153c 6412 a23f
00000180: 9e38 d0bf 5a50 9bbe 0db7 993e e151 983c
00000190: bdad 8f3d ca05 08c0 5952 08bb d407 18c0
000001a0: ac4e aebe 0d85 d0be 62e6 253d da46 95bf
000001b0: 658f 0bc0 b9d5 df3f 9716 c1bf 44e9 15bf
000001c0: fdd3 663e 000f 923f f94b c73f aa77 f7bf
000001d0: 7fff 1840 85bd 103e 10c6 d53f 9fb0 af3f
000001e0: 6f97 b43f c9c9 c23e 2eaa 96be 3122 78bf
000001f0: ba7d ae3f 0a07 dd3f a242 75be afb4 52bc
00000200: c4ce 81bf 2946 19bf 23d5 843f 2e1b 77bf
00000210: d585 843e c4e3 293d a90f 393e 1478 9b3d
00000220: 0595 9fbf d353 da3f 1ce8 2540 cf8e 2740
00000230: 2619 26c0 30e0 e0bf 5ca5 0d3f c8b8 eabf
00000240: 7ed1 b13e 1b13 50bf 1850 3cbf 9a06 71bf
00000250: ef48 983e 225d 9b3e d441 fbbe ba44 813f
00000260: 39cd 313f 0391 c53e 9d9d da3e 24af f4bf
00000270: 35f4 693d 76e1 b33f 1005 073f e472 65bf
00000280: c07a 9abf eb75 30bf e130 163f 2a90 853f
00000290: 0dc4 54bf aa92 0cbf 7f78 b0bd 81e8 ddbf
000002a0: 91f9 adbd 5611 663f c85f d8be 1ec2 593f
000002b0: ca73 bc3e 02c4 94bd 0ad1 563d a89e a73e
000002c0: 2cf9 f83e 4369 d33e 1f53 7abf 1f5b 19bf
000002d0: 3d8a 963c ea9f 14be cfc5 833f 6c6f a03f
000002e0: 97a5 c3be 5c42 a33f 0e61 833f 2895 8dbf
000002f0: f628 9f3f 7fa5 39be afc8 d5be b989 503f
00000300: e5c8 f13f a062 90bf 3c6b 0b3f 2d78 753e
00000310: ecc0 3d3f 7bfc 04bf 254f 96bf 0c1a 3ebe
00000320: 1d85 c9be e4a3 b9bd 771e d53f 99bc b3bd
00000330: 5edf d2bc edfa a2ba f457 00bf be37 ef3e
00000340: e20c 753f 7699 b83f e552 97bf 3aaa f8be
00000350: 4a80 343e 7c01 143f 2630 903d 6a56 9e3f
00000360: 61d8 b2be 79a9 cb3f 2539 f5bc 9f4c 1a3f
00000370: 4719 973e 994b 18bf 67df c5bf 31b7 69bf
00000380: d305 65bf d426 1bbf e877 5f3f 8474 353f
00000390: a73a dabe bdb6 b43e d20e 73bf bde8 0dbe
000003a0: d972 503f 9c7b c3bf 7ad3 043f c453 72bf
000003b0: 3484 d23e 60e4 7bbf 2412 fd3f ed9f ce3e
000003c0: 8f19 e53f 91f1 43bf 56c9 803e cab4 a1bf
000003d0: e393 393f 4348 debf 7b45 6f3f 3a97 ff3e
000003e0: 9fb5 ddbf bc40 f43e 5040 493c babf c23e
000003f0: 5f70 bfbf 19a4 203e a2e0 ea3e 828a 463f
-0.60805184 0.08557066 0.5317259 0.9480629 -1.294534 -0.7522011 0.9149421 0.75179166
2.4435806 -1.0735836 -1.7151797 -2.684864 2.0158415 0.7733725 -0.42656606 -0.89511347
-1.7297131 0.37342042 0.030449348 -0.24641256 0.41931814 1.2446016 0.24443834 -0.68990326
1.9067012 1.7884669 -2.0671165 -1.9956019 -0.6458595 1.9896868 -0.101877995 0.6372555
1.6501501 2.3252308 1.1612136 2.7687576 1.0887814 -1.2024673 -1.7443413 1.9140016
-0.37609026 3.1392872 -0.8873993 -1.7040817 0.03320085 -0.26668033 1.3120958 0.8864768
2.5471072 -0.6849341 -0.8497927 -0.86543167 0.6703497 1.1198809 -0.311624 0.103500426
-0.81825334 -0.6013236 1.6317046 -2.4593847 -1.0673043 -0.53291404 -2.1547968 -2.2299242
-1.8172597 1.6280746 1.8945297 0.7641935 1.5088127 -1.5719764 -0.9930398 -0.17865102
1.5523477 -0.095834866 1.0141431 0.18758306 2.0798278 -1.2837508 -0.5045749 -1.0341086
-0.2526648 -1.3806518 0.98032653 -1.1070088 1.9754033 -1.0267823 1.454794 -1.1763266
-0.39402813 -1.2724594 0.11564461 -0.8048191 -0.20017882 0.8445245 0.009119899 1.2661862
-1.6267278 -0.3033474 0.3002247 0.01859373 0.0701556 -2.1253533 -0.0020801036 -2.3754778
-0.34044397 -0.4072651 0.040502913 -1.1662247 -2.180627 1.7487098 -1.5085019 -0.5855906
0.22541805 1.1410828 1.557006 -1.9333394 2.3905942 0.14134796 1.6701069 1.3725775
1.4108714 0.38044575 -0.29426712 -0.9692717 1.3632119 1.7267773 -0.239512 -0.012860461
-1.0141225 -0.5987268 1.0377544 -0.9652585 0.25883356 0.04147698 0.1807238 0.075912625
-1.2467352 1.7056831 2.5922918 2.6180913 -2.595285 -1.7568417 0.55330443 -1.8337641
0.34730142 -0.8127915 -0.73559713 -0.941507 0.29743144 0.30344492 -0.4907366 1.0099099
0.6945377 0.38587198 0.42698374 -1.9115949 0.05711766 1.405318 0.527421 -0.89628434
-1.206871 -0.6892993 0.58668333 1.043462 -0.8311165 -0.5491129 -0.08616733 -1.733658
-0.08494867 0.898702 -0.42260575 0.85061824 0.3680709 -0.07263948 0.05244545 0.32738233
0.48627603 0.41291246 -0.9778308 -0.59904665 0.018376464 -0.14514127 1.0294741 1.2534003
-0.38212273 1.2754626 1.0263994 -1.1061144 1.2434375 -0.18129538 -0.41754672 0.8146015
1.8889433 -1.1280098 0.544605 0.23971625 0.741225 -0.51947755 -1.1742903 -0.18564624
-0.3935937 -0.09064463 1.6649922 -0.087762065 -0.025741275 -0.0012434401 -0.50134206 0.46722215
0.9572278 1.4421833 -1.1822172 -0.48567373 0.17627063 0.57814765 0.070404336 1.2370121
-0.3493071 1.5911094 -0.029934475 0.60273165 0.29511473 -0.5949035 -1.5458802 -0.9129515
-0.8946201 -0.6060612 0.8729234 0.70880914 -0.42622873 0.35295668 -0.9494449 -0.13858314
0.81425244 -1.5272098 0.5188519 -0.94659066 0.41116488 -0.9839535 1.9771161 0.4035639
1.7898425 -0.76540476 0.25153607 -1.2633297 0.7249128 -1.7365803 0.93465394 0.49920064
-1.7321051 0.47705638 0.0122834 0.380369 -1.4956168 0.15687598 0.45874506 0.77555096

W_conv2 f4 [3, 3, 16, 32]
00000000: 2fb1 3dbf f127 c53f fe34 af3e c16b 9a3e
00000010: 92f3 103f 63dc d63f 540b 073e ad63 cbbf
00000020: 1ab5 d13f 045a 123f 1324 98bf 7c9c 3dbe
00000030: d47a ef3d 3f8a 84be 9c9f fdbe 675b 473f
00000040: 761d e0bd 7402 953d 69ec 923e 6438 263f
00000050: aa1c 84be 5672 b8bc 37ff 10bf 90f6 113e
00000060: e192 45bf 7044 e63d cf1e 5b3f 2420 a53f
00000070: f7ce bcbf beb8 333e 224a f2be 691d 7e3e
00000080: 0963 e2bf 1941 d73e 20cf ed3e 2df8 eabe
00000090: 59c6 873f 371c bf3e 72f1 813e cd24 6e3d
000000a0: 4b00 26bf 382d 08bf 2a3b ee3f 57d7 2c3f
000000b0: 76a7 1bbf 3b22 7cbf c743 7abf 2918 fbbf
000000c0: 750e ed3e a7ef cc3d 3d72 12be d885 cbbf
000000d0: 50fb 7d3f 1262 6d3f 13ea 54be f595 ccbf
000000e0: 7106 4a3f 5350 c5bf c710 acbf 80fa 193f
000000f0: 112a 8f3f 591e 2e3e 684f 5bbf b759 943f
00000100: 6525 753e 607a d8bf 1776 d9bf 7965 b3bf
00000110: 1ec3 ef3f 30d4 193f b134 903e ca26 4a3f
00000120: 1a06 a73e 3efb 5ebf 88f3 8cbe b377 103e
00000130: 98f8 9f3e 2932 74bf adda 61bf 1451 9abf
00000140: f2f5 28bf c72b 09bf 18c5 a73e d4ac b7be
00000150: 7b43 13bf 4e9d 8fbe 4244 323f 7b35 25bf
00000160: 36f5 093f 9600 b63e b165 15be a935 88be
00000170: e37c ed3f bf7a e3bf e47c 253e 7396 ecbf
00000180: 81fc ccbe dff2 6d3f adb2 583e c801 05c0
00000190: 8136 05bf ccba 813f 2fd9 7b3e 317c 953f
000001a0: 9a04 323f 6532 f43e bfda 323f feca b23e
000001b0: 1071 aa3e e825 0bbe cd5a c53e b954 87bf
000001c0: b764 88bc 75cf 74bd 2d24 5cbf 7d28 6abf
000001d0: 106b 94bf 773f 99bf 6e7f 89be df8b b5bd
000001e0: f052 aa3f 5a4d 353e d975 de3e 964b 9ebf
000001f0: 6220 4abf e04f 94be 58e2 3abf 8f24 613f
00000200: 0c0b 96bf fabf 173f 890b 8dbf b42d 573f
00000210: b9bf 553d 73bf 18bd 2e33 cebf 29ea 8f3f
00000220: 59ea a73f 80b0 60bd e0f0 bdbf 2998 ad3e
00000230: fe75 92be 3c46 073d 9f15 08bf dd48 b13e
00000240: a192 af3e 3673 8ebe e8d2 93be 1aab a53d
00000250: 0322 963f c2e5 403f 69a0 19bf 06d7 bdbf
00000260: 39d0 ddbd 0cf3 b0bf c102 4b3f 5c42 83bf
00000270: 4871 8b3f 0179 91bd 9001 c8bf 7ac8 973f
00000280: 560a 2b3f 8de5 69bf c627 6a3f f507 0240
00000290: 7770 7abf dd21 8abf 4012 3a3d a42c 513f
000002a0: 3504 1b3f 1512 83bf e9e8 1d3d e430 9abd
000002b0: 8299 babf d471 2fbf 54b6 81bf 6fc2 9e3d
000002c0: c9ac dbbe b56e 97bf bf73 09bf 7664 a3bd
000002d0: dc5d b9bf 2893 6bbf 6bd9 b23d ae5b 6bbf
000002e0: 1f38 99bf 671f e1bf 29d1 493f e461 de3e
000002f0: 815b cf3f a1ba cfbe b021 643f b4ad 5e3f
00000300: 1f4e 9d3f cccf 483f 8c34 9cbf 036c fa3a
00000310: 6a37 8abf 9944 54bd 95e5 1ebf 6530 143e
00000320: e93a a3be 3ffd 753f 3812 413f 48f2 303f
00000330: 1026 41bf 4169 27bf 51eb 233f 07cd debf
00000340: 0536 0ebf 7c4a 553f 05c7 693f 73cb ce3e
00000350: 092f d33f 14e6 72be f316 9d3e e7c3 b6bf
00000360: 30c4 713e 9ad6 9a3f f23b 2bbf 41a8 fe3f
00000370: 05ea 813f 54cc 0e3d d548 8d3f 8069 8a3e
00000380: ffb7 9dbf 79e8 f33f afc4 f63c 1f14 cb3e
00000390: e3c7 e43f 8a27 433e a216 47be 6f8f 1b3f
000003a0: 96fa 2f3e 1633 afbf e75f 95bf 8a4d 713f
000003b0: 0386 11bf c5d6 db3f 1a05 8ebf 8466 a5bf
000003c0: f689 623f 42d2 8d3f cc8e 50bf 27a7 03bf
000003d0: 411a f03f 0bc8 17be ac9f 1e3f 34d7 983f
000003e0: 7e3a 2b3f fddc acbe 0cf8 883e c16a 063f
000003f0: 3fff 08bf daa8 89be 0367 41be 622d edbf
-0.74098486 1.5402814 0.34220117 0.30160335 0.5662166 1.6786007 0.13187915 -1.5889794
1.6383393 0.571686 -1.1886009 -0.18516725 0.116933495 -0.25886723 -0.49535835 0.77873844
-0.10943119 0.072758585 0.28695992 0.64929795 -0.2580312 -0.022515457 -0.56639427 0.14254212
-0.77177244 0.11243522 0.85593885 1.2900434 -1.4750661 0.17550942 -0.47322184 0.24815907
-1.7686473 0.42041853 0.46447086 -0.45892468 1.0607406 0.37326214 0.2537952 0.058140565
-0.648442 -0.53194 1.8611805 0.6751608 -0.608024 -0.9848973 -0.9775967 -1.9616748
0.46300092 0.100066476 -0.14301391 -1.5900221 0.992116 0.9272777 -0.20792417 -1.5983263
0.7891608 -1.5415138 -1.344262 0.6014786 1.1184713 0.17003764 -0.8566804 1.1589879
0.23940046 -1.6912346 -1.6989163 -1.4015342 1.873142 0.600894 0.281652 0.7896544
0.32621843 -0.87102115 -0.2752955 0.14108162 0.3124435 -0.9538904 -0.882243 -1.2055993
-0.6600028 -0.53582424 0.32767558 -0.35874045 -0.5752484 -0.280497 0.69635403 -0.6453473
0.5388979 0.35547322 -0.14589573 -0.2660344 1.8553737 -1.7771834 0.16160923 -1.8483413
-0.40036395 0.92948717 0.2116191 -2.0782337 -0.5203629 1.0135131 0.24594568 1.1678525
0.6953827 0.47694698 0.6986503 0.34920496 0.33289385 -0.13588679 0.38545838 -1.057273
-0.016649587 -0.05976816 -0.859927 -0.9146803 -1.1595173 -1.1972493 -0.26855034 -0.08864569
1.330656 0.17705289 0.43449286 -1.2366817 -0.7895566 -0.2896719 -0.73001623 0.8794641
-1.1722121 0.5927731 -1.1019145 0.8405411 0.052184794 -0.037291955 -1.6109369 1.1243335
1.3118392 -0.054855824 -1.4839134 0.3390515 -0.28605646 0.033025965 -0.5315799 0.34625903
0.34291556 -0.27822274 -0.28871846 0.08089276 1.172913 0.7535058 -0.6001039 -1.4831245
-0.10830731 -1.3824172 0.7930108 -1.0254626 1.0893946 -0.07103158 -1.5625477 1.1858056
0.66812646 -0.9136589 0.9146694 2.0317357 -0.9782786 -1.0791584 0.04542756 0.8170874
0.60553294 -1.0239893 0.0385522 -0.075288564 -1.4578097 -0.6853306 -1.0133767 0.07751929
-0.42905262 -1.183066 -0.5369224 -0.07978146 -1.4481769 -0.9202142 0.087328754 -0.9193677
-1.1970252 -1.7587708 0.7883478 0.4343406 1.61998 -0.40572074 0.89113903 0.869838
1.2289466 0.7844207 -1.2203536 0.0019105676 -1.0798161 -0.051823232 -0.62069064 0.14471586
-0.31880882 0.9608955 0.75418425 0.6911969 -0.75448704 -0.6539498 0.6403094 -1.7406319
-0.5555118 0.8331678 0.91319305 0.40389594 1.6498729 -0.2372058 0.3068157 -1.4278535
0.23609996 1.2096741 -0.66888344 1.9895097 1.0149542 0.03486283 1.1037852 0.27033615
-1.2321776 1.905532 0.030123083 0.3966379 1.78735 0.19058052 -0.19442227 0.6076574
0.17185435 -1.3687465 -1.1669892 0.9425894 -0.5684511 1.7174917 -1.1095307 -1.292191
0.8849176 1.107979 -0.8146789 -0.5142693 1.8758012 -0.14822404 0.6196239 1.1940675
0.66886127 -0.3376235 0.26751745 0.52506644 -0.53514475 -0.26886636 -0.18886952 -1.8529475

W_fc f4 [128, 256]
00000000: 2fb9 5fbf a792 42be e737 0f3e cc52 9cbf
00000010: 6d12 56be 7790 e7bf 2d5d e7be b88a f1bd
00000020: 9420 90bf 2a18 e23e b51e d4bc 5b54 873e
00000030: 12c6 14bd 67c9 503f 4260 993e ea37 153f
00000040: 7e97 a7bd 68e9 35be 23f8 ab3d 7c1d 0040
00000050: ffff 723e b314 7dbd 3849 b6bd c979 ea3f
00000060: 2281 b73e ee58 2bbe 218f da3e 09c0 05bf
00000070: 5fe7 343f 3cfe f23f ff15 a23c 15ff 263f
00000080: 8481 be3e 5959 5abe 899c a23e 7827 06bf
00000090: 6f82 ddbe cd11 be3f 9b7a debf d34d 9abf
000000a0: 8124 d23f c2d0 c1bf 5d8e 85be 8b1a 0fbd
000000b0: 0a8c 8bbf 693f 3e3e d867 a03d d532 df3e
000000c0: 87ce c3be 3cdc f7bf 4465 dfbf 534c 95be
000000d0: 6c59 53bf d32e dc3f ed62 efbe 7b1a d8be
000000e0: 1443 83bf 481a 33be ba9c 463f b6ad 13bd
000000f0: 862c 8e3f 3e88 db3f 7b02 8cbd 87b0 5a3f
00000100: 4475 3ebe 4007 a8be 5d5f 863f c4ca ff3e
00000110: 51dc cdbf b1f6 7d3f 8ff6 853f 0144 303e
00000120: 99b6 a0bf 6f8f e23e 3540 d43f 7fcc adbd
00000130: 5449 5ebf 717b be3e 266a 193f ea8d 853f
00000140: d0c5 6b3f b6fa 0f3f b597 b53f 71e1 4c3f
00000150: daff e33c be24 70bf 0661 09bf 63c6 403f
00000160: 8020 4cbf 49cd 8abd e796 44be d33d a1bf
00000170: b8f9 b63f 43da 57bf 36ad 503e 26e2 fdbf
00000180: ca5c 403f 8b20 b6be ca60 c7be c2aa 743f
00000190: 703a 713e a462 633f 0303 963f 69ee 1f3e
000001a0: c437 e73d a392 88be 9ee5 1f3f a12e cfbf
000001b0: a2aa 58bf 7ba0 80be 70d1 933f f882 443f
000001c0: ac63 53bf 5a37 333f f81f 603f f9b5 7b3d
000001d0: 07c4 923f abd9 63bd 90b1 cbbf 7abf d03f
000001e0: e5cf c13e 838f 1cbf 029a babf baa5 3bbd
000001f0: 97e8 e8be d1fa 13bf 5cc2 823e af17 54bf
00000200: 35c0 323f 4db6 cd3e fea6 923f cc2a 15be
00000210: 304d 4c3f 8720 54bd 9b8e 343f 35ef e13f
00000220: 9fd5 b73f b5c7 273f aa05 e2bf 3255 7b3d
00000230: 8ae4 98be 4c79 7e3f a016 7b3f f663 1ebe
00000240: c2d5 97be 99d8 01be 93bc dd3e 070f 2bbf
00000250: 9fc9 bfbe aab0 923e 735d 3f3f 5b6d de3e
00000260: 70c9 2a3f bccc b23f f477 5e3f 3578 613f
00000270: 8e33 a93f 7f55 20bf f561 cc3d 8752 afbf
00000280: 6603 2f3f f79c 363f 2d3d d1be c3ab 653f
00000290: 92ab a03f 4635 1c3f 19cb 053e ce8b cdbe
000002a0: d7a3 61be 69f4 873f 0479 83bf 92ad a3be
000002b0: dbdb ec3e c3f4 d23f 2146 42bf 3fe9 90bf
000002c0: ef50 5ebe 23d0 773d a14b 7d3e 9498 b13e
000002d0: de17 f7bd 5fec 2abf 8c28 2bbf 5748 2abf
000002e0: 5145 f63d da09 b9be 5104 b1be be03 dd3f
000002f0: 2296 813e 6297 b9be 0c82 91bf aa0b 513f
00000300: 49bd 1fbf dccb f6be 8d51 913e cf14 0ebf
00000310: 4f89 ecbe 6b21 e93e 2726 26bf 8e41 9a3e
00000320: 3405 2abe 9071 9dbd c4d4 98bf 46a7 bf3e
00000330: 539f a63f 9128 9bbd 2a4b 01be a4b9 13be
00000340: 992c e2be ce1c 463f be15 333f 9caa aebf
00000350: 1803 1fbf 5043 82bf 1745 773e 4dca 093f
00000360: 7116 763f 4fc8 e13b 54db c9bf 71d1 1f3f
00000370: a975 863f 5e85 303e 7094 d3bc f35a 9abf
00000380: 5f7e ad3f 936a c23d c2af 7b3e 4f09 6bbf
00000390: 3f6d fc3e 998b 53bf 5f73 93bf 6d99 f9be
000003a0: a577 4cbf a9e0 cb3f de8f 89bf dc4d de3f
000003b0: 9647 a33f 82d8 c53f a415 39be bc58 973f
000003c0: 86be 673e 020c 883f 1d4e 533e 0fb1 563f
000003d0: 9cbd b4bf 6623 72bf 8f37 ba3e 1e0c f1bf
000003e0: 149d 01be 4201 1a3f 4784 2b3e e644 a4bf
000003f0: a8e3 94bf 6e35 b3bf 301c f1bd c73d 0140
-0.8739194 -0.19001256 0.13986169 -1.2212768 -0.20905466 -1.8090962 -0.45188275 -0.117940366
-1.1259942 0.4415906 -0.025893549 0.26431546 -0.036321707 0.81557316 0.2995625 0.58288443
-0.08183192 -0.17764819 0.08396938 2.0017996 0.23730467 -0.06178732 -0.08900684 1.8318416
0.35840708 -0.16733143 0.42687324 -0.5224615 0.70665544 1.8983836 0.01978588 0.65232974
0.37208188 -0.21323146 0.31760052 -0.52403975 -0.43263575 1.4849182 -1.7381166 -1.2055
1.641739 -1.5141833 -0.26085177 -0.034937423 -1.0902112 0.18578877 0.078323066 0.4359347
-0.38243505 -1.9364085 -1.7452779 -0.29159793 -0.8255832 1.720179 -0.46755162 -0.42207703
-1.0254846 -0.17490494 0.77582896 -0.036054336 1.1107337 1.7150953 -0.068364106 0.8542561
-0.18599421 -0.3281803 1.0497853 0.49959385 -1.608286 0.99204546 1.0465869 0.17213441
-1.2555724 0.44250056 1.6582094 -0.0848627 -0.8683064 0.37203553 0.59927595 1.0433934
0.9209871 0.5624193 1.4186922 0.80031496 0.02783196 -0.93806064 -0.5366367 0.75302714
-0.7973709 -0.06777436 -0.1919819 -1.2596992 1.4294958 -0.84317416 0.20378575 -1.983464
0.75141585 -0.35571703 -0.38941032 0.95573056 0.23557448 0.8882239 1.1719669 0.1561829
0.11289933 -0.26674375 0.62459743 -1.6186105 -0.84635365 -0.25122437 1.154829 0.7676234
-0.8257396 0.70006335 0.8754878 0.06145284 1.1466073 -0.055627506 -1.5913563 1.6308434
0.37853923 -0.6115648 -1.457825 -0.045812346 -0.45489952 -0.5780459 0.2553891 -0.8284864
0.69824535 0.40178147 1.1457212 -0.14567107 0.7980528 -0.051788833 0.705301 1.7651125
1.4362067 0.65539104 -1.7657979 0.061360545 -0.2986186 0.99403834 0.980814 -0.1546782
-0.29655272 -0.12680282 0.43307933 -0.66819805 -0.37458512 0.2865041 0.7475197 0.43442807
0.6671362 1.396873 0.86901784 0.88074046 1.3218858 -0.62630457 0.09979621 -1.369706
0.6836456 0.7133326 -0.40866986 0.8971521 1.2552359 0.6101879 0.13065757 -0.40145725
-0.22035156 1.0621463 -1.0271306 -0.3196836 0.46261486 1.6480945 -0.7588826 -1.1321181
-0.21710561 0.06050123 0.24735881 0.3468672 -0.12065099 -0.66766924 -0.66858745 -0.6651663
0.1202494 -0.3614033 -0.34573606 1.7266767 0.25309855 -0.36248308 -1.1367812 0.8165842
-0.623982 -0.48202407 0.2838253 -0.555005 -0.46198508 0.45533308 -0.64901966 0.3012814
-0.16603547 -0.07687676 -1.1939931 0.37432307 1.3017372 -0.07576097 -0.12626329 -0.14426285
-0.4417465 0.773877 0.6995505 -1.3645816 -0.62114096 -1.0176792 0.2414745 0.5382431
0.9612799 0.0068903337 -1.5770059 0.6242896 1.0504657 0.17238376 -0.025827616 -1.2059005
1.355419 0.09492984 0.24578765 -0.9181108 0.49302098 -0.82634884 -1.1519583 -0.48749867
-0.79870063 1.5927936 -1.074703 1.7367511 1.2756221 1.5456698 -0.18074661 1.1823955
0.22631273 1.0628664 0.20635267 0.8386392 -1.4120364 -0.94585264 0.36370513 -1.8831823
-0.12657577 0.6015817 0.16749679 -1.2833526 -1.1631975 -1.400068 -0.117729545 2.0193956

b_fc f4 [256]
00000000: a50e ca3d 5ec2 ce3d a2a5 cd3d cdcc cc3d
00000010: 1bde cb3d 7c5c c63d 50e6 cb3d cc77 ce3d
00000020: 4140 c83d a0cc ce3d eb24 d03d 86b5 ca3d
00000030: 7f40 ca3d 6d48 c83d c5dd cb3d 7d7b cb3d
00000040: bda6 c23d fcb8 ca3d bc2e cb3d c6c6 ca3d
00000050: 4cba c73d 3618 d23d abb9 cd3d 0335 cb3d
00000060: 9ab8 ca3d fa4d db3d da77 ce3d 761d cd3d
00000070: 9000 cf3d d762 c83d e144 c33d f732 d43d
00000080: 57b0 d63d 2953 cc3d 74aa c83d c25e d43d
00000090: 2855 cb3d 9f54 ca3d 4714 d13d 1e8b cf3d
000000a0: 1d94 ca3d 40e6 cb3d 97f0 cd3d 3dac ca3d
000000b0: 8c2a c73d b468 cb3d 7c9b c93d f0a1 cf3d
000000c0: 5941 c63d d3b3 c53d 490c c83d c8b7 ce3d
000000d0: 9a32 ce3d 4e65 cd3d 3c72 ca3d 50fb cd3d
000000e0: 79f6 c73d 52f9 c03d 4417 d23d ef28 d03d
000000f0: f5aa c23d e3be c83d f50d c33d 2fb3 c83d
00000100: 6afd cd3d b885 c73d 38e4 c23d 8eb9 c43d
00000110: b2f2 ca3d 4263 cb3d a131 cf3d a9bf ca3d
00000120: cdcc cc3d 8352 cf3d c69f cb3d 1d0e cd3d
00000130: 4be4 c73d 56e2 c23d 0c38 cb3d b03c cf3d
00000140: 4fb5 bf3d 8d5c ca3d 9a01 d03d aeb1 cc3d
00000150: 7927 cc3d d35a d13d d4be d33d eee9 cd3d
00000160: e689 c63d 9914 d03d 8079 cd3d 7d1c d03d
00000170: d5c5 c43d 7742 ca3d c131 c73d eb15 cd3d
00000180: 2a6e cb3d efbc d43d baa8 d13d 6801 cc3d
00000190: 5330 ce3d e4fc cd3d 5d76 cc3d 77ec c73d
000001a0: 459a c83d 05f4 c83d 0509 d03d caf5 cb3d
000001b0: 3078 c53d 3a3b cc3d 1fde c73d 9040 ca3d
000001c0: 1b24 cb3d 7ce6 d43d 202c c83d 4238 c83d
000001d0: a0de c83d 45b3 cf3d 8255 c43d 387a cb3d
000001e0: b510 c53d 5ccd c83d 3370 c83d 4a1f c53d
000001f0: 29a4 c53d 5870 bf3d d2e6 c83d 1349 cc3d
00000200: e515 d33d 0b74 c63d b316 cb3d 9a17 ce3d
00000210: c5aa cb3d eabe cc3d faee ce3d 6caa c63d
00000220: a06c ca3d 3bd5 cb3d ca62 c93d e587 c93d
00000230: 47e4 d23d eff9 cc3d ed12 c33d 2fcb bd3d
00000240: ce0f c63d 32ce cb3d 8586 d13d cdcc cc3d
00000250: a8c0 cf3d d072 c43d a103 c93d 27a5 c43d
00000260: 6e71 cf3d d23c cb3d 5723 ca3d 174d cc3d
00000270: 6c4d c63d 446c cd3d fc34 c53d 6e8a c83d
00000280: 6f22 cc3d f236 ca3d 38cc c83d e576 c63d
00000290: 7d23 cd3d 1393 cd3d 6417 d43d 4bf7 cd3d
000002a0: 90af c73d f166 ca3d a738 d43d 5343 ca3d
000002b0: 3c1b d23d 0f1b d43d b526 cc3d 6f42 c73d
000002c0: 4ed1 d03d b5c7 cb3d 0e4c cb3d cdcc cc3d
000002d0: 833e c93d a5a8 ce3d b5fc c33d b320 cc3d
000002e0: 1999 cd3d ae93 c73d b102 c23d 40f7 cf3d
000002f0: 2672 ca3d bbf6 cf3d 3d07 c83d c8c4 c83d
00000300: 4d3d c83d cdcc cc3d d7b2 cb3d 127b cc3d
00000310: eef4 c53d 762f ce3d 30d9 ce3d e940 c93d
00000320: cdcc cc3d d17b d23d 7d79 c93d 0930 cc3d
00000330: 9676 c73d dc70 cb3d 8d88 c93d 3f34 c63d
00000340: 9726 d13d 3752 cd3d fd76 ce3d f3fd cb3d
00000350: 376f c63d c9b8 cb3d 95e5 c83d 0286 c93d
00000360: 2629 ce3d cdcc cc3d 2523 cd3d ee55 ca3d
00000370: b877 c73d cdcc cc3d e818 c53d 8b1d c93d
00000380: 4a4c cc3d b6b5 d03d 5938 cd3d 26fc c33d
00000390: 8916 c73d 657e cc3d cdcc cc3d 6424 cc3d
000003a0: 3d74 cc3d 359e cb3d 5b99 c63d 026b d03d
000003b0: e3e2 cc3d bbc0 c73d 0cb4 cb3d d90b ce3d
000003c0: 9287 c63d 3a84 c73d 8bf3 d13d ed27 d03d
000003d0: 4b39 ca3d cc50 c63d 8386 cf3d a62c cb3d
000003e0: db09 c23d 64a7 d23d f31e cb3d d0ed c33d
000003f0: cdcc cc3d 04a0 cd3d 7868 c63d 4c68 c93d
0.098660745 0.10095666 0.100413576 0.1 0.09954473 0.09685609 0.09956038 0.10081443
0.097778805 0.10097623 0.101632915 0.09897904 0.09875583 0.09779439 0.099544086 0.09935663
0.09504459 0.09898564 0.09921023 0.09901194 0.0975233 0.10258524 0.10045179 0.099222206
0.09898491 0.10708232 0.100814536 0.10015385 0.10107529 0.09784477 0.09534622 0.10361283
0.10482853 0.09976799 0.09798136 0.10369636 0.09928352 0.098794214 0.10208946 0.101339564
0.098915316 0.09956026 0.100556545 0.09896133 0.09724912 0.0993208 0.098441094 0.10138309
0.09680433 0.096534394 0.09767968 0.10093647 0.10068245 0.10029088 0.0988507 0.100577
0.09763808 0.09422554 0.10258344 0.101640575 0.09505264 0.09802034 0.095241465 0.097998016
0.100581005 0.09742302 0.095161855 0.09605704 0.09909572 0.09931041 0.10116888 0.098998375
0.1 0.1012316 0.09942584 0.100124575 0.0976034 0.095158264 0.099227995 0.10118997
0.09360754 0.09880934 0.101565555 0.09994827 0.09968466 0.102224015 0.10339132 0.10054384
0.09694271 0.10160179 0.1003294 0.10161684 0.09608046 0.098759584 0.09726287 0.10013946
0.099331215 0.10387599 0.1023726 0.09961206 0.10067811 0.10058001 0.099835135 0.09761899
0.097950496 0.09812168 0.1015797 0.0995899 0.096420646 0.09972234 0.09759163 0.098755956
0.09918996 0.10395524 0.09774041 0.09776355 0.09808087 0.10141615 0.09586622 0.09935421
0.09622327 0.09804794 0.09787025 0.096251085 0.09650452 0.093476 0.098096505 0.09974875
0.103069104 0.09690102 0.09916439 0.100630954 0.09944681 0.099973515 0.10104175 0.09700474
0.09884 0.0995278 0.09833296 0.09840373 0.10297447 0.100086085 0.09525094 0.0926727
0.09670983 0.09951438 0.10230736 0.1 0.10144168 0.09592211 0.09815145 0.09601813
0.10129057 0.0992371 0.09870022 0.09975641 0.09682736 0.10030416 0.096292466 0.09792028
0.09967505 0.09873761 0.09804577 0.09690646 0.100165345 0.10037818 0.10356024 0.10056933
0.09750283 0.09882916 0.10362368 0.09876122 0.10259101 0.103567235 0.0996832 0.09729468
0.10196172 0.099502005 0.09926616 0.1 0.09826376 0.1009076 0.095696844 0.099671744
0.10038967 0.097449645 0.094731696 0.10154581 0.09885053 0.10154482 0.097670056 0.09803158
0.09777317 0.1 0.0994622 0.09984411 0.09665857 0.10067646 0.10100019 0.09826834
0.1 0.10277522 0.09837625 0.099700995 0.09739415 0.099336356 0.09840498 0.09677934
0.102124386 0.10025447 0.10081289 0.09960546 0.09689181 0.09947354 0.09809414 0.09840013
0.10066442 0.1 0.10016469 0.09879671 0.097396314 0.1 0.09623891 0.09820088
0.099754885 0.101909086 0.10020513 0.09569578 0.09721095 0.09985045 0.1 0.099678785
0.09983108 0.09942285 0.09697219 0.1017666 0.10004213 0.09753557 0.099464506 0.100608535
0.09693827 0.09742017 0.1025153 0.10163865 0.09874209 0.096833795 0.10133078 0.099206254
0.09474536 0.102858335 0.099180125 0.095668435 0.1 0.10040286 0.096878946 0.09834346

b_conv1 f4 [16]
00000000: cdcc cc3d cdcc cc3d cdcc cc3d cdcc cc3d
00000010: cdcc cc3d cdcc cc3d cdcc cc3d cdcc cc3d
00000020: cdcc cc3d cdcc cc3d cdcc cc3d cdcc cc3d
00000030: cdcc cc3d cdcc cc3d cdcc cc3d cdcc cc3d
0.1 0.1 0.1 0.1 0.1 0.1 0.1 0.1
0.1 0.1 0.1 0.1 0.1 0.1 0.1 0.1

b_out f4 [5]
00000000: e6bd cc3d 28ca cc3d 6a51 cf3d ce1b cd3d
00000010: 6b47 ce3d
0.09997158 0.09999496 0.101229504 0.10015069 0.10072216

b_conv2 f4 [32]
00000000: cdcc cc3d cdcc cc3d cdcc cc3d cdcc cc3d
00000010: cdcc cc3d cdcc cc3d cdcc cc3d cdcc cc3d
00000020: cdcc cc3d cdcc cc3d cdcc cc3d cdcc cc3d
00000030: cdcc cc3d cdcc cc3d cdcc cc3d cdcc cc3d
00000040: cdcc cc3d cdcc cc3d cdcc cc3d cdcc cc3d
00000050: cdcc cc3d cdcc cc3d cdcc cc3d cdcc cc3d
00000060: cdcc cc3d cdcc cc3d cdcc cc3d cdcc cc3d
00000070: cdcc cc3d cdcc cc3d cdcc cc3d cdcc cc3d
0.1 0.1 0.1 0.1 0.1 0.1 0.1 0.1
0.1 0.1 0.1 0.1 0.1 0.1 0.1 0.1
0.1 0.1 0.1 0.1 0.1 0.1 0.1 0.1
0.1 0.1 0.1 0.1 0.1 0.1 0.1 0.1

W_out f4 [256, 5]
00000000: 22ed 873f eb03 48bf 7fbc 2f3e 2900 5f3e
00000010: d1fc 96bd 4518 5dbf 8837 13bf b561 233f
00000020: 3fe7 363f 332c d83f a3cb da3e d29e 8bbf
00000030: 04fc 23be 7de2 9abe 1322 9fbf e279 213f
00000040: 9e3a 13be 9a78 c63e a773 8cbf 5afe a13f
00000050: 2068 963f d64a 9bbe 24e4 923e f6e8 923d
00000060: e5a9 9bbf f0ad 96bf c052 703a cbe5 95bc
00000070: 04ee 17c0 82d2 c13f 2808 873f baf9 1dbe
00000080: 083c cebf f930 10bf 9ec7 52bf 3393 e3be
00000090: af3d 74ba be97 963f 137a c13d f38b 60bf
000000a0: e72f a53e d57f e13d d660 223f a54a e2bf
000000b0: ac2d adbf 4a38 463e 57c3 c13f 7ec8 263f
000000c0: 66ff c4be 55d1 adbe 413a 203f a7d2 1dbf
000000d0: 3aed bf3f e2d1 523f cf25 b2be 1b59 f63b
000000e0: 608b fdbe 3567 4a3e b7af e73f 0c14 94be
000000f0: 9216 04be 5e3f c5be d8c8 14be 4c21 ff3d
00000100: 9e8f b03e 5981 93bf c220 bcbe e179 4bbf
00000110: f463 e83e ce25 3bbf c017 b43e 6a9a 3d3f
00000120: 2a30 06be bc4a 34bf 3116 db3f fd97 a7bf
00000130: d7ee 793e 8284 a73e ab4d 873f 2f48 bfbe
00000140: 9807 7c3e 53ab c33f 5216 0abd d3f7 573f
00000150: 8a22 443e aef5 b7bf 3016 76bf 0aea 883f
00000160: a5bd 523f 2cf4 bd3f 0bc5 563e 4e8c 8dbf
00000170: e7a4 253e 5591 c0be 445f 473e f3b7 b1bf
00000180: 7772 093c 554c 6d3e 3642 883f 7270 933f
00000190: 6888 a73f 41f1 31bf 0004 7cbe 3b99 cfbf
000001a0: 14dd a0be fa0c 033f 10a7 33bf 0950 2f3f
000001b0: 6eaa 3a3f 89a8 b5bd 318a 5b3f ae1d a6bf
000001c0: 00bc 9f3f 84e4 f63e 705d 48bf 30ec 463c
000001d0: 4738 623f c300 a53f a59f 7d3f e392 67bf
000001e0: 3c9f 1cbc 0a43 99bf d58a 133f a081 e03e
000001f0: ef97 f23c db6a d03f 0e03 7fbf d203 0bbe
00000200: ef0e a13c c923 0140 20b8 16bf e197 f2be
00000210: 5319 8ebf e0cc 833f 0b3d bf3e 5746 57bf
00000220: a30f 3c3d 3922 45bf 50c1 c4bf 48c7 ef3f
00000230: 42af 4c3f 0585 b9bf a675 483f a557 3abf
00000240: 1058 743e c326 66bf 488f b4bf 6ac7 3b3e
00000250: d435 c4bf 5125 79bd 1a19 143f b4e3 a63e
00000260: a3e2 e9bf 76f0 033f ade6 8d3f 1cb9 e63f
00000270: a3f1 b3bf 361d 493f e25e d2bf 3d32 153f
00000280: 50e3 68bf 7f73 afbf 2d1e 703f 5372 d9be
00000290: f1ec 3340 3776 0abe 91e8 9fbd d23d 093f
000002a0: 7fa5 67be 8c78 1fbf e3f7 26be 2d6b 563f
000002b0: edbb 5d3f 3695 033f d275 fdbf f8e9 4ebf
000002c0: 7a47 23be cc6e e23e aed4 d8be 0172 ae3f
000002d0: cd83 8abf 38a4 4ebf afb4 0abf e292 76bf
000002e0: 9ce3 60be 8be7 9a3e 840f fdbe 30fe c33f
000002f0: 3416 a03d 49cb c9bf 9f21 813e 3fdf e9be
00000300: a5d8 5b3e f594 b43f 6313 b03f 8e67 e8be
00000310: d878 74be 4eb2 603f d76b 6abe 2815 02c0
00000320: de7e 213f 4465 56bf 0d4d 0fbf 730a 383e
00000330: f69b a1be b538 813f 34d8 c43d a911 283e
00000340: 6fdb 2a3e c170 16bf 4813 ac3f 6120 bdbe
00000350: 45d6 283e c944 973f 0be5 c4bf fa1d 88be
00000360: 49a2 723d 2125 503f 106b f8be ae37 f0be
00000370: 655f 513f cbfb bebf 9704 4bbe 67e3 c7bf
00000380: 2e67 dbbe 9b70 253e 58ca 663f 22aa 2f3f
00000390: 2f30 17bf 143d 1ebf ed3a 2a3f 5e67 823e
000003a0: 5b1c af3e 06fb 0c3f 05c0 10be 6ae9 93bf
000003b0: 756c 1f3f 5070 86be 62c0 06bf c324 afbf
000003c0: f956 1e3f b4bd 3b3f 1486 823f ad9c 4abf
000003d0: 233d a03c 6391 0a3f 74cd 0e40 febe 143f
000003e0: 5361 a33f 54fb 743f 59da 743f f1fe f03f
000003f0: db42 3e3f 2c46 54bf 8399 0d3e 3a5b aa3e
1.0619242 -0.7813098 0.1716175 0.21777405 -0.0737244 -0.8636516 -0.5750661 0.63820964
0.71446604 1.6888489 0.42733487 -1.0907843 -0.16014105 -0.30250922 -1.2432274 0.63076603
-0.1437783 0.38763887 -1.0972794 1.2655747 1.1750526 -0.30330533 0.28689682 0.0717334
-1.2161223 -1.1771832 0.0009167604 -0.01829805 -2.3739023 1.5142367 1.0549364 -0.15427294
-1.611207 -0.56324726 -0.8233584 -0.44448242 -0.0009317053 1.1765058 0.09447112 -0.87713546
0.3226311 0.1101071 0.6342901 -1.767903 -1.3529563 0.1935741 1.5137738 0.65149677
-0.38476104 -0.3394877 0.6258889 -0.61649555 1.4994271 0.82351506 -0.3479447 0.0075179464
-0.49520397 0.19765933 1.8100499 -0.28921545 -0.12899235 -0.38524908 -0.14529741 0.12457523
0.3448457 -1.1523849 -0.36743742 -0.7948285 0.45388758 -0.7310456 0.3517437 0.7406374
-0.1310431 -0.70426536 1.7116147 -1.3093258 0.24407516 0.32718283 1.0570577 -0.3735976
0.24612272 1.5286659 -0.033712693 0.84362525 0.191538 -1.437185 -0.96127605 1.0696423
0.82320625 1.484014 0.20973603 -1.1058443 0.16176187 -0.3761088 0.19469935 -1.3884262
0.008389107 0.2317365 1.0645206 1.151869 1.3088503 -0.6950875 -0.24610901 -1.6218637
-0.3141867 0.51191676 -0.7017679 0.684815 0.72916305 -0.08870036 0.8575774 -1.2977808
1.2479248 0.4822122 -0.78267574 0.012141272 0.8836712 1.2890857 0.99071723 -0.90458506
-0.009559449 -1.1973584 0.57633716 0.43848896 0.029613463 1.628261 -0.99614036 -0.13575676
0.019660441 2.0178092 -0.588747 -0.473815 -1.1101478 1.0296898 0.3735126 -0.84091705
0.04591335 -0.77005345 -1.5371494 1.8732691 0.7995492 -1.4493719 0.7830452 -0.72789985
0.23861718 -0.89902896 -1.4106226 0.18337789 -1.5328927 -0.060826603 0.578508 0.325956
-1.8272289 0.5153879 1.1086022 1.8025241 -1.4058117 0.785602 -1.6435206 0.5827978
-0.9097185 -1.3707122 0.93796045 -0.42470035 2.8113368 -0.13521658 -0.078080304 0.53609955
-0.22621725 -0.62293315 -0.16305499 0.8375729 0.86614877 0.5139955 -1.9801581 -0.8082576
-0.15945235 0.44225156 -0.42349762 1.3628541 -1.0821472 -0.8071933 -0.5418195 -0.96317875
-0.21961826 0.30254778 -0.494259 1.5311947 0.07816735 -1.5765163 0.25220963 -0.45678136
0.21469362 1.4107958 1.3755916 -0.45391506 -0.23874223 0.8777207 -0.228927 -2.0325413
0.6308421 -0.8374827 -0.55976945 0.17972736 -0.315643 1.0095431 0.0961155 0.16412987
0.1668527 -0.587658 1.3443384 -0.36938766 0.16487987 1.1817867 -1.5382398 -0.2658537
0.0592368 0.81306654 -0.48519182 -0.4691748 0.81786186 -1.4920591 -0.1982597 -1.5616273
-0.42852157 0.16156237 0.901525 0.6861898 -0.590579 -0.6181195 0.66496164 0.25469488
0.3420132 0.5507053 -0.1413575 -1.1555607 0.6227487 -0.26257563 -0.526373 -1.3683094
0.6185146 0.7333634 1.0197167 -0.7914532 0.019560402 0.5412809 2.2312899 0.5810393
1.2764076 0.95695996 0.9564567 1.8827802 0.74320763 -0.82919574 0.13828091 0.33272725
