Models/Tensorflow/model_local9_zombie.npz (npz, 552614 bytes, 8 tensors)

W_conv1 f4 [3, 3, 3, 16]
-0.1904496 -0.26390427 0.5332921 0.5864401 -1.2238567 -0.5563684 0.44888553 0.32942075
2.2827563 -2.1308715 -1.1736258 -1.8060938 1.857325 0.21939601 -0.20678975 0.30512682
-0.86593133 0.09607649 -0.562651 -0.9877494 0.058470126 1.8470644 0.19361849 0.38081482
1.6353353 1.5014029 -1.8529886 -2.1665127 -0.622757 2.4970815 -0.50408626 1.1857798
0.6714343 0.76317024 1.5735594 1.9867009 0.42843807 -0.43443292 -2.1047928 1.114868
-0.06686077 1.9000912 -0.43679926 -2.1172678 0.6977813 0.04005354 0.81917584 1.5648496
1.7545863 -0.42137483 -1.0561984 -1.4474765 0.15505746 0.36256063 -0.16709262 -0.42866352
-0.2956584 -0.34342083 1.0574739 -1.9071981 -0.97544163 -0.018664468 -1.4106846 -1.7613821
-1.6054354 0.64403635 1.6957141 0.33759397 1.9179417 -0.7070962 -0.6376603 0.29535878
1.6150489 0.76936567 0.9013612 0.95971155 2.0114467 -0.9962206 -0.8373521 -1.27954
0.23926193 -0.8069165 1.0002782 -0.4368739 0.616398 -0.78839046 1.2476412 -0.81874806
-0.46236938 -0.88557374 -0.3157944 -0.79716504 0.37729952 -0.3312334 -0.45473278 0.23315422
-1.4076973 -0.114487894 0.70560676 -0.11502747 -0.6950683 -0.6579756 -0.18483463 -1.0270065
-1.0819834 -0.16076012 0.66600573 -0.94009745 -1.3541362 1.7241113 -1.7383347 -1.3367617
-0.15859997 1.4268894 1.8423079 -1.431123 1.4225535 -0.23543859 2.093019 0.4225206
2.5065796 0.1566977 -0.6011165 -1.1322693 2.0617707 0.112463154 -0.22352949 -1.0235054
-1.9687706 0.17165075 0.6424342 -0.9533366 0.12647797 0.37082624 -0.13421611 -0.863692
-0.027763668 0.23715447 1.3144791 1.0303578 -1.2808694 -0.2654455 -0.7305961 -1.8125626
0.28339556 -0.33912462 -1.7669204 -0.83652025 1.4395136 0.90248656 0.1731215 1.3026358
0.5027501 1.102306 0.8593464 -2.193975 -0.44623134 0.7213557 1.3736635 -0.5002535
-0.82880604 0.3478072 0.32035843 1.0489807 0.43796632 -0.8647794 0.057612766 -1.1004626
-0.8039514 0.7684699 1.0771756 0.60347694 0.9059481 -0.5218928 -0.19117294 -0.23450658
-1.0611877 0.5925325 -0.27933896 -0.1864455 0.19443487 -1.2179029 0.27970263 1.308953
-0.17139558 0.7143112 1.1062226 -0.47136515 0.7004029 -0.14150131 0.08707761 0.7014314
2.0004308 -1.427456 0.37728778 0.31982097 0.012475457 -0.22423807 -1.5129598 -0.5080355
-0.5747853 -0.3988812 1.2183498 0.0464046 0.069971286 -0.55372214 0.19377145 0.5145493
1.6728983 1.069293 -1.4358896 0.6804812 -0.37405333 1.462212 0.37448072 1.4245706
-0.36649463 1.2619733 0.5924047 1.0908234 0.42105818 -0.6293207 -1.5999486 -1.1998111
-0.7811634 -0.90252686 1.0803748 0.41483498 -1.303785 0.26264927 0.01997853 0.4467484
1.379895 -1.0547202 -0.063120574 -0.5056817 1.4858832 -1.7082819 1.9981263 0.045168716
1.2364799 -0.5778142 -0.76184916 -0.83366567 -0.15278691 -1.5471159 0.59798807 -0.22760066
-0.6923793 0.16153443 -0.81196916 0.68070084 -1.543449 0.50795424 0.553078 -0.063868366
00000000: 3805 43be 761e 87be d585 083f f020 163f
00000010: 56a7 9cbf 296e 0ebf 53d4 e53e d6a9 a83e
00000020: ae18 1240 3360 08c0 5f39 96bf 152e e7bf
00000030: d3bc ed3f 59a9 603e b1c0 53be 9539 9c3e
00000040: adad 5dbf c0c3 c43d e509 10bf 25dd 7cbf
00000050: 5f7e 6f3d 9b6c ec3f ed43 463e 29fa c23e
00000060: ab52 d13f f82d c03f bb2e edbf 25a8 0ac0
00000070: 016d 1fbf 2fd0 1f40 cc0b 01bf a2c7 973f
00000080: 1ee3 2b3f 205f 433f 656a c93f 374c fe3f
00000090: 3c5c db3e fe6d debe edb4 06c0 ffb3 8e3f
000000a0: 4dee 88bd 3036 f33f 27a4 dfbe 5181 07c0
000000b0: cca1 323f 2e0f 243d 82b5 513f fe4c c83f
000000c0: 4996 e03f 71be d7be 8231 87bf e946 b9bf
000000d0: 62c7 1e3e 8ca1 b93e 541a 2bbe c979 dbbe
000000e0: 8a60 97be dbd4 afbe 4e5b 873f 111f f4bf
000000f0: 8bb6 79bf 3ae6 98bc 5091 b4bf f874 e1bf
00000100: e87e cdbf 91df 243f 290d d93f 1ed9 ac3e
00000110: 1d7f f53f 4204 35bf b53d 23bf 4439 973e
00000120: ecb9 ce3f 26f5 443f 9cbf 663f a8af 753f
00000130: 8bbb 0040 5008 7fbf b55c 56bf f7c7 a3bf
00000140: 1401 753e 1492 4ebf 1e09 803f f0ad dfbe
00000150: 42cc 1d3f f5d3 49bf b5b2 9f3f 7999 51bf
00000160: aebb ecbe f6b4 62bf ceaf a1be 0213 4cbf
00000170: 672d c13e 6d97 a9be bcd2 e8be fbbf 6e3e
00000180: 6d2f b4bf a178 eabd a5a2 343f 8693 ebbd
00000190: ffef 31bf 1771 28bf 4a45 3dbe f374 83bf
000001a0: 6f7e 8abf 4d9e 24be 5a7f 2a3f 3aaa 70bf
000001b0: 5654 adbf aeaf dc3f c081 debf 021b abbf
000001c0: 0868 22be 50a4 b63f bfd0 eb3f 0a2f b7bf
000001d0: 3c16 b63f d016 71be 06f4 0540 9f54 d83e
000001e0: cd6b 2040 5d75 203e c5e2 19bf 33ee 90bf
000001f0: 0df4 0340 1553 e63d eae4 64be 3a02 83bf
00000200: ad00 fcbf 37c5 2f3e 9176 243f de0d 74bf
00000210: 7183 013e f0dc bd3e f36f 09be eb1a 5dbf
00000220: a270 e3bc 9fd8 723e da40 a83f c4e2 833f
00000230: 87f3 a3bf 79e8 87be 5908 3bbf 0d02 e8bf
00000240: 3919 913e bea1 adbe 732a e2bf 3126 56bf
00000250: fb41 b83f 5c09 673f c346 313e c5bc a63f
00000260: 3bb4 003f 5d18 8d3f 20fe 5b3f 166a 0cc0
00000270: 6f78 e4be c4aa 383f 35d4 af3f 9d10 00bf
00000280: a22c 54bf c913 b23e 0506 a43e 0045 863f
00000290: 1f3d e03e 2f62 5dbf 5dfb 6b3d f5db 8cbf
000002a0: c2cf 4dbf 72ba 443f e4e0 893f 777d 1a3f
000002b0: 37ec 673f c49a 05bf d7c2 43be 7e22 70be
000002c0: 00d5 87bf 36b0 173f 8405 8fbe 92eb 3ebe
000002d0: ef19 473e 3ee4 9bbf 2f35 8f3e c68b a73f
000002e0: 5382 2fbe 19dd 363f b498 8d3f c656 f1be
000002f0: 9b4d 333f b8e5 10be bf55 b23d 0291 333f
00000300: 0f07 0040 e1b6 b6bf dd2b c13e 93bf a33e
00000310: dc65 4c3c aa9e 65be aba8 c1bf 9d0e 02bf
00000320: 2125 13bf 283a ccbe e3f2 9b3f c012 3e3d
00000330: 1b4d 8f3d bcc0 0dbf 066c 463e 81b9 033f
00000340: 8821 d63f 98de 883f 3bcb b7bf 0434 2e3f
00000350: eb83 bfbe c329 bb3f f0bb bf3e 5458 b63f
00000360: 2fa5 bbbe 5788 a13f d6a7 173f 1aa0 8b3f
00000370: f094 d73e 291b 21bf 1ecb ccbf 6993 99bf
00000380: 53fa 47bf 000c 67bf b949 8a3f 4065 d43e
00000390: 6de2 a6bf f779 863e 04aa a33c 35bc e43e
000003a0: 66a0 b03f 1201 87bf 5c45 81bd 5b74 01bf
000003b0: 6c31 be3f fba8 dabf 9ac2 ff3f d502 393d
000003c0: f944 9e3f a2eb 13bf 8c08 43bf 1d6b 55bf
000003d0: 2c74 1cbe e507 c6bf bf15 193f 2610 69be
000003e0: c53f 31bf 4869 253e 36dd 4fbf 6942 2e3f
000003f0: bd8f c5bf 4a09 023f 8596 0d3f 6bcd 82bd

W_conv2 f4 [3, 3, 16, 32]
-0.6796483 1.1721747 0.41493466 0.11798062 0.55167365 1.9846573 0.065690026 -1.5586126
1.3227274 0.60397685 -0.66514665 0.18049526 0.69999033 -0.3634957 -0.23518835 0.807317
-0.44608393 -0.5492883 0.4763257 0.5472779 -0.4461474 -0.17689721 -0.18816678 -0.0061449585
-0.9749573 0.6632924 0.12809373 1.462871 -1.2922275 -0.008066286 -0.68013895 0.08350455
-1.9090533 0.15870444 0.3800481 -0.3579096 0.97728884 0.6305891 0.2400883 0.35349658
-0.641336 -0.2731616 1.7172548 0.47545224 -0.5764303 -1.1158527 -0.87909275 -2.0263593
0.46635264 0.2934061 0.37896731 -1.5856667 0.5982238 0.9296197 -0.08559204 -1.4128525
0.7074435 -1.6881548 -1.4118184 0.71432453 1.0175179 0.12844847 -0.6999598 1.2284029
0.4426142 -1.857437 -1.1856468 -1.3650142 2.048056 0.55049473 0.39250207 0.5489876
0.47806212 -0.8329229 -0.32393226 0.67601043 0.26544034 -1.1038983 -0.6728599 -0.9508976
-0.7224946 -0.31617773 0.8090397 -0.20799236 -0.45895055 -0.21911891 0.61279315 -0.42895648
0.4913416 0.13714048 0.6205065 -0.13979092 1.6913434 -1.8639317 0.025890201 -1.934927
-0.32917562 0.6334947 0.4434716 -1.8602489 -0.17471491 1.0196087 0.16339296 1.1542451
0.6427123 0.6281354 0.33883992 0.37128636 0.30643198 -0.40097338 0.40876994 -0.80493325
0.07020462 -0.15253907 -0.60089684 -0.9640198 -1.1341218 -0.9722176 -0.49805504 -0.028072147
1.5479363 0.19476528 1.2066729 -1.2076722 -0.39764875 -0.39030355 -0.8119384 0.87642866
-1.1742326 0.49230704 -1.4118354 0.7208546 -0.22594962 -0.030601956 -1.4488044 1.5842395
1.1525878 -0.30253544 -1.2901949 0.11417073 -0.34266162 0.08370753 -0.68985385 0.46236953
0.14267899 -0.09588907 -0.140553 0.24936613 1.1993873 0.64201015 -0.4438266 -1.1091192
-0.24495569 -1.3577474 0.9560844 -1.0138354 0.80449367 0.12575652 -1.255186 1.2480836
0.6878565 -0.6471395 0.6503495 2.0610325 -1.1332724 -1.0334538 0.17486136 0.83735543
0.4819698 -0.7682479 -0.14961775 -0.32901728 -1.6897988 -0.82692844 -1.023033 0.07553325
-0.48073712 -1.4784805 -0.6540188 -0.282587 -1.4978824 -0.87871355 0.00434091 -0.8825005
-1.2057774 -1.9256246 0.50032514 0.51299703 1.4939735 -0.29409772 0.97947323 0.70953995
0.89007384 0.94979316 -1.3565006 -0.15341508 -1.4148325 0.41485363 -0.30415788 0.07531138
-0.31586778 0.8651911 1.0087864 0.5445665 -0.6556649 -0.32982102 0.5066803 -1.9970504
-0.6734751 0.93230385 1.1467781 0.4704117 1.4711021 -0.5105555 0.4266493 -1.439729
0.10792887 1.1501632 -1.0978045 1.9403496 0.6912051 -0.039413344 1.5632156 0.16091138
-1.2008177 1.6320081 0.02168373 0.47820202 1.7749615 -0.014914474 -0.09351379 0.81694674
0.06382407 -1.2549266 -0.87499326 1.0277965 -0.28105015 1.7062503 -0.9656417 -1.1906636
0.8564124 0.89329475 -0.6460054 -0.47406217 1.6129729 -0.18182105 0.9852944 1.0226629
0.48984623 -0.46087906 -0.21380623 0.61470044 -0.25064972 -0.23436987 -0.18921122 -1.8202789
00000000: 6efd 2dbf d209 963f 5172 d43e d39f f13d
00000010: 7c3a 0d3f 4009 fe3f 7e88 863d 9e80 c7bf
00000020: 224f a93f 3a9e 1a3f 0d47 2abf c0d3 383e
00000030: 9132 333f 1c1c babe 37d5 70be 54ac 4e3f
00000040: 1d65 e4be 289e 0cbf f6e0 f33e 681a 0c3f
00000050: 6f6d e4be 8b24 35be cbae 40be a65b c9bb
00000060: cd96 79bf 88cd 293f 012b 033e 5b3f bb3f
00000070: b667 a5bf 7528 04bc 961d 2ebf 6f04 ab3d
00000080: dc5b f4bf 6b83 223e aa95 c23e ed3f b7be
00000090: 9a2f 7a3f 4a6e 213f b5d9 753e 81fd b43e
000000a0: 992e 24bf d6db 8bbe 01cf db3f 7a6e f33e
000000b0: f090 13bf 43d4 8ebf 390c 61bf dfaf 01c0
000000c0: c6c5 ee3e 5339 963e 0108 c23e 20f7 cabf
000000d0: 3225 193f 8ffb 6d3f e14a afbd 5ad8 b4bf
000000e0: 041b 353f 7515 d8bf 77b6 b4bf f9dd 363f
000000f0: 073e 823f ff87 033e 9130 33bf 4e3c 9d3f
00000100: 549e e23e 7fc0 edbf 46c3 97bf c9b8 aebf
00000110: 5913 0340 39ed 0c3f 08f6 c83e 748a 0c3f
00000120: 8fc4 f43e 6f3a 55bf 73da a5be 050f 2d3f
00000130: cce7 873e 8a4c 8dbf 8c40 2cbf 066e 73bf
00000140: 68f5 38bf 0ce2 a1be 3a1d 4f3f f3fb 54be
00000150: 91fb eabe b560 60be 03e0 1c3f 2fa0 dbbe
00000160: 2091 fb3e 8e6e 0c3e 84d9 1e3f 5a25 0fbe
00000170: f17d d83f 5095 eebf b017 d43c b0ab f7bf
00000180: b589 a8be b52c 223f b60e e33e a31c eebf
00000190: 77e8 32be 8a82 823f 7c50 273e 4ebe 933f
000001a0: cb88 243f 7bcd 203f 6d7c ad3e 3f19 be3e
000001b0: a7e4 9c3e 624c cdbe 4b4a d13e 1b10 4ebf
000001c0: 71c7 8f3d 3433 1cbe 60d4 19bf 00ca 76bf
000001d0: e72a 91bf 41e3 78bf 1201 ffbe 8ff7 e5bc
000001e0: c722 c63f 8d70 473e 4274 9a3f 0195 9abf
000001f0: 9e98 cbbe ded5 c7be 32db 4fbf a15d 603f
00000200: 414d 96bf ab0f fc3e 06b7 b4bf ed89 383f
00000210: 565f 67be f4b0 fabc 6c72 b9bf 5cc8 ca3f
00000220: ff87 933f ede5 9abe 1b25 a5bf 58d2 e93d
00000230: 5871 afbe da6e ab3d 439a 30bf b3bb ec3e
00000240: 711a 123e 7d61 c4bd 20ed 0fbe d659 7f3e
00000250: 8685 993f c75a 243f 3d3d e3be 9ef7 8dbf
00000260: aad5 7abe abca adbf f2c1 743f 5cc5 81bf
00000270: 4cf3 4d3f 51c6 003e efa9 a0bf 34c1 9f3f
00000280: 5d17 303f efaa 25bf 4e7d 263f f5e7 0340
00000290: 120f 91bf 3748 84bf db0e 333e ed5c 563f
000002a0: bfc4 f63e e5ab 44bf 6535 19be f474 a8be
000002b0: 544b d8bf 95b1 53bf bff2 82bf 2db1 9a3d
000002c0: 2d23 f6be d93e bdbf c76d 27bf 3eaf 90be
000002d0: 9cba bfbf 5ff3 60bf 313e 8e3b 8eeb 61bf
000002e0: ea56 9abf de7a f6bf 4f15 003f c653 033f
000002f0: 863a bf3f fa93 96be c2be 7a3f 69a4 353f
00000300: e1db 633f a525 733f d0a1 adbf d818 1dbe
00000310: 3b19 b5bf b267 d43e 95ba 9bbe da3c 9a3d
00000320: 6cb9 a1be 2a7d 5d3f ea1f 813f b668 0b3f
00000330: a8d9 27bf 4dde a8be cdb5 013f 599f ffbf
00000340: dd68 2cbf 77ab 6e3f a0c9 923f cdd9 f03e
00000350: 134d bc3f c4b3 02bf c771 da3e 0a49 b8bf
00000360: d009 dd3d 8c38 933f dc84 8cbf 605d f83f
00000370: d1f2 303f e36f 21bd 7317 c83f f4c5 243e
00000380: 65b4 99bf a4e5 d03f 14a2 b13c e5d6 f43e
00000390: f031 e33f d75b 74bc 2884 bfbd 6c23 513f
000003a0: 32b6 823d 6fa1 a0bf 8fff 5fbf d68e 833f
000003b0: cee5 8fbe 6966 da3f 4b34 77bf aa67 98bf
000003c0: d83d 5b3f f7ae 643f 9c60 25bf 47b8 f2be
000003d0: e575 ce3f 4c2f 3abe 413c 7c3f 9ee6 823f
000003e0: 20cd fa3e 57f8 ebbe 05f0 5abe 025d 1d3f
000003f0: 2955 80be a8fe 6fbe 96c0 41be e6fe e8bf

W_fc f4 [512, 256]
-0.82589614 -0.19662298 0.12863766 -1.2317103 -0.15240708 -1.7727889 -0.36146802 -0.15534954
-1.1349931 0.4498611 -0.04844192 0.24025299 -0.015311796 0.79033285 0.30568781 0.5495496
-0.09386737 -0.17151159 0.09637611 2.0217755 0.28504187 -0.053822313 -0.059878245 1.8116568
0.37281427 -0.21424691 0.41737545 -0.48474157 0.7763396 1.7692169 0.15975927 0.6597062
0.237575 -0.21733716 0.31624827 -0.6390688 -0.4346975 1.4744631 -1.7190398 -1.3779864
1.5167859 -1.5003922 -0.23573802 -0.032165613 -0.8902932 0.17388335 0.07405084 0.43241373
-0.3984928 -2.0000002 -1.5488192 -0.24159282 -0.73661315 1.7142743 -0.46555048 -0.44345096
-1.0214404 -0.25868878 0.7427191 -0.25505874 1.0937661 1.7271453 -0.051813748 0.8087491
-0.18591276 -0.31015489 1.0521319 0.5844279 -1.6751717 0.98272485 1.0731504 0.19808719
-1.1279823 0.32962912 1.5043277 -0.07897816 -0.89889127 0.42536715 0.78124094 0.99998844
0.7897857 0.5461577 1.4186643 0.7126611 0.042959865 -0.9794291 -0.49587965 0.7590712
-0.851951 -0.09138578 -0.2354822 -1.2125353 1.3893609 -0.90148586 0.22176698 -1.9127026
0.7327914 -0.2841263 -0.32884154 0.94974184 0.23991753 0.84137124 1.1695563 0.17151003
0.14012602 -0.24902885 0.6219312 -1.6582205 -0.83089155 -0.13570233 1.1887894 0.78436565
-0.83404726 0.64702994 0.8873595 0.07989059 1.1919091 -0.06611717 -1.4653575 1.6395966
0.33706838 -0.6657571 -1.4032531 -0.11062895 -0.31252387 -0.518157 0.21555905 -0.8370903
0.68455076 0.44545615 1.1864755 -0.17062102 0.78028864 -0.056675464 0.6959775 1.7727772
1.4130735 0.77129817 -1.709637 -0.11820871 -0.2786551 0.9882202 0.9690216 -0.16932401
-0.10929584 -0.12202405 0.34347242 -0.5425407 -0.37833115 0.24620973 0.7584074 0.30833083
0.66335094 1.3925261 0.851391 0.8810543 1.2535808 -0.6414876 0.08822337 -1.2851361
0.6861223 0.68767405 -0.41727394 0.88739413 1.0273752 0.5112675 0.094621785 -0.3830434
-0.25439987 1.1893827 -1.1391429 -0.3492397 0.35811654 1.6033319 -0.75984925 -0.9610494
-0.15979852 0.029848611 0.25337902 0.34029093 -0.0725158 -0.654458 -0.6687398 -0.64272505
0.1271767 -0.34719837 -0.33753037 1.6528795 0.18877637 -0.3495047 -1.0891948 0.8058398
-0.6893787 -0.3048019 0.2255832 -0.56472725 -0.43936977 0.3754569 -0.65815926 0.33243522
-0.13991113 -0.16099676 -1.2094294 0.35171366 1.5241053 0.061893817 -0.12031417 -0.16735569
-0.4692275 0.8759382 0.6941627 -1.364567 -0.58712584 -0.9885378 0.21319002 0.5706677
1.0419023 0.014720745 -1.5800482 0.62278175 1.0504642 0.17238376 -0.0027638571 -1.2194582
1.3184228 0.13010304 0.26404634 -0.9577979 0.5086346 -0.78911984 -0.99858785 -0.4691384
-0.79299384 1.5894588 -1.0742207 1.7039434 1.2636341 1.4860417 -0.16986552 1.1867284
0.22227417 1.0724769 0.20934674 0.78749794 -1.5149484 -0.90009123 0.4215997 -1.8473852
-0.08668874 0.60303 0.15387227 -1.225615 -1.1632975 -1.3957185 -0.10977567 1.9220741
00000000: ee6d 53bf 8957 49be 97b9 033e afa8 9dbf
00000010: 9a10 1cbe bfea e2bf 5612 b9be f313 1fbe
00000020: 7447 91bf 3254 e63e 096b 46bd e104 763e
00000030: 54de 7abc 4153 4a3f 1d83 9c3e 48af 0c3f
00000040: 893d c0bd bca0 2fbe d760 c53d c564 0140
00000050: 02f1 913e c974 5cbd e442 75bd 5fe4 e73f
00000060: 83e1 be3e 8b63 5bbe 3cb2 d53e 0c30 f8be
00000070: 31be 463f b375 e23f ef97 233e 81e2 283f
00000080: dc46 733e a28d 5ebe 4beb a13e 039a 23bf
00000090: ac90 debe 35bb bc3f 7f09 dcbf dc61 b0bf
000000a0: 0a26 c23f da0c c0bf 4f65 71be 17c0 03bd
000000b0: 41ea 63bf 7a0e 323e f8a7 973d 5565 dd3e
000000c0: 4007 ccbe 0100 00c0 b53f c6bf 1c64 77be
000000d0: ae92 3cbf 576d db3f a25c eebe 010c e3be
000000e0: 8fbe 82bf db72 84be d722 3e3f 0f97 82be
000000f0: 8700 8c3f 1913 dd3f a73a 54bd 2e0a 4f3f
00000100: ea5f 3ebe 9fcc 9ebe 42ac 863f 119d 153f
00000110: 076c d6bf db93 7b3f fe5c 893f 5ed7 4a3e
00000120: b961 90bf 26c5 a83e cf8d c03f 4dbf a1bd
00000130: bd1d 66bf b9c9 d93e 68ff 473f 3eff 7f3f
00000140: 652f 4a3f fed0 0b3f cb96 b53f f570 363f
00000150: aff6 2f3d debb 7abf f0e3 fdbe 7d52 423f
00000160: 7619 5abf 7828 bbbd 3f22 71be 5b34 9bbf
00000170: 94d6 b13f c7c7 66bf e216 633e 70d3 f4bf
00000180: 3898 3b3f 0179 91be eb5d a8be 4822 733f
00000190: f1ac 753e 1b64 573f 05b4 953f 53a0 2f3e
000001a0: 327d 0f3e 6b01 7fbe e236 1f3f 9240 d4bf
000001b0: 4fb5 54bf 8df5 0abe 402a 983f 30cc 483f
000001c0: 1f84 55bf c1a3 253f fe29 633f ad9d a33d
000001d0: 7a90 983f 7068 87bd d690 bbbf 4dde d13f
000001e0: 3a94 ac3e 0f6f 2abf cc9d b3bf 6e91 e2bd
000001f0: 2103 a0be f0a5 04bf 83bb 5c3e 8d4b 56bf
00000200: b83e 2f3f d412 e43e 6ede 973f 47b7 2ebe
00000210: ffc0 473f 8824 68bd 952b 323f 5dea e23f
00000220: 98df b43f cc73 453f 63d5 dabf 6817 f2bd
00000230: e2ab 8ebe 00fc 7c3f cd11 783f 4663 2dbe
00000240: 7fd6 dfbd bfe7 f9bd 9edb af3e f3e3 0abf
00000250: 9fb4 c1be 671e 7c3e fd26 423f 8add 9d3e
00000260: 5ed1 293f 4c3e b23f c3f4 593f c68c 613f
00000270: 5675 a03f 8838 24bf 74ae b43d 577f a4bf
00000280: b6a5 2f3f 680b 303f eea4 d5be 432c 633f
00000290: 0881 833f 6de2 023f 11c9 c13d 441e c4be
000002a0: b340 82be b13d 983f 6fcf 91bf 8ccf b2be
000002b0: 0d5b b73e fb39 cd3f 7b85 42bf 5507 76bf
000002c0: 39a2 23be 1385 f43c e5ba 813e 9d3a ae3e
000002d0: 2a83 94bd 8f8a 27bf 8832 2bbf a189 24bf
000002e0: 9c3a 023e fcc3 b1be c8d0 acbe 8e91 d33f
000002f0: 984e 413e 48f2 b2be bc6a 8bbf 844b 4e3f
00000300: 1f7b 30bf ff0e 9cbe 48ff 663e f791 10bf
00000310: 13f5 e0be e33b c03e 207d 28bf f334 aa3e
00000320: dd44 0fbe 56dc 24be 95ce 9abf d013 b43e
00000330: e215 c33f 5f84 7d3d 4767 f6bd 4a5f 2bbe
00000340: 963e f0be 7c3d 603f a6b4 313f 22aa aebf
00000350: e14d 16bf d010 7dbf 7c4e 5a3e 4717 123f
00000360: 0e5d 853f 482f 713c 053f cabf a06e 1f3f
00000370: 9c75 863f 5e85 303e d421 35bb 3517 9cbf
00000380: 14c2 a83f bb39 053e 1531 873e 3e32 75bf
00000390: e135 023f c203 4abf 74a3 7fbf e932 f0be
000003a0: a501 4bbf 6373 cb3f 1080 89bf d11a da3f
000003b0: c3be a13f 9d36 be3f 3af1 2dbe b7e6 973f
000003c0: d79b 633e ec46 893f fe5e 563e 7799 493f
000003d0: d4e9 c1bf 616c 66bf eadb d73e 1e77 ecbf
000003e0: de89 b1bd 2d60 1a3f b190 1d3e f4e0 9cbf
000003f0: efe6 94bf e7a6 b2bf 11d2 e0bd 8606 f63f

W_out f4 [256, 5]
1.7262673 -0.83169377 -0.12112776 0.18497933 0.080817215 -0.891386 -0.81663954 0.6149269
0.82711715 1.6055218 0.3959867 -1.0306057 -0.15106054 -0.28582326 -1.243272 0.65723675
-0.1419874 0.48340237 -1.1772077 1.3228859 1.4525739 -0.6428483 0.30426607 0.40297323
-1.0683701 -1.1126398 0.26736718 0.6046127 -1.9550428 1.0289365 0.97728795 0.035647117
-1.2919469 0.1123212 -0.51420504 -0.9000592 -1.5765569 1.1281912 0.013948134 -0.86729145
0.6713392 0.037235696 0.5033909 -1.2386671 -1.5109693 0.8999277 1.4161294 0.6222268
-0.37844002 -0.05283679 0.50203454 -0.2174528 1.2719284 0.52337736 -0.29956704 -0.4783195
-0.8763011 0.11831157 1.8085164 -0.7196871 -0.05694555 -0.37086314 -0.5620923 0.34481093
0.20690867 -1.1557478 -0.38106483 -0.5240909 0.33736527 -0.8728306 0.46533823 0.62344843
0.16146283 -0.70587546 0.59159654 -1.0565213 -0.03577461 0.101621926 0.91443115 -0.22355123
-0.16086477 0.60724765 -0.29374424 0.78028667 -0.30061415 -1.4500492 -1.0339968 1.0736071
0.7828792 1.5524141 0.26303545 -1.1339447 0.09465833 -0.24054031 0.18332335 -1.586648
-0.7570176 -0.23068698 0.73183423 0.60157275 1.3126856 -0.91597843 -0.1431087 -1.6807685
-0.40068498 0.56596667 -0.69926494 0.51468796 -0.036415678 -0.20862319 0.950346 -0.93307894
0.8438452 0.21791175 -0.41582882 -0.07554619 0.52106416 1.158431 0.41042635 -0.76050144
-0.07896548 -1.3215177 0.40953422 0.46760085 -0.40032035 1.4678956 -0.8219762 0.010407596
-0.10920538 1.4344587 -0.4823469 -0.36864197 -1.0003502 1.0467088 0.19980131 -0.48135033
0.39978388 -0.75441635 -1.2531042 1.7713314 2.5283828 -0.39298266 0.6370116 -0.65427387
0.4897597 -0.76985323 -1.3525891 0.36001018 -1.1173 -0.025474764 0.9278003 0.38444874
-1.798573 0.8172877 1.1170361 1.874 -1.3514742 0.4944426 -1.682129 0.92469484
-1.6818914 -1.7268535 0.85732794 -0.20778592 1.2824372 -0.16223864 0.34693623 0.13415204
-0.13477269 -0.91325843 0.14593564 1.1354547 0.09314774 0.18259929 -1.0338569 -1.8907826
-0.30890036 0.570935 -1.1065552 0.6003337 -1.1109294 -0.01444024 -0.8450866 -1.0542995
-0.3464016 0.30575946 -0.7140966 1.5277356 0.091616325 -1.4419793 -0.5333079 -0.61115867
0.065765895 2.1559365 0.23284456 -0.48757577 -0.600539 1.0195932 -0.4546755 -1.5049964
1.0908716 0.27625138 -0.42184922 -0.16537216 -0.3580179 0.9534082 -0.013591422 0.20330638
0.17388268 -0.61226463 1.4036635 0.14471152 0.2504792 0.8406561 -1.4273012 -0.6206252
0.44381002 0.31158388 -0.82250947 -0.103453964 2.0754428 -1.5321444 0.33315167 -1.2300622
-0.058386985 0.29499936 0.2360502 0.82253206 0.023350298 -0.53701705 0.6215795 -0.025793562
0.15188877 0.5448635 0.06700554 -1.2135459 0.31293628 -0.5494651 -0.89815545 -1.0647087
0.7023812 0.6290031 0.8388595 -0.65569484 -0.44109166 0.31970778 1.6172558 0.6399832
0.53279996 0.96926063 1.2449694 1.8031255 0.7336081 -0.77814573 0.0298121 -0.087414704
00000000: 54f6 dc3f e2e9 54bf d511 f8bd 396b 3d3e
00000010: 7f83 a53d df31 64bf 4a0f 51bf d96b 1d3f
00000020: f3bd 533f bd81 cd3f c5be ca3e e3ea 83bf
00000030: 9daf 1abe 6d57 92be 8923 9fbf ab40 283f
00000040: 2565 11be 8480 f73e beae 96bf 5354 a93f
00000050: f1ed b93f b591 24bf c3c8 9b3e 8252 ce3e
00000060: 5ac0 88bf fb6a 8ebf 5ae4 883e e6c7 1a3f
00000070: d83e fabf 31b4 833f 8b2f 7a3f b602 123d
00000080: 845e a5bf a808 e63d f1a2 03bf 486a 66bf
00000090: 9ecc c9bf 9268 903f b786 643c d006 5ebf
000000a0: e3dc 2b3f 7584 183d 3ade 003f a58c 9ebf
000000b0: 7167 c1bf a961 663f ba43 b53f 414a 1f3f
000000c0: e4c2 c1be 646b 58bd 5685 003f f2ab 5ebe
000000d0: 8dce a23f 0ffc 053f da60 99be 4be6 f4be
000000e0: 4555 60bf 564d f23d 777d e73f 6a3d 38bf
000000f0: bd3f 69bd c6e1 bdbe 48e5 0fbf 0f8b b03e
00000100: dedf 533e 8bef 93bf ee1a c3be d22a 06bf
00000110: 24bb ac3e d471 5fbf d040 ee3e 519a 1f3f
00000120: 8356 253e 41b4 34bf df72 173f 173c 87bf
00000130: 6688 12bd 281f d03d 2918 6a3f 9dea 64be
00000140: bcb9 24be 9574 1b3f a565 96be dec0 473f
00000150: 19ea 99be 369b b9bf 025a 84bf f56b 893f
00000160: c56a 483f 81b5 c63f 95ac 863e 1a25 91bf
00000170: 3adc c13d 3350 76be 1eb9 3b3e 4817 cbbf
00000180: e8cb 41bf 3539 6cbe 7d59 3b3f ac00 1a3f
00000190: 1506 a83f 907d 6abf 168b 12be 6c23 d7bf
000001a0: 9526 cdbe 31e3 103f 0703 33bf 97c2 033f
000001b0: 9b28 15bd 51a1 55be e049 733f 43de 6ebf
000001c0: 3d06 583f 4224 5f3e 84e7 d4be f6b7 9abd
000001d0: 7664 053f 7847 943f 6723 d23e 39b0 42bf
000001e0: a7b8 a1bd 7e27 a9bf 78ae d13e 6169 ef3e
000001f0: caf6 ccbe 01e4 bb3f 086d 52bf 9f84 2a3c
00000200: 12a7 dfbd 589c b73f 2cf6 f6be a4be bcbe
00000210: 7a0b 80bf 8efa 853f b798 4c3e 8d73 f6be
00000220: 79b0 cc3e 6e21 41bf b865 a0bf fdba e23f
00000230: 06d1 2140 0635 c9be 3113 233f 7e7e 27bf
00000240: c9c1 fa3e 1a15 45bf a421 adbf 4153 b83e
00000250: b003 8fbf 74b0 d0bc 5284 6d3f 77d6 c43e
00000260: a437 e6bf c439 513f 0afb 8e3f 3bdf ef3f
00000270: 1bfd acbf 9527 fd3e 0150 d7bf cdb8 6c3f
00000280: 3848 d7bf 8909 ddbf d879 5b3f d5c5 54be
00000290: e726 a43f e321 26be a0a1 b13e 275f 093e
000002a0: da01 0abe 4ecb 69bf 2770 153e 9456 913f
000002b0: 3ec4 be3d 4ffb 3a3e 6c55 84bf 2a05 f2bf
000002c0: 3028 9ebe cc28 123f 9aa3 8dbf 78af 193f
000002d0: ef32 8ebf c296 6cbc 9857 58bf 49f3 86bf
000002e0: 8d5b b1be 818c 9c3e 09cf 36bf d78c c33f
000002f0: 57a1 bb3d c792 b8bf de86 08bf e574 1cbf
00000300: 45b0 863d ddfa 0940 ce6e 6e3e 88a3 f9be
00000310: edbc 19bf 0882 823f 3acb e8be b9a3 c0bf
00000320: aea1 8b3f d270 8d3e 9ffc d7be 5257 29be
00000330: 1f4e b7be 8f12 743f 8eae 5ebc 8c2f 503e
00000340: 4d0e 323e 60bd 1cbf 3fab b33f 422f 143e
00000350: cf3e 803e 3d35 573f ceb1 b6bf 4be1 1ebf
00000360: 113b e33e ec87 9f3e fb8f 52bf acdf d3bd
00000370: 0ed4 0440 4f1d c4bf db92 aa3e ae72 9dbf
00000380: 3127 6fbd 280a 973e 25b7 713e 7691 523f
00000390: 2049 bf3c f379 09bf d61f 1f3f 054d d3bc
000003a0: bb88 1b3e 2d7c 0b3f 333a 893d 7955 9bbf
000003b0: 2f39 a03e bfa9 0cbf 84ed 65bf 6048 88bf
000003c0: 41cf 333f 5906 213f 7fbf 563f 9edb 27bf
000003d0: c4d6 e1be bdb0 a33e 3d02 cf3f f0d5 233f
000003e0: 9465 083f 7721 783f 285b 9f3f d1cc e63f
000003f0: becd 3b3f 8f34 47bf 8138 f43c 7b06 b3bd

b_conv1 f4 [16]
0.1 0.1 0.1 0.1 0.1 0.1 0.1 0.1
0.1 0.1 0.1 0.1 0.1 0.1 0.1 0.1
00000000: cdcc cc3d cdcc cc3d cdcc cc3d cdcc cc3d
00000010: cdcc cc3d cdcc cc3d cdcc cc3d cdcc cc3d
00000020: cdcc cc3d cdcc cc3d cdcc cc3d cdcc cc3d
00000030: cdcc cc3d cdcc cc3d cdcc cc3d cdcc cc3d

b_conv2 f4 [32]
0.1 0.1 0.1 0.1 0.1 0.1 0.1 0.1
0.1 0.1 0.1 0.1 0.1 0.1 0.1 0.1
0.1 0.1 0.1 0.1 0.1 0.1 0.1 0.1
0.1 0.1 0.1 0.1 0.1 0.1 0.1 0.1
00000000: cdcc cc3d cdcc cc3d cdcc cc3d cdcc cc3d
00000010: cdcc cc3d cdcc cc3d cdcc cc3d cdcc cc3d
00000020: cdcc cc3d cdcc cc3d cdcc cc3d cdcc cc3d
00000030: cdcc cc3d cdcc cc3d cdcc cc3d cdcc cc3d
00000040: cdcc cc3d cdcc cc3d cdcc cc3d cdcc cc3d
00000050: cdcc cc3d cdcc cc3d cdcc cc3d cdcc cc3d
00000060: cdcc cc3d cdcc cc3d cdcc cc3d cdcc cc3d
00000070: cdcc cc3d cdcc cc3d cdcc cc3d cdcc cc3d

b_fc f4 [256]
0.09974111 0.1 0.09830846 0.09977204 0.10372632 0.09854575 0.09868229 0.09832494
0.09874413 0.099312216 0.09968826 0.09867372 0.09958276 0.100886114 0.10439465 0.09752513
0.098510794 0.09966552 0.10089174 0.09943393 0.09891222 0.097561635 0.09898428 0.099078424
0.09973079 0.098379225 0.0996003 0.09979257 0.09845138 0.100386105 0.09888654 0.09943702
0.098496966 0.09824137 0.100959964 0.09963984 0.101618394 0.097205125 0.099508904 0.102247454
0.10298526 0.10001595 0.09884474 0.098484635 0.104043685 0.100000344 0.09967871 0.09994392
0.09840532 0.09939968 0.09851247 0.100956194 0.10088747 0.099951304 0.0986262 0.09782221
0.09987638 0.106770106 0.10001568 0.09718733 0.09848948 0.10001114 0.099146016 0.098243974
0.1 0.100194655 0.09707956 0.09886143 0.10029454 0.099851556 0.09918456 0.099027924
0.096558236 0.098846145 0.10109453 0.09880749 0.09744666 0.10011484 0.10202745 0.097895816
0.09964019 0.10144513 0.099995196 0.09840254 0.10189393 0.098427616 0.09841565 0.098343275
0.10059279 0.09732189 0.099975474 0.097547986 0.09849159 0.09886397 0.10000129 0.09888206
0.09960868 0.10007156 0.100974396 0.09891314 0.098233424 0.09976265 0.09895762 0.10054608
0.10043033 0.105146684 0.09998972 0.09924245 0.10000711 0.09939632 0.09798843 0.1
0.1004742 0.09862412 0.098596506 0.1 0.1007515 0.10005777 0.10013424 0.09981721
0.09927964 0.09949827 0.101234026 0.10101202 0.10091782 0.10079436 0.10089972 0.09938284
0.099883094 0.09948024 0.10112135 0.09833742 0.09914742 0.09947697 0.1003002 0.096222505
0.099776655 0.09911398 0.09820298 0.099053614 0.10025168 0.09933676 0.10768199 0.09762136
0.10087097 0.10017739 0.10238867 0.102640726 0.10191517 0.0999975 0.09927246 0.09743847
0.09796359 0.09876461 0.09912676 0.0998927 0.10039425 0.09928937 0.097443745 0.10021851
0.100089826 0.09700521 0.10035336 0.09967446 0.09732907 0.10146426 0.100206494 0.10275955
0.100145444 0.099816054 0.10171978 0.100308456 0.10066002 0.09813041 0.0984058 0.10021566
0.09979028 0.1 0.099587 0.0991199 0.0999598 0.103167504 0.09887932 0.09882997
0.10183643 0.10029805 0.09699852 0.097980335 0.09945772 0.09986281 0.09948028 0.09086787
0.09872445 0.10799475 0.0967017 0.098449625 0.09798848 0.09934691 0.096122384 0.10004452
0.10165108 0.098559044 0.101777315 0.09823197 0.09885905 0.10172975 0.1 0.09451586
0.09944188 0.10245184 0.10001627 0.09963654 0.10038046 0.10334959 0.101168685 0.1
0.09931684 0.09922178 0.09798731 0.09981498 0.09792531 0.1 0.098831944 0.09925321
0.096686795 0.10722637 0.104248576 0.096375816 0.1 0.09909817 0.10025496 0.10008648
0.1 0.101102926 0.0980587 0.09940505 0.101801075 0.10004456 0.0987005 0.10003165
0.098714225 0.09969362 0.106717624 0.10034524 0.103194274 0.09882371 0.10177737 0.099457994
0.09997473 0.099664405 0.10045615 0.09991575 0.10013194 0.10073995 0.10407295 0.10065032
00000000: 1145 cc3d cdcc cc3d f255 c93d 4955 cc3d
00000010: 776e d43d 5bd2 c93d f119 ca3d 965e c93d
00000020: 5d3a ca3d 3464 cb3d 5c29 cc3d 7315 ca3d
00000030: 0cf2 cb3d 619d ce3d ddcc d53d 41bb c73d
00000040: 07c0 c93d 701d cc3d 54a0 ce3d 04a4 cb3d
00000050: 7d92 ca3d 65ce c73d 45b8 ca3d a1e9 ca3d
00000060: a83f cc3d 0c7b c93d 3efb cb3d 0c60 cc3d
00000070: e1a0 c93d 3b97 cd3d 0785 ca3d a3a5 cb3d
00000080: c7b8 c93d c532 c93d 19c4 ce3d f90f cc3d
00000090: 4e1d d03d 7b13 c73d 53cb cb3d 1d67 d13d
000000a0: f0e9 d23d 2ad5 cc3d 1c6f ca3d 50b2 c93d
000000b0: db14 d53d fbcc cc3d 5a24 cc3d 66af cc3d
000000c0: ba88 c93d 0f92 cb3d e8c0 c93d 1fc2 ce3d
000000d0: 179e ce3d 45b3 cc3d 88fc c93d 0357 c83d
000000e0: fd8b cc3d 49aa da3d 05d5 cc3d 270a c73d
000000f0: dab4 c93d a4d2 cc3d 110d cb3d 2334 c93d
00000100: cdcc cc3d db32 cd3d a6d1 c63d dd77 ca3d
00000110: 3967 cd3d f97e cc3d 4621 cb3d 27cf ca3d
00000120: 53c0 c53d d96f ca3d a60a cf3d 955b ca3d
00000130: 1d92 c73d 0209 cd3d c5f3 d03d 9a7d c83d
00000140: 2810 cc3d 77c2 cf3d 48ca cc3d 4587 c93d
00000150: c4ad d03d 6b94 c93d 258e c93d 3368 c93d
00000160: 9803 ce3d b350 c73d f1bf cc3d 3dc7 c73d
00000170: f5b5 c93d 3179 ca3d 7acd cc3d ad82 ca3d
00000180: a3ff cb3d 51f2 cc3d aacb ce3d f992 ca3d
00000190: 9b2e c93d 5c50 cc3d 4baa ca3d 1aeb cd3d
000001a0: 6bae cd3d 2557 d73d 69c7 cc3d a03f cb3d
000001b0: 87d0 cc3d 4c90 cb3d 28ae c83d cdcc cc3d
000001c0: 6bc5 cd3d 71fb c93d f7ec c93d cdcc cc3d
000001d0: cd56 ce3d 17eb cc3d 2e13 cd3d f76c cc3d
000001e0: 2053 cb3d c0c5 cb3d c953 cf3d 64df ce3d
000001f0: 01ae ce3d 466d ce3d 83a4 ce3d 3b89 cb3d
00000200: 828f cc3d 4cbc cb3d b618 cf3d 2165 c93d
00000210: cd0d cb3d 95ba cb3d 316a cd3d 4e10 c53d
00000220: b457 cc3d 45fc ca3d a51e c93d 9fdc ca3d
00000230: c150 cd3d 1271 cb3d 6088 dc3d b5ed c73d
00000240: 7095 ce3d ce29 cd3d 27b1 d13d 4d35 d23d
00000250: e7b8 d03d 7dcb cc3d 5c4f cb3d d28d c73d
00000260: 22a1 c83d 1a45 ca3d f902 cb3d 8b94 cc3d
00000270: 809b cd3d 3a58 cb3d 9690 c73d 5d3f cd3d
00000280: e5fb cc3d abaa c63d 1086 cd3d 2022 cc3d
00000290: 7754 c73d 7ecc cf3d 1039 cd3d 9973 d23d
000002a0: 0e19 cd3d 5c6c cc3d 7652 d03d 856e cd3d
000002b0: d726 ce3d 99f8 c83d fb88 c93d de3d cd3d
000002c0: d95e cc3d cdcc cc3d 45f4 cb3d 60ff ca3d
000002d0: b9b7 cc3d 7c49 d33d 3e81 ca3d 5e67 ca3d
000002e0: 9e8f d03d 1069 cd3d 29a7 c63d eaa9 c83d
000002f0: 7db0 cb3d df84 cc3d 51bc cb3d ef18 ba3d
00000300: 0b30 ca3d 5a2c dd3d 8a0b c63d f59f c93d
00000310: 2fae c83d 6576 cb3d d0db c43d 24e4 cc3d
00000320: 712e d03d 53d9 c93d a070 d03d d82d c93d
00000330: 9d76 ca3d b057 d03d cdcc cc3d 8891 c13d
00000340: 2fa8 cb3d 45d2 d13d 55d5 cc3d 3e0e cc3d
00000350: 4594 cd3d f3a8 d33d 8731 cf3d cdcc cc3d
00000360: a166 cb3d ca34 cb3d 92ad c83d cc6b cc3d
00000370: 118d c83d cdcc cc3d 6768 ca3d 4445 cb3d
00000380: ba03 c63d 8099 db3d 4780 d53d af60 c53d
00000390: cdcc cc3d fbf3 ca3d 7952 cd3d 24fa cc3d
000003a0: cdcc cc3d 0d0f cf3d 00d3 c83d e094 cb3d
000003b0: 157d d03d 2ae4 cc3d 7d23 ca3d 65dd cc3d
000003c0: af2a ca3d 2b2c cc3d c58e da3d ce81 cd3d
000003d0: 8557 d33d 1664 ca3d a770 d03d a2b0 cb3d
000003e0: 8dbf cc3d da1c cc3d f4bb cd3d a1a0 cc3d
000003f0: f911 cd3d bf50 ce3d 3324 d53d c121 ce3d

b_out f4 [5]
0.08854796 0.098478824 0.0954814 0.095054395 0.09632621
00000000: a258 b53d 44af c93d c18b c33d e1ab c23d
00000010: ad46 c53d
