Models/Tensorflow/model_local9_zombie.npz (npz, 552614 bytes, 8 tensors)

b_conv1 f4 [16]
0	0x3dcccccd	0.1
1	0x3dcccccd	0.1
2	0x3dcccccd	0.1
3	0x3dcccccd	0.1
4	0x3dcccccd	0.1
5	0x3dcccccd	0.1
6	0x3dcccccd	0.1
7	0x3dcccccd	0.1
8	0x3dcccccd	0.1
9	0x3dcccccd	0.1
10	0x3dcccccd	0.1
11	0x3dcccccd	0.1
12	0x3dcccccd	0.1
13	0x3dcccccd	0.1
14	0x3dcccccd	0.1
15	0x3dcccccd	0.1

W_fc f4 [512, 256]
0	0xbf4baf5b	-0.79564446
1	0xbe495789	-0.19662298
2	0x3e062962	0.13101724
3	0xbf9cad00	-1.2240295
4	0xbe250251	-0.16114165
5	0xbfe54a31	-1.7913266
6	0xbec46f7b	-0.38366303
7	0xbe155c82	-0.1458607
8	0xbf87a465	-1.0597044
9	0x3edffd9a	0.4374817
10	0xbd31de69	-0.043424997
11	0x3e7cd3f8	0.24690235
12	0xbc9434d9	-0.018091606
13	0x3f4d1b75	0.8012002
14	0x3e8b062d	0.2715315
15	0x3f0d476f	0.55187124
16	0xbda0dc79	-0.07854552
17	0xbe2dc0f2	-0.16968134
18	0x3dc0f4d8	0.094217
19	0x3ff90495	1.9454523
20	0x3e962c9f	0.29330918
21	0xbd8292a0	-0.06375623
22	0xbd7aabeb	-0.06119911
23	0x3fe7d0c3	1.8110584
24	0x3ebf3cf9	0.37351206
25	0xbe54291e	-0.2071881
26	0x3ed7edc7	0.42173597
27	0xbf056d7f	-0.521202
28	0x3f457338	0.77128935
29	0x3ff6e58f	1.9288806
30	0x3dcbd3dd	0.09952519
31	0x3f2bf8eb	0.67176694
32	0x3e933e3b	0.28758416
33	0xbe544733	-0.20730285
34	0x3ea8947d	0.32925788
35	0xbf195a6e	-0.5990361
36	0xbedf3211	-0.43592885
37	0x3fbd3760	1.4782524
38	0xbfe3ef2d	-1.7807366
39	0xbfa01ef4	-1.2509446
40	0x3fd8f4f7	1.6949757
41	0xbfc00e4c	-1.5004363
42	0xbe754056	-0.23950323
43	0xbd1231f0	-0.035692155
44	0xbf7568f4	-0.9586327
45	0x3e320e7a	0.17388335
46	0x3d9fa21b	0.07794591
47	0x3edd81ab	0.4326299
48	0xbeca3fc5	-0.39501777
49	0xc001cd19	-2.0281432
50	0xbfda5040	-1.705574
51	0xbe81f3bd	-0.2538127
52	0xbf4dc0fc	-0.80372596
53	0x3fdb6d57	1.7142743
54	0xbeef2139	-0.46705034
55	0xbed6e3f5	-0.41970792
56	0xbf82ba36	-1.0213077
57	0xbe70d7ed	-0.23519869
58	0x3f3e1eeb	0.7426593
59	0xbe4cb24d	-0.19989891
60	0x3f8c727f	1.0972441
61	0x3fe7344b	1.8062834
62	0xbd32d34a	-0.043658532
63	0x3f54b57d	0.8308943
64	0xbe3e5fea	-0.18591276
65	0xbea10937	-0.31452343
66	0x3f85db16	1.0457485
67	0x3f128f52	0.5724994
68	0xbfd2dfc8	-1.6474543
69	0x3f7bcf2e	0.98363006
70	0x3f83a33c	1.028419
71	0x3e557174	0.2084406
72	0xbfa60b59	-1.2972213
73	0x3ec03e74	0.37547648
74	0x3fd5d19b	1.6704592
75	0xbda879ad	-0.08226333
76	0xbf55ef07	-0.8356785
77	0x3ed9b3ab	0.42519888
78	0x3f3d1b88	0.73870134
79	0x3f8c4500	1.0958557
80	0x3f57d1ae	0.8430432
81	0x3f133655	0.5750478
82	0x3fb597f3	1.4186996
83	0x3f3f390f	0.7469644
84	0x3ce424e4	0.027849622
85	0xbf830644	-1.0236287
86	0xbefdcf51	-0.49572232
87	0x3f3e8a39	0.7442966
88	0xbf4f59eb	-0.8099658
89	0xbde6586e	-0.112473354
90	0xbe7104d9	-0.23537005
91	0xbf9e2fc4	-1.2358327
92	0x3fbf8e53	1.4965309
93	0xbf5e84c8	-0.8692136
94	0x3e6315fe	0.22176358
95	0xbffb746f	-1.9644908
96	0x3f388d9e	0.7209109
97	0xbea4ec15	-0.32211366
98	0xbec02644	-0.37529194
99	0x3f733047	0.9499554
100	0x3e71d07b	0.23614685
101	0x3f5b1e89	0.8559347
102	0x3f96fe8d	1.1796433
103	0x3e2d5c44	0.16929728
104	0x3e0ec33d	0.13941665
105	0xbe79eb27	-0.2440611
106	0x3f24efca	0.6442839
107	0xbfd49389	-1.6607524
108	0xbf54acf6	-0.8307642
109	0xbe353dbe	-0.17699334
110	0x3f9f3eec	1.2441077
111	0x3f48cc30	0.78436565
112	0xbf5418ee	-0.8285054
113	0x3f271ca1	0.6527806
114	0x3f633488	0.8875203
115	0x3da39dad	0.07989059
116	0x3f95e593	1.1710685
117	0xbdac755f	-0.08420824
118	0xbfc77775	-1.558333
119	0x3fd1fcc4	1.6405263
120	0x3eb0a88a	0.34503585
121	0xbf215bf8	-0.6303096
122	0xbfbb2f67	-1.4623841
123	0xbda2c2e3	-0.07947328
124	0xbeb34719	-0.3501518
125	0xbf099669	-0.5374513
126	0x3e6cb16b	0.23114555
127	0xbf5edb1a	-0.8705307
128	0x3f2f329b	0.6843659
129	0x3ee55756	0.44793195
130	0x3f95db0c	1.1707473
131	0xbe3a296b	-0.18179862
132	0x3f47cb6e	0.78044784
133	0xbd533934	-0.051568225
134	0x3f33b162	0.7019254
135	0x3fe18237	1.7617863
136	0x3fb4a94b	1.4114164
137	0x3f3abb54	0.7294209
138	0xbfd7ee9d	-1.6869694
139	0xbd6d113b	-0.05787776
140	0xbe90c44e	-0.2827477
141	0x3f7d6ba4	0.9899237
142	0x3f70fa1f	0.94131655
143	0xbe1eb845	-0.15499981
144	0xbe2dd239	-0.16974725
145	0xbdf98c31	-0.121849425
146	0x3ebc9b09	0.36837032
147	0xbf228c35	-0.6349519
148	0xbec6d450	-0.38833857
149	0x3e7c1e67	0.24620973
150	0x3f41cc36	0.75702226
151	0x3eaf322e	0.34217972
152	0x3f2962a8	0.6616616
153	0x3fb2918b	1.3950666
154	0x3f5a7246	0.8533062
155	0x3f63088a	0.88684905
156	0x3fae0e20	1.3598061
157	0xbf260b95	-0.6486142
158	0x3dd18828	0.10231048
159	0xbfa38182	-1.2773898
160	0x3f2fa1cd	0.68606263
161	0x3f3c3160	0.7351284
162	0xbed6313b	-0.41834435
163	0x3f63826c	0.88870883
164	0x3f97f705	1.1872259
165	0x3f0fff9a	0.5624939
166	0x3dc44194	0.095828205
167	0xbeca533d	-0.3951663
168	0xbe76cabe	-0.24100778
169	0x3f840fda	1.0317338
170	0xbf9db8ea	-1.2322056
171	0xbeaa5231	-0.33265832
172	0x3eb7eb78	0.35921836
173	0x3fc991ed	1.5747658
174	0xbf42ba01	-0.7606507
175	0xbf8200b0	-1.015646
176	0xbe2ca7a2	-0.16860822
177	0x3cf48513	0.029848611
178	0x3e82105c	0.25403106
179	0x3eaef43d	0.34170714
180	0xbd9433ac	-0.07236418
181	0xbf315298	-0.69266653
182	0xbf297128	-0.6618829
183	0xbf30331d	-0.6882799
184	0x3e18f4f5	0.14937194
185	0xbeb3232f	-0.3498778
186	0xbea6312c	-0.3245939
187	0x3fd41420	1.6568642
188	0x3e58c3d7	0.21168457
189	0xbeb42948	-0.35187745
190	0xbf8e7ccb	-1.1131834
191	0x3f5ca153	0.8618366
192	0xbf35734f	-0.7087907
193	0xbec466a6	-0.38359565
194	0x3e705cd6	0.23472914
195	0xbf0f0797	-0.55870956
196	0xbedaf20f	-0.427628
197	0x3ec117b8	0.37713408
198	0xbf22ffc9	-0.6367155
199	0x3ea4a74d	0.3215889
200	0xbe1fa76b	-0.15591209
201	0xbe1c00d8	-0.15234697
202	0xbf966330	-1.174902
203	0x3eb7f781	0.35931018
204	0x3faf44bc	1.3692851
205	0x3ce1203b	0.027481189
206	0xbdf66747	-0.12031417
207	0xbe15778f	-0.14596389
208	0xbee927cb	-0.45538172
209	0x3f52aae1	0.8229199
210	0x3f32e095	0.69873935
211	0xbfb0b5af	-1.3805445
212	0xbf1755a6	-0.59115064
213	0xbf7b3ffb	-0.981445
214	0x3e469051	0.1939099
215	0x3f121747	0.5706677
216	0x3f932319	1.1495086
217	0x3b98aa41	0.0046589677
218	0xbfca01bd	-1.578178
219	0x3f21802d	0.63086206
220	0x3f86caf7	1.053069
221	0x3e30855e	0.17238376
222	0x3cc52b74	0.024068572
223	0xbf9c465f	-1.2208976
224	0x3faa0228	1.3281908
225	0x3dfffabf	0.12498998
226	0x3e790c3e	0.24321076
227	0xbf6a5811	-0.9154063
228	0x3f0235e1	0.5086346
229	0xbf4b9c8d	-0.7953575
230	0xbf84a277	-1.036208
231	0xbeef4dd2	-0.4673906
232	0xbf4b01a5	-0.79299384
233	0x3fcaf8d7	1.585719
234	0xbf842db4	-1.0326447
235	0x3fda0581	1.703293
236	0x3faa6502	1.3312075
237	0x3fd19e5d	1.6376454
238	0xbe36e8a2	-0.1786218
239	0x3f97e0f0	1.186552
240	0x3e60abd4	0.21940547
241	0x3f8a7532	1.0817015
242	0x3e5a9977	0.21347605
243	0x3f5049e4	0.8136275
244	0xbfafdbda	-1.3738968
245	0xbf65d9d5	-0.8978551
246	0x3ecba3b3	0.3977333
247	0xbfeb3215	-1.8374659
248	0xbdb205d2	-0.086925164
249	0x3f1add63	0.6049406
250	0x3e1c8043	0.15283303
251	0xbf9cd901	-1.2253724
252	0xbf94e80a	-1.1633313
253	0xbfafd0a4	-1.3735547
254	0xbddb1378	-0.10697073
255	0x3ff4d69b	1.9127992

W_conv1 f4 [3, 3, 3, 16]
0	0xbe9442ca	-0.28957206
1	0x3d7d6a18	0.061868757
2	0x3e9d7ef0	0.30760908
3	0x3ee02cae	0.43784088
4	0xbfa754ce	-1.3072755
5	0xbf2abf7e	-0.66698444
6	0x3f25a021	0.6469746
7	0x3e162882	0.1466389
8	0x3ff68326	1.9258773
9	0xbfc26d3e	-1.5189588
10	0xbf97f2d4	-1.187098
11	0xc0024c75	-2.0359166
12	0x3fbf013b	1.492225
13	0xbe1ef2fc	-0.15522379
14	0xbe4ca63b	-0.19985287
15	0xbe8a4d33	-0.27012023
16	0xbf6a394f	-0.91493696
17	0x3e0f2690	0.13979554
18	0xbf021f71	-0.50829226
19	0xbf3b6068	-0.7319398
20	0x3ea8228f	0.32838866
21	0x3fdee42a	1.741338
22	0x3d926a1c	0.07149145
23	0x3dcb9900	0.09941292
24	0x3fea92b9	1.8326026
25	0x3fc93b49	1.5721217
26	0xbfe96ee4	-1.8236966
27	0xc00d8095	-2.210973
28	0xbf26e2eb	-0.6519
29	0x400ba257	2.1817834
30	0xbf5043a9	-0.8135324
31	0x3f86a292	1.0518363
32	0x3f0d0bd9	0.55096203
33	0x3f7b2e4b	0.9811751
34	0x3fd3027e	1.6485136
35	0x40035d19	2.0525572
36	0x3ee005fb	0.43754563
37	0xbf047558	-0.5174155
38	0xbfe3189b	-1.7741884
39	0x3f89942a	1.0748341
40	0xbe428c5b	-0.18998854
41	0x3fed0e7c	1.8520045
42	0xbf0d8725	-0.5528434
43	0xbfc252e8	-1.5181551
44	0x3f4cd54a	0.80012953
45	0x3dee4d2e	0.116358146
46	0x3f3cabb8	0.7369952
47	0x3faf55d0	1.3698063
48	0x3fe51d83	1.7899631
49	0xbed52ad7	-0.41634247
50	0xbf66153c	-0.8987615
51	0xbfaa144a	-1.3287442
52	0x3eb19012	0.3468023
53	0x3e87b35f	0.26504037
54	0xbddc4730	-0.107557654
55	0xbeb65ae3	-0.35616216
56	0xbeee2ce2	-0.46518618
57	0xbec101e6	-0.3769676
58	0x3f948727	1.1603745
59	0xbfdb9590	-1.7155018
60	0xbf753b73	-0.9579384
61	0xbe8a9e3b	-0.27073845
62	0xbfb2b978	-1.396285
63	0xbfdc6a33	-1.721991
64	0xbfd186da	-1.6369278
65	0x3f1f6a70	0.62271786
66	0x3fe25e42	1.7685015
67	0x3eea1ad3	0.4572359
68	0x3fd9b5c3	1.7008594
69	0xbf3cca2c	-0.7374599
70	0xbf404bb1	-0.75115496
71	0x3e9b755d	0.3036298
72	0x3fca0c5a	1.5785019
73	0x3f3ac973	0.7296364
74	0x3f4aee28	0.7926965
75	0x3f7e6bbb	0.99383134
76	0x3ffbbd5f	1.9667166
77	0xbf605762	-0.87633336
78	0xbf3cb678	-0.73715925
79	0xbf875f98	-1.0576048
80	0x3e5662e4	0.20936161
81	0xbf7ae540	-0.9800606
82	0x3f89a627	1.0753831
83	0xbe758590	-0.23976731
84	0x3f8aa2a2	1.0830882
85	0xbf59b7ef	-0.85046285
86	0x3f9b441e	1.2130163
87	0xbf0361e4	-0.51321244
88	0xbe7957cb	-0.24349897
89	0xbf8419e2	-1.0320399
90	0xbe36779c	-0.17819065
91	0xbf00276e	-0.50060165
92	0x3e73d435	0.2381142
93	0xbc0cd44e	-0.008595539
94	0xbeb61e46	-0.35569972
95	0x3e76feb1	0.24120595
96	0xbf9bfce2	-1.2186549
97	0x3cd8d143	0.026466971
98	0x3f372488	0.7154012
99	0xbd80b5e3	-0.06284692
100	0xbeee8174	-0.4658314
101	0xbf335597	-0.70052475
102	0xbec8b15d	-0.39197817
103	0xbf8e0a1c	-1.1096835
104	0xbf713757	-0.94225067
105	0x3e60c1e8	0.2194897
106	0x3ece6fe8	0.40319753
107	0xbf7f3362	-0.9968778
108	0xbf9ed39c	-1.2408328
109	0x3fc52bf2	1.5404036
110	0xbfc430e8	-1.5327425
111	0xbf75f087	-0.9607014
112	0x3e3951e4	0.18097645
113	0x3fbb2c81	1.4622957
114	0x3fe90b89	1.8206645
115	0xbfa034e6	-1.2516143
116	0x3fa8074f	1.312723
117	0xbe211c85	-0.15733536
118	0x3fe68e27	1.8012131
119	0x3f40fe45	0.75387985
120	0x401ba86b	2.4321544
121	0x3dfdd726	0.12394552
122	0xbf1a3ea0	-0.6025181
123	0xbf668d17	-0.90059036
124	0x3ff0ff77	1.8827962
125	0x3e6c338b	0.23066537
126	0xbd202e08	-0.0391064
127	0xbf2292db	-0.63505334
128	0xbfd82947	-1.6887597
129	0x3c20a5ba	0.009805137
130	0x3f22b54b	0.6355788
131	0xbf2d93e2	-0.67803776
132	0x3cb8e772	0.0225713
133	0x3ed61357	0.4181163
134	0x3df3756d	0.118876316
135	0xbf153e37	-0.5829806
136	0xbe8774ed	-0.26456395
137	0x3ec41d5e	0.38303655
138	0x3fb3ddea	1.4052098
139	0x3f4e3fc9	0.8056608
140	0xbf9f0c4c	-1.2425628
141	0xbedfa3c3	-0.43679628
142	0xbf1e7098	-0.61890554
143	0xbfe231d3	-1.7671455
144	0x3ebf97b1	0.3742042
145	0xbecac544	-0.39603627
146	0xbfc3316f	-1.5249461
147	0xbf5c2c1e	-0.8600482
148	0x3f91e21c	1.1397128
149	0x3f18a3b3	0.59624785
150	0xbe4ff42a	-0.20307985
151	0x3f59b636	0.85043657
152	0x3dd492e4	0.1037958
153	0x3f2f310d	0.6843422
154	0x3f16b339	0.5886722
155	0xbfff5001	-1.994629
156	0xbec96ee4	-0.39342415
157	0x3f953e25	1.165959
158	0x3f816e81	1.0111848
159	0xbf5f0941	-0.87123495
160	0xbecab2d0	-0.39589548
161	0x3f0faa60	0.56119347
162	0x3ec0ccf8	0.3765638
163	0x3f94f163	1.1636165
164	0x3f0be8ec	0.54652286
165	0xbf1cf410	-0.6130991
166	0x3d061dff	0.03274345
167	0xbf8b0767	-1.0861634
168	0xbf55a9ce	-0.83462226
169	0x3f89e3e8	1.0772676
170	0x3f7c992a	0.9867121
171	0x3f3974a3	0.724436
172	0x3f1b034e	0.6055192
173	0xbee781bc	-0.45216167
174	0xbde04796	-0.10951154
175	0xbdc740f8	-0.09729189
176	0xbf273444	-0.65314126
177	0x3f235e0c	0.6381538
178	0xbe8afc72	-0.27145725
179	0xbf0b684a	-0.5445601
180	0xbdf54f4c	-0.11978015
181	0xbf405c98	-0.75141287
182	0x3ee65c5b	0.44992337
183	0x3f8115e2	1.0084803
184	0xbec4c189	-0.38428906
185	0x3f9b2192	1.211962
186	0x3f929063	1.1450313
187	0xbf1463a1	-0.5796452
188	0x3f37a1a7	0.71731037
189	0xbeddde63	-0.4333373
190	0xbb2c3a9b	-0.0026280049
191	0x3f3077e5	0.68932945
192	0x3ffb5d72	1.9637892
193	0xbfc754e4	-1.5572782
194	0x3eaac189	0.3335078
195	0x3ee60dc6	0.44932383
196	0xbd36069a	-0.04443989
197	0xbe8d1752	-0.27556854
198	0xbfbd0b93	-1.4769157
199	0xbf0d3ef2	-0.5517417
200	0xbf128213	-0.5722973
201	0xbe10843f	-0.14112948
202	0x3fb88f15	1.4418665
203	0x3dbb4e36	0.09145777
204	0xbe8a4362	-0.27004534
205	0xbec03d28	-0.3754666
206	0x3e16954e	0.14705393
207	0x3ea1243f	0.31472966
208	0x3fcbd46a	1.5924199
209	0x3f9a2d0e	1.2045
210	0xbf9ff6a9	-1.249715
211	0x3f1e47d4	0.6182835
212	0xbec341c2	-0.38136107
213	0x3fc8c89b	1.568622
214	0x3ee0cf35	0.43908086
215	0x3faa28d2	1.3293707
216	0xbece1804	-0.40252697
217	0x3fa3d1f3	1.2798446
218	0x3eb157d7	0.3463733
219	0x3f8d1998	1.1023436
220	0x3eb5dcbe	0.35519975
221	0xbedcca27	-0.4312298
222	0xbfc4e503	-1.5382389
223	0xbf8d071f	-1.1017798
224	0xbf84a6ea	-1.0363438
225	0xbf4b5549	-0.7942701
226	0x3f5ee547	0.870686
227	0x3f052435	0.5200837
228	0xbf86c9de	-1.0530355
229	0x3ef69816	0.48162907
230	0xbe4b1d1c	-0.19835323
231	0x3ec25319	0.37954023
232	0x3fa7e251	1.3115941
233	0xbf52f767	-0.82408756
234	0xbed24b08	-0.4107287
235	0xbeb69974	-0.3566395
236	0x3f86d717	1.053439
237	0xbfbbae69	-1.4662601
238	0x3fde2c60	1.7357292
239	0x3eb8befa	0.36083204
240	0x3fc776e3	1.5583156
241	0xbf3b96c0	-0.732769
242	0xbe93bb8e	-0.2885403
243	0xbf5b8f80	-0.8576584
244	0xbe168eaa	-0.1470286
245	0xbfa5e176	-1.295943
246	0x3ec9c64b	0.39409098
247	0x3dae9828	0.08525115
248	0xbf818ec5	-1.0121695
249	0x3eba3ae7	0.36373064
250	0xbf00147f	-0.50031275
251	0x3ed6ebc8	0.41976762
252	0xbfd23405	-1.6422125
253	0x3ec83fdc	0.3911122
254	0x3f12ddba	0.5736958
255	0x3e97bb99	0.29635313

b_conv2 f4 [32]
0	0x3dcccccd	0.1
1	0x3dcccccd	0.1
2	0x3dcccccd	0.1
3	0x3dcccccd	0.1
4	0x3dcccccd	0.1
5	0x3dcccccd	0.1
6	0x3dcccccd	0.1
7	0x3dcccccd	0.1
8	0x3dcccccd	0.1
9	0x3dcccccd	0.1
10	0x3dcccccd	0.1
11	0x3dcccccd	0.1
12	0x3dcccccd	0.1
13	0x3dcccccd	0.1
14	0x3dcccccd	0.1
15	0x3dcccccd	0.1
16	0x3dcccccd	0.1
17	0x3dcccccd	0.1
18	0x3dcccccd	0.1
19	0x3dcccccd	0.1
20	0x3dcccccd	0.1
21	0x3dcccccd	0.1
22	0x3dcccccd	0.1
23	0x3dcccccd	0.1
24	0x3dcccccd	0.1
25	0x3dcccccd	0.1
26	0x3dcccccd	0.1
27	0x3dcccccd	0.1
28	0x3dcccccd	0.1
29	0x3dcccccd	0.1
30	0x3dcccccd	0.1
31	0x3dcccccd	0.1

W_out f4 [256, 5]
0	0x3fc28b29	1.5198718
1	0xbf5e7d27	-0.8690972
2	0xbe162fac	-0.14666623
3	0xbd01ba51	-0.031671826
4	0xbc81eff1	-0.015861483
5	0xbf6431df	-0.891386
6	0xbf510f4a	-0.81663954
7	0x3f1d6bd9	0.6149269
8	0x3f53bdf3	0.82711715
9	0x3fcd81bd	1.6055218
10	0x3ecb9bd7	0.39767334
11	0xbf84bd04	-1.0370183
12	0xbe1bf3e4	-0.15229756
13	0xbe91151c	-0.28336418
14	0xbf9f72fe	-1.2456968
15	0x3f260aad	0.6486004
16	0xbdbda913	-0.09260764
17	0x3eda51b3	0.42640457
18	0xbf8a942c	-1.0826468
19	0x3fa33149	1.2749416
20	0x3f939ec3	1.1532825
21	0xbe8a6aa9	-0.270345
22	0x3edece86	0.4351694
23	0x3eaff21a	0.34364396
24	0xbf93c911	-1.1545736
25	0xbf8b29cf	-1.0872134
26	0x3b357f63	0.0027694337
27	0x3ee9b510	0.45645952
28	0xbff1beb4	-1.8886323
29	0x3f83e17f	1.0303191
30	0x3f8198a6	1.012471
31	0x3cc67f4c	0.024230622
32	0xbfd2e01f	-1.6474646
33	0xbd912f54	-0.07089105
34	0xbf14d591	-0.58138376
35	0xbf5f9c40	-0.87347794
36	0xbf3118b9	-0.6917835
37	0x3fab8c43	1.340218
38	0xbe4b304b	-0.19842641
39	0xbf50f431	-0.81622607
40	0x3f58cbdd	0.8468607
41	0xbe0dcfef	-0.13848852
42	0xbcf3e413	-0.02977184
43	0xbf9f5ec5	-1.2450796
44	0xbfc26f53	-1.5190223
45	0x3f1c8b50	0.61150074
46	0x3fc65348	1.5494165
47	0x3f0802bb	0.53129166
48	0xbed4b581	-0.41544726
49	0xbdebb6ae	-0.11509453
50	0x3f001116	0.5002607
51	0xbe7a36f4	-0.24435025
52	0x3fa4f52a	1.2887318
53	0x3f0012c9	0.50028664
54	0xbe8a64c8	-0.27030015
55	0xbed7f4ee	-0.42179054
56	0xbf30c4c1	-0.6905022
57	0x3d740c90	0.059582293
58	0x3fc93c3e	1.572151
59	0xbe8edaa6	-0.2790119
60	0xbdd77c4e	-0.10521756
61	0xbe9e7f30	-0.3095641
62	0xbefcebd4	-0.49398673
63	0x3e6574f5	0.22407897
64	0x3e8a9554	0.27067053
65	0xbf9ad831	-1.2097226
66	0xbe8acf20	-0.2711115
67	0xbf5fd692	-0.87436783
68	0x3e921e10	0.2853856
69	0xbf6ae36f	-0.91753286
70	0x3ea7b027	0.3275158
71	0x3f2a7dba	0.66598094
72	0x3dc2130e	0.09476291
73	0xbf62fa09	-0.88662773
74	0x3f4740aa	0.77833045
75	0xbfa7dc7d	-1.3114163
76	0x3e0d83df	0.13819836
77	0x3e34ffe9	0.17675747
78	0x3f85afd9	1.044429
79	0xbe5c51e6	-0.21515617
80	0xbea73183	-0.32654962
81	0x3f4ef592	0.8084346
82	0xbe5ea146	-0.21741208
83	0x3f1ec4a7	0.6201882
84	0xbe04716d	-0.12933894
85	0xbfb9c807	-1.4514169
86	0xbf8474fa	-1.0348198
87	0x3f8976fe	1.0739439
88	0x3f490188	0.7851796
89	0x3fc6b618	1.5524321
90	0x3e78b501	0.24287798
91	0xbf8f3ff5	-1.1191393
92	0x3e00d566	0.12581405
93	0xbe93f016	-0.2889411
94	0x3e488f87	0.19586001
95	0xbfe062b2	-1.753012
96	0xbec4751a	-0.3837059
97	0x3d95174b	0.072798334
98	0x3f3c5bc6	0.73577535
99	0x3f4fc855	0.8116506
100	0x3fa2be8b	1.2714399
101	0xbf5789df	-0.8419475
102	0xbec0f01c	-0.3768319
103	0xbfc80ceb	-1.5628942
104	0xbee5f7f2	-0.4491573
105	0x3f0ea110	0.5571451
106	0xbf5ba507	-0.85798687
107	0x3f155d0a	0.5834509
108	0x3d9cab00	0.07649803
109	0xbea8ad17	-0.32944557
110	0x3f6cd26f	0.92508596
111	0xbf94e979	-1.163375
112	0x3f65fbad	0.8983715
113	0xbd8cef63	-0.06881597
114	0xbf096a45	-0.5367778
115	0xbd97de24	-0.07415417
116	0x3f13b434	0.57696843
117	0x3f8b29f1	1.0872175
118	0x3ed4fc2f	0.4159865
119	0xbf4f4bee	-0.80975235
120	0xbde384f5	-0.11109344
121	0xbfad3740	-1.3532486
122	0x3edddc87	0.43332312
123	0x3efda938	0.49543166
124	0xbeb7aaf5	-0.35872617
125	0x3fbc6188	1.4717264
126	0xbf5838e3	-0.844618
127	0x3d1f3849	0.038872037
128	0xbdd439e0	-0.10362601
129	0x3fb940b1	1.4472867
130	0xbefa5e7b	-0.48900208
131	0xbeb5f079	-0.3553503
132	0xbf7f7edd	-0.99802953
133	0x3f88f80e	1.07007
134	0x3e494f0a	0.19659057
135	0xbf202c27	-0.6256737
136	0x3eac0473	0.33597144
137	0xbf809116	-1.0044277
138	0xbfaf1683	-1.3678745
139	0x3fedc1c0	1.8574753
140	0x40042a0d	2.0650666
141	0xbf5672d0	-0.8376894
142	0x3f004094	0.5009854
143	0xbf54af56	-0.8308004
144	0x3d9da18c	0.07696828
145	0xbf447c75	-0.76752406
146	0xbfaa0644	-1.3283162
147	0x3ebf3d7e	0.37351602
148	0xbfac7a17	-1.3474759
149	0xbe833422	-0.25625712
150	0x3f682411	0.9068003
151	0x3ec1a016	0.37817448
152	0xbfcb7e49	-1.5897914
153	0x3f14ee15	0.58175784
154	0x3faaa631	1.3331968
155	0x3ff222e2	1.8916895
156	0xbfbab85c	-1.4587512
157	0x3efaed05	0.49008957
158	0xbfd34a0c	-1.6506972
159	0x3f4727c3	0.77795047
160	0xbfc8696d	-1.5657173
161	0xbfc35649	-1.5260707
162	0x3f65fcf4	0.898391
163	0xbea8cc3d	-0.3296832
164	0x3fc7e330	1.5616207
165	0xbe1ea865	-0.15493925
166	0x3e85d8f7	0.26142094
167	0x3e7640f9	0.24048223
168	0xbe9bc7b8	-0.3042581
169	0xbf39601e	-0.7241229
170	0x3dcf0317	0.10108011
171	0x3fa40b31	1.2815915
172	0x3eb4b0b9	0.3529108
173	0x3d84d272	0.06485452
174	0xbfbf15c7	-1.4928521
175	0xbfcc2a81	-1.5950471
176	0xbe4e2f47	-0.20135222
177	0x3ede0c16	0.43368596
178	0xbf44d068	-0.768805
179	0x3f713a92	0.94229996
180	0xbf83690d	-1.0266434
181	0xbebc679d	-0.367978
182	0xbf2ed646	-0.68295705
183	0xbf7f40eb	-0.9970843
184	0xbebd020d	-0.36915627
185	0x3e92b28f	0.28651854
186	0xbf414558	-0.75496435
187	0x3fc9716b	1.5737737
188	0x3d88729d	0.06662486
189	0xbfb4423e	-1.4082716
190	0xbeb67f7b	-0.35644135
191	0xbf12fc5c	-0.5741632
192	0x3e89c3ea	0.26907283
193	0x3ff066bc	1.8781352
194	0x3f2f86a0	0.68564796
195	0xbecace53	-0.39610538
196	0xbf529bb2	-0.8226882
197	0x3f8f29b2	1.1184599
198	0xbebcb8ec	-0.36859834
199	0xbfd09c15	-1.6297632
200	0x3f905318	1.1275358
201	0xbee93a33	-0.45552215
202	0xbec9a4bf	-0.39383504
203	0xbdca9b6d	-0.09892926
204	0xbe431be8	-0.19053614
205	0x3f740c6a	0.9533144
206	0xbc5dbd29	-0.013533869
207	0x3e502015	0.20324738
208	0x3e323d2f	0.17406152
209	0xbf1ca7f4	-0.61193776
210	0x3fb28c36	1.3949039
211	0x3e20b7b4	0.15695077
212	0x3e90a69b	0.2825211
213	0x3f6267fa	0.88439906
214	0xbfb69cd5	-1.4266611
215	0xbef75f45	-0.48314872
216	0x3e8f46fb	0.2798384
217	0x3e5fda08	0.21860516
218	0xbf22a750	-0.6353655
219	0xbf354460	-0.70807457
220	0x3fd557d2	1.6667426
221	0xbfdc88c3	-1.7229236
222	0xbe240cbd	-0.16020484
223	0xbfa4b242	-1.28669
224	0xbe4f29fe	-0.20230862
225	0x3e970a28	0.29499936
226	0x3e71b725	0.2360502
227	0x3f529176	0.82253206
228	0x3cbf4920	0.023350298
229	0xbf0979f3	-0.53701705
230	0x3f2135a9	0.62972504
231	0xbddb2a1b	-0.1070139
232	0x3e97e2ef	0.29665324
233	0x3ef32263	0.47487172
234	0x3dc3de8e	0.09563933
235	0xbf9b90bf	-1.2153548
236	0x3ea28608	0.31742883
237	0xbf0cd8cf	-0.55018324
238	0xbf64c58c	-0.8936393
239	0xbf88f968	-1.0701113
240	0x3f347601	0.7049256
241	0x3f346082	0.7045976
242	0x3f30190e	0.6878823
243	0xbf17df85	-0.5932544
244	0xbf0590a1	-0.5217381
245	0x3e14b88b	0.14523523
246	0x3ff488e5	1.9104277
247	0x3f615688	0.8802266
248	0x3f9778e7	1.1833771
249	0x3f8943bd	1.0723797
250	0x3f6b3621	0.9187947
251	0x3ff572ca	1.9175656
252	0x3f3bd840	0.73376846
253	0xbf84f6d8	-1.0387831
254	0x3ca10139	0.019653903
255	0x3e824275	0.25441328

b_out f4 [5]
0	0x3dcb2a2c	0.09920153
1	0x3dccf636	0.100078985
2	0x3dcc920b	0.09988793
3	0x3dccbf47	0.09997421
4	0x3dcc2331	0.0996765

b_fc f4 [256]
0	0x3dcc4b4b	0.099752985
1	0x3dcccccd	0.1
2	0x3dca1d9c	0.09868929
3	0x3dcc09e2	0.099628225
4	0x3dd0adab	0.101893745
5	0x3dcad83e	0.09904526
6	0x3dcd9304	0.10037807
7	0x3dca604c	0.098816484
8	0x3dca0795	0.098647274
9	0x3dccb1c5	0.09994844
10	0x3dccaf7c	0.099944085
11	0x3dcc9809	0.09989936
12	0x3dcd5095	0.100251354
13	0x3dcc3ebe	0.099729046
14	0x3dcd1282	0.10013296
15	0x3dc9db19	0.09856243
16	0x3dcbac53	0.099449776
17	0x3dcccc25	0.09999875
18	0x3dccca79	0.09999556
19	0x3dcbf7a3	0.09959342
20	0x3dcb5cda	0.099298194
21	0x3dcc8174	0.09985629
22	0x3dccc857	0.09999149
23	0x3dcafb1e	0.09911178
24	0x3dcc0b15	0.09963051
25	0x3dcacf9d	0.0990288
26	0x3dccc2dc	0.09998104
27	0x3dccaf7c	0.099944085
28	0x3dcc794c	0.09984073
29	0x3dce90f7	0.100862436
30	0x3dca831e	0.0988829
31	0x3dcbd303	0.09952357
32	0x3dcc351d	0.09971068
33	0x3dcc412c	0.09973368
34	0x3dcf1ef2	0.10113324
35	0x3dcd6692	0.10029329
36	0x3dd01922	0.10161044
37	0x3dc946a8	0.0982793
38	0x3dce79da	0.10081835
39	0x3dcdecc6	0.100549266
40	0x3dce0337	0.10059207
41	0x3dcccccd	0.1
42	0x3dcc1f3b	0.09966894
43	0x3dce2e51	0.10067428
44	0x3dd103b3	0.10205784
45	0x3dccccfb	0.100000344
46	0x3dccc68c	0.09998807
47	0x3dcccccd	0.1
48	0x3dcb728c	0.099339575
49	0x3dcb92a8	0.09940082
50	0x3dcb942f	0.09940373
51	0x3dccb9c5	0.0999637
52	0x3dcb7208	0.09933859
53	0x3dccb345	0.099951304
54	0x3dcc2e5b	0.09969779
55	0x3dcb803d	0.09936569
56	0x3dcc9ee1	0.09991241
57	0x3dcdb439	0.1004414
58	0x3dcccccd	0.1
59	0x3dca927f	0.09891223
60	0x3dcbe407	0.09955602
61	0x3dcc2b85	0.09969238
62	0x3dca9c95	0.09893147
63	0x3dce3d44	0.10070279
64	0x3dcccccd	0.1
65	0x3dc93239	0.09824032
66	0x3dc8db3e	0.09807442
67	0x3dccf890	0.10008347
68	0x3dceba80	0.10094166
69	0x3dccc60a	0.099987105
70	0x3dcc2f34	0.09969941
71	0x3dcd4849	0.10023553
72	0x3dce6774	0.10078326
73	0x3dcd2a8b	0.1001788
74	0x3dcbeef0	0.09957683
75	0x3dcb6a18	0.09932345
76	0x3dcc96b5	0.099896826
77	0x3dcccd49	0.100000925
78	0x3dcf0e60	0.10110164
79	0x3dcb1a4b	0.09917124
80	0x3dcbda89	0.09953792
81	0x3dcdfbc2	0.100577846
82	0x3dcccc91	0.099999554
83	0x3dcb8fd2	0.09939541
84	0x3dcc9a60	0.09990382
85	0x3dcc1717	0.099653415
86	0x3dcb316a	0.09921534
87	0x3dcb6a9b	0.09932443
88	0x3dcd3ac8	0.10020977
89	0x3dccee0f	0.100063436
90	0x3dcccccd	0.1
91	0x3dca3398	0.09873122
92	0x3dcc38a1	0.099717386
93	0x3dcd2221	0.10016275
94	0x3dccccfc	0.10000035
95	0x3dca7e93	0.09887423
96	0x3dcd17d6	0.10014312
97	0x3dcd5653	0.10026231
98	0x3dcdc371	0.10047043
99	0x3dcbf0e2	0.09958054
100	0x3dcb8b9a	0.09938736
101	0x3dce1861	0.10063244
102	0x3dcc9807	0.099899344
103	0x3dccc2e6	0.099981114
104	0x3dccb0d3	0.09994664
105	0x3dcd5a8b	0.10027035
106	0x3dcbdbc1	0.09954024
107	0x3dcc9667	0.099896245
108	0x3dcce8af	0.100053184
109	0x3dcf4486	0.10120492
110	0x3dcab675	0.09898082
111	0x3dcccccd	0.1
112	0x3dcd94a1	0.10038114
113	0x3dca89e0	0.09889579
114	0x3dcb8841	0.09938098
115	0x3dcccccd	0.1
116	0x3dcdb0d6	0.100434944
117	0x3dcb9b3a	0.099417165
118	0x3dcce550	0.100046754
119	0x3dccdbab	0.10002836
120	0x3dc9bd69	0.0985058
121	0x3dcb2730	0.09919584
122	0x3dcd6a75	0.10030071
123	0x3dce56fb	0.10075184
124	0x3dce5e81	0.10076619
125	0x3dcdfc02	0.10057832
126	0x3dce02bc	0.10059115
127	0x3dca1d40	0.0986886
128	0x3dcc955c	0.099894255
129	0x3dcc7afe	0.099843964
130	0x3dce1d87	0.10064226
131	0x3dca2ac6	0.0987144
132	0x3dcce7a7	0.10005122
133	0x3dccf113	0.10006919
134	0x3dcea496	0.10089986
135	0x3dcbce2a	0.09951432
136	0x3dcc8a4e	0.09987317
137	0x3dce24e8	0.10065633
138	0x3dcaf02f	0.09909093
139	0x3dcb0e6f	0.09914862
140	0x3dccee5f	0.10006403
141	0x3dcc2aa4	0.099690706
142	0x3dcd615b	0.10028335
143	0x3dc97cfc	0.09838292
144	0x3dcbb414	0.099464566
145	0x3dcdc3fb	0.10047146
146	0x3dccdaf0	0.100026965
147	0x3dcdbe47	0.10046058
148	0x3dcc088b	0.09962567
149	0x3dcccb7d	0.0999975
150	0x3dcce9eb	0.10005554
151	0x3dcaec27	0.09908324
152	0x3dca9354	0.09891382
153	0x3dcb753d	0.09934471
154	0x3dcc9cd8	0.09990853
155	0x3dcbc565	0.099497594
156	0x3dccd5a6	0.10001688
157	0x3dcc1173	0.09964266
158	0x3dcb0c79	0.09914488
159	0x3dce5e10	0.10076535
160	0x3dccfd64	0.10009268
161	0x3dcc1e82	0.099667564
162	0x3dcd1797	0.10014265
163	0x3dccb76c	0.099959224
164	0x3dccdb19	0.10002727
165	0x3dcd3b79	0.10021109
166	0x3dcd44b8	0.10022873
167	0x3dcdde0c	0.10052118
168	0x3dcd3c33	0.10021248
169	0x3dcddced	0.10051904
170	0x3dcb8f95	0.099394955
171	0x3dcbf847	0.099594645
172	0x3dcb4616	0.09925477
173	0x3dcbd61a	0.09952946
174	0x3dca3425	0.09873227
175	0x3dcc39ba	0.09971948
176	0x3dcc6b37	0.09981387
177	0x3dcccccd	0.1
178	0x3dcc15e4	0.09965113
179	0x3dccb61b	0.09995671
180	0x3dccccdd	0.10000012
181	0x3dcc6c67	0.099816136
182	0x3dcc4dc0	0.09975767
183	0x3dcc63dd	0.09979985
184	0x3dcefe18	0.10107058
185	0x3dcc850d	0.09986315
186	0x3dc9215f	0.09820818
187	0x3dcaae6b	0.09896549
188	0x3dcda926	0.10042028
189	0x3dcc0538	0.09961933
190	0x3dcd7341	0.100317486
191	0x3dcc62dc	0.099797934
192	0x3dcbbf6c	0.0994862
193	0x3dd0b6e4	0.101911336
194	0x3dcb1b6a	0.09917338
195	0x3dca9df6	0.0989341
196	0x3dcb8fd4	0.099395424
197	0x3dcb5a3a	0.09929319
198	0x3dcceb6e	0.10005842
199	0x3dcba3bc	0.09943339
200	0x3dce2d87	0.100672774
201	0x3dcc1d0f	0.0996648
202	0x3dce6cdd	0.10079358
203	0x3dcafbb3	0.09911289
204	0x3dccb9cb	0.09996375
205	0x3dd09fb9	0.10186715
206	0x3dcccccd	0.1
207	0x3dccd4a1	0.10001493
208	0x3dcd7dbd	0.10033748
209	0x3dd07294	0.10178104
210	0x3dcd134c	0.10013446
211	0x3dcc92e7	0.09988957
212	0x3dccd96f	0.1000241
213	0x3dd00d33	0.101587676
214	0x3dcb433d	0.09924934
215	0x3dcccccd	0.1
216	0x3dcd7307	0.10031705
217	0x3dc9ffa1	0.098632105
218	0x3dcb4273	0.099247836
219	0x3dcd28dc	0.10017559
220	0x3dc97099	0.098359294
221	0x3dcccccd	0.1
222	0x3dcb088b	0.09913739
223	0x3dcbc95b	0.09950515
224	0x3dc6c026	0.09704618
225	0x3dcc7793	0.099837445
226	0x3dce30f1	0.100679286
227	0x3dcc618e	0.099795446
228	0x3dcccccd	0.1
229	0x3dcd2e1f	0.100185625
230	0x3dccd8de	0.10002302
231	0x3dccc747	0.09998947
232	0x3dcccccd	0.1
233	0x3dcb85c3	0.099376224
234	0x3dcd1256	0.10013263
235	0x3dcbc8a7	0.09950381
236	0x3dcfa2fe	0.1013851
237	0x3dccfc95	0.10009114
238	0x3dcafa61	0.09911037
239	0x3dcccccd	0.1
240	0x3dcbcef2	0.09951581
241	0x3dcb7d8d	0.09936056
242	0x3dce231c	0.1006529
243	0x3dcbe6c6	0.09956126
244	0x3dcda2e8	0.100408375
245	0x3dcb74d7	0.09934395
246	0x3dcfdb44	0.101492435
247	0x3dcba2d2	0.09943165
248	0x3dccb0b7	0.09994643
249	0x3dccd081	0.100007065
250	0x3dcb5f91	0.09930337
251	0x3dccd57e	0.10001658
252	0x3dcd0d6b	0.10012325
253	0x3dcd0afb	0.1001186
254	0x3dd05a6c	0.101734966
255	0x3dcfdb24	0.1014922

W_conv2 f4 [3, 3, 16, 32]
0	0xbf479f49	-0.77977425
1	0x3fad7c0f	1.3553485
2	0x3e8ede56	0.27904004
3	0x3d3a798a	0.045526065
4	0x3ef10b0a	0.47078735
5	0x3fe4181d	1.7819859
6	0x3e20d361	0.15705635
7	0xbfc69f0c	-1.5517287
8	0x3fa9fed6	1.3280895
9	0x3f0963da	0.53667986
10	0xbf2d364a	-0.67660964
11	0x3e108a29	0.14115204
12	0x3f325d19	0.69673306
13	0xbe5204d5	-0.20509656
14	0xbe976eac	-0.29576623
15	0x3f44900a	0.76782286
16	0xbea03fce	-0.3129868
17	0xbe68f483	-0.22749524
18	0x3ed56a03	0.41682443
19	0x3efd7bbe	0.4950847
20	0xbf0ba965	-0.5455535
21	0x3c518da7	0.01279012
22	0xbe97d195	-0.29652086
23	0x3dd5557c	0.104166955
24	0xbf2fcfda	-0.6867653
25	0x3ee383ed	0.4443659
26	0x3e51d194	0.20490104
27	0x3fafdc3b	1.3739084
28	0xbfb5d22b	-1.4204763
29	0xbd8fe89f	-0.07026791
30	0xbf07ab39	-0.5299564
31	0x3daf640f	0.085640065
32	0xbfe4d04c	-1.7876067
33	0x3e63b6c1	0.22237684
34	0x3ee0e357	0.43923447
35	0xbeb47712	-0.35247093
36	0x3f8c8ebb	1.0981058
37	0x3f1fed41	0.62471396
38	0x3eab2885	0.3342935
39	0x3e9cf51f	0.30655763
40	0xbf21bfe5	-0.6318343
41	0xbea9af99	-0.33141783
42	0x3fe0f6e4	1.7575345
43	0x3f28c56d	0.6592625
44	0xbef9d29e	-0.487935
45	0xbf8f2edd	-1.1186177
46	0xbf6809b9	-0.90639836
47	0xc0072faa	-2.1122842
48	0x3ecdfa4b	0.4023002
49	0x3e7d9b5c	0.24766296
50	0x3e7eb443	0.24873452
51	0xbfcc1048	-1.5942469
52	0x3f1f627d	0.62259656
53	0x3f5bfb51	0.85930353
54	0xbe2fded0	-0.1717484
55	0xbfc1e81e	-1.5148962
56	0x3f24fb0f	0.64445585
57	0xbfd803c0	-1.6876144
58	0xbfbd8165	-1.4805113
59	0x3f2b95ad	0.6702526
60	0x3f88ab0e	1.0677202
61	0x3e26f3a6	0.16303882
62	0xbf355da7	-0.7084603
63	0x3f9f3c2c	1.2440238
64	0x3e825a16	0.25459355
65	0xbfee9ca7	-1.8641557
66	0xbf9841f4	-1.1895127
67	0xbfb09fb2	-1.3798735
68	0x3ff118ba	1.8835671
69	0x3f1da22e	0.6157559
70	0x3ebdf08a	0.3709758
71	0x3f2b5d89	0.669396
72	0x3ea52851	0.3225732
73	0xbf686a0a	-0.907868
74	0xbe72d1d9	-0.23712863
75	0x3ed55830	0.41668844
76	0x3ea00c22	0.31259257
77	0xbf767946	-0.962788
78	0xbf5046c7	-0.81358
79	0xbf8d65f8	-1.1046743
80	0xbf2e0e43	-0.6799051
81	0xbead68c2	-0.33868986
82	0x3f0d2670	0.55136776
83	0xbe4119d6	-0.18857512
84	0xbea8a365	-0.3293716
85	0xbeb1764f	-0.34660575
86	0x3f0acf8f	0.5422296
87	0xbee9df6d	-0.45678273
88	0x3f175fc1	0.59130484
89	0x3ea094bd	0.31363478
90	0x3ee07c6f	0.43844935
91	0xbe29489c	-0.16531605
92	0x3fdef8d3	1.7419685
93	0xbfe7787e	-1.8083646
94	0x3c95b04b	0.01827254
95	0xbfeab42a	-1.8336232
96	0xbed55cd0	-0.41672373
97	0x3f419b1a	0.7562729
98	0x3f002cd6	0.50068414
99	0xbff85325	-1.9400374
100	0xbe24975d	-0.16073366
101	0x3f898610	1.0744038
102	0x3e1b3b2b	0.1515929
103	0x3f9d1ea1	1.2274972
104	0x3f15ef9b	0.58568734
105	0x3f0970b2	0.53687584
106	0x3ea3ce38	0.3199327
107	0x3ec3c89f	0.38239
108	0x3e9cc5f2	0.3061977
109	0xbea6f93b	-0.32612023
110	0x3eb99e62	0.3625365
111	0xbf8aa2e1	-1.0830957
112	0x3d373ff4	0.044738725
113	0xbdea985a	-0.1145484
114	0xbf312eac	-0.6921184
115	0xbf6fbff7	-0.9365229
116	0xbf89a39b	-1.0753053
117	0xbf8cc48d	-1.0997483
118	0xbec0e499	-0.37674406
119	0xbdb21f65	-0.08697394
120	0x3fc1cb16	1.5140102
121	0x3e5617c8	0.2090751
122	0x3f69ad5d	0.91280156
123	0xbfac70b0	-1.347189
124	0xbf156166	-0.58351743
125	0xbe864a3f	-0.2622852
126	0xbf416ca0	-0.75556374
127	0x3f7bb2f9	0.98319966
128	0xbf871751	-1.0553991
129	0x3ef0d022	0.47033793
130	0xbfa5581a	-1.2917511
131	0x3f1cf688	0.61313677
132	0xbeab0d8a	-0.33408767
133	0xbdefa1bd	-0.11700771
134	0xbfab4791	-1.3381215
135	0x3fb1254f	1.3839511
136	0x3fa0f5d7	1.2575024
137	0xbe974395	-0.29543748
138	0xbfa6ff08	-1.3046579
139	0x3e77b8d7	0.24191605
140	0xbe596455	-0.2122968
141	0x3da550f0	0.08072078
142	0xbf107337	-0.56425804
143	0x3f0cc3f7	0.5498652
144	0x3e325439	0.17414941
145	0xbe18281a	-0.14859048
146	0xbbafa57b	-0.005360303
147	0x3d98f535	0.074686445
148	0x3f96c36e	1.177839
149	0x3f3c9818	0.73669577
150	0xbf15ada9	-0.5846811
151	0xbfa56b49	-1.2923366
152	0xbe6886d1	-0.22707678
153	0xbfab14d3	-1.336573
154	0x3f644c49	0.891789
155	0xbf701cf9	-0.9379421
156	0x3f52a261	0.8227902
157	0x3d68f1ca	0.056871213
158	0xbfb5975d	-1.4186817
159	0x3f91b0a4	1.1382031
160	0x3f41f955	0.75771075
161	0xbf205cc1	-0.6264153
162	0x3f26f458	0.6521659
163	0x4005658e	2.0843234
164	0xbf809f4a	-1.0048611
165	0xbf83096c	-1.023725
166	0x3da2c7dc	0.079482764
167	0x3f5a47c2	0.85265744
168	0x3f04beb2	0.5185348
169	0xbf390e03	-0.72287005
170	0xbe08d8f3	-0.1336401
171	0xbe471275	-0.19440635
172	0xbfcb4f44	-1.5883565
173	0xbf72a3c1	-0.9478112
174	0xbf73a113	-0.95167655
175	0x3d357f77	0.044311013
176	0xbee91852	-0.45526367
177	0xbfb43a0d	-1.4080216
178	0xbecfcd79	-0.4058645
179	0xbe995f20	-0.29955387
180	0xbfc2f6b7	-1.5231541
181	0xbf62881c	-0.88488936
182	0x3de94d5b	0.113917075
183	0xbf5f2c20	-0.87176704
184	0xbfa752e2	-1.3072169
185	0xc0010108	-2.015688
186	0x3f17ad71	0.59249026
187	0x3ec39474	0.38199198
188	0x3fbe02f7	1.4844655
189	0xbed69760	-0.41912365
190	0x3f7bf55f	0.9842128
191	0x3f58c49b	0.84674996
192	0x3f8508a9	1.0393268
193	0x3f6f4f10	0.93480015
194	0xbfaf0f67	-1.3676575
195	0xbd9c5018	-0.07632464
196	0xbfadf3e1	-1.3590051
197	0x3e8433b9	0.2582071
198	0xbef465f4	-0.47734034
199	0x3d54770f	0.051871356
200	0xbe6a78cf	-0.22897647
201	0x3f716425	0.94293433
202	0x3f81b331	1.013281
203	0x3f2358f2	0.63807595
204	0xbf36a022	-0.71338093
205	0xbec76429	-0.38943604
206	0x3ef74004	0.48291028
207	0xbfed4773	-1.853743
208	0xbf2a1d34	-0.6645081
209	0x3f82b142	1.0210345
210	0x3f870b07	1.055024
211	0x3ecd2998	0.40070796
212	0x3fc1d825	1.5144087
213	0xbeb1ea97	-0.3474929
214	0x3ec546d1	0.3853059
215	0xbfb12471	-1.3839246
216	0x3e8485c9	0.2588332
217	0x3f995086	1.1977699
218	0xbf62da59	-0.8861442
219	0x40009b85	2.0094922
220	0x3f54b618	0.83090353
221	0xbbb00a64	-0.0053723324
222	0x3fb74964	1.4319272
223	0x3e29a182	0.16565517
224	0xbfa29d9d	-1.270435
225	0x3fd8e09d	1.6943547
226	0x3d3629d2	0.044473477
227	0x3f0bcb82	0.54607403
228	0x3fd90244	1.6953816
229	0x3da2584c	0.079269975
230	0xbca972db	-0.02068465
231	0x3f1de941	0.6168404
232	0x3b674c17	0.0035293156
233	0xbfa7184f	-1.3054293
234	0xbf5e6d87	-0.86885875
235	0x3f83def7	1.0302418
236	0xbe8f3457	-0.2796962
237	0x3fd6ea21	1.67902
238	0xbf72b1f2	-0.94802773
239	0xbf9e2c8e	-1.2357347
240	0x3f536851	0.8258105
241	0x3f7c2c34	0.9850495
242	0xbf37affa	-0.71752894
243	0xbf0099e3	-0.5023481
244	0x3fc23a03	1.5173954
245	0xbe613765	-0.21993788
246	0x3f55124c	0.83231044
247	0x3f8c9ab5	1.0984713
248	0x3f0f974a	0.56090224
249	0xbee10e7f	-0.43956372
250	0xbe6be39e	-0.23036048
251	0x3f2031c2	0.62575924
252	0xbe875716	-0.2643363
253	0xbec2b2ef	-0.3802714
254	0xbe19bfab	-0.15014522
255	0xbfef7daa	-1.8710225
