Models/Tensorflow/model_local9_zombie (copy).npz (npz, 552614 bytes, 8 tensors)

W_conv2 f4 [3, 3, 16, 32]
0	0xbf55e36c	-0.83550143
1	0x3fb2f384	1.3980565
2	0x3e921d0a	0.2853778
3	0x3d86861f	0.0656855
4	0x3f0225c9	0.50838906
5	0x3fe1963e	1.7623975
6	0x3e537ecb	0.20653836
7	0xbfc8c80d	-1.5686051
8	0x3fab7ab2	1.3396819
9	0x3f104d86	0.5636829
10	0xbf3930cb	-0.7234008
11	0x3e03967c	0.12850374
12	0x3f31a2dd	0.69389135
13	0xbe40be64	-0.18822628
14	0xbe8bbad0	-0.27290964
15	0x3f36db60	0.7142849
16	0xbe8a08ae	-0.26959747
17	0xbe3082f0	-0.17237449
18	0x3ed26648	0.4109366
19	0x3ef2d607	0.47428915
20	0xbf060a28	-0.5235925
21	0x3c24cb08	0.010058172
22	0xbeac1074	-0.33606303
23	0x3e02f988	0.12790501
24	0xbf2e5948	-0.6810498
25	0x3ede83c7	0.43459913
26	0x3e4afe17	0.1982349
27	0x3faf30e8	1.36868
28	0xbfb4cb2d	-1.4124504
29	0xbdb3fed9	-0.08788843
30	0xbf018491	-0.50592905
31	0x3dd9b401	0.10630036
32	0xbfe2a1a6	-1.7705581
33	0x3e4f3322	0.2023435
34	0x3ef09ad0	0.46993113
35	0xbeb6fef4	-0.3574139
36	0x3f8dc68d	1.1076218
37	0x3f1a1c75	0.6019967
38	0x3eb72a16	0.35774297
39	0x3e9810a3	0.29700193
40	0xbf24b7e1	-0.64343077
41	0xbea2b410	-0.31778002
42	0x3fe130f2	1.7593062
43	0x3f2d0e0c	0.6759956
44	0xbef5b872	-0.47992283
45	0xbf8ed816	-1.1159694
46	0xbf5f12f6	-0.8713831
47	0xc004febc	-2.0780478
48	0x3ed33e42	0.41258436
49	0x3e628821	0.22122242
50	0x3e697e8a	0.22802177
51	0xbfcd889a	-1.6057312
52	0x3f219870	0.63123226
53	0x3f55c7e0	0.8350811
54	0xbe4b06f9	-0.19826879
55	0xbfc3841a	-1.5274689
56	0x3f255413	0.6458141
57	0xbfd8bb5f	-1.6932181
58	0xbfc01e1f	-1.5009192
59	0x3f2d0dec	0.6759937
60	0x3f899824	1.0749555
61	0x3e14dfb7	0.14538465
62	0xbf3274d4	-0.69709516
63	0x3fa08252	1.2539771
64	0x3e864011	0.26220754
65	0xbff3ae1d	-1.903751
66	0xbf9feed7	-1.2494763
67	0xbfaed62a	-1.3659108
68	0x3fe954c1	1.822899
69	0x3f2a36d9	0.6648994
70	0x3eb30a3e	0.34968752
71	0x3f30d722	0.69078267
72	0x3eb27ed1	0.34862378
73	0xbf6e9a7c	-0.93204474
74	0xbe25b637	-0.1618279
75	0x3eb0dbe6	0.3454277
76	0x3eaa0bc8	0.33212113
77	0xbf700c11	-0.9376841
78	0xbf5da961	-0.86586577
79	0xbf8a636a	-1.0811589
80	0xbf244d6f	-0.64180654
81	0xbec6600d	-0.38745156
82	0x3f095948	0.5365186
83	0xbe421bde	-0.18955943
84	0xbec00cb8	-0.37509704
85	0xbead782b	-0.33880743
86	0x3f0e51cf	0.5559358
87	0xbef9e2b8	-0.48805785
88	0x3f1f5cac	0.6225078
89	0x3eac4902	0.3364945
90	0x3ed9a444	0.42508137
91	0xbe28544b	-0.16438405
92	0x3fde0ea4	1.7348218
93	0xbfe60a8f	-1.7971972
94	0x3d4da4c0	0.050205946
95	0xbfe28787	-1.769761
96	0xbeccb9be	-0.3998546
97	0x3f4663ad	0.77495843
98	0x3f03157e	0.5120467
99	0xbffb7e76	-1.9647968
100	0xbe30237d	-0.17201038
101	0x3f889196	1.0669429
102	0x3e0a529e	0.13508078
103	0x3f9c43ec	1.2208228
104	0x3f150503	0.5821077
105	0x3f09393e	0.5360297
106	0x3eaa3519	0.33243635
107	0x3ec94837	0.39312908
108	0x3e9f6529	0.31131867
109	0xbe9a69ed	-0.3015894
110	0x3eae9d9f	0.3410463
111	0xbf89f698	-1.077838
112	0x3d3304ae	0.043705635
113	0xbe06f889	-0.13180746
114	0xbf2db4b1	-0.6785384
115	0xbf70b68b	-0.9402854
116	0xbf8b8978	-1.0901327
117	0xbf8e827c	-1.1133571
118	0xbeb78da0	-0.3585024
119	0xbddd766d	-0.108136036
120	0x3fc32bd3	1.5247749
121	0x3e489350	0.19587445
122	0x3f645adf	0.8920116
123	0xbfb1cd4e	-1.3890779
124	0xbf1b0439	-0.6055332
125	0xbe89d370	-0.26919127
126	0xbf433323	-0.76249903
127	0x3f7a79c4	0.9784205
128	0xbf89f45d	-1.0777699
129	0x3ee51b33	0.44747314
130	0xbfa35265	-1.275952
131	0x3f1db807	0.6160893
132	0xbe9f6140	-0.31128883
133	0xbdeb7e0d	-0.11498652
134	0xbfa817a8	-1.3132219
135	0x3fab6ee3	1.3393215
136	0x3fa16401	1.2608644
137	0xbe939a16	-0.28828496
138	0xbfa2452d	-1.2677361
139	0x3e86e4fc	0.26346576
140	0xbe4458f2	-0.19174555
141	0x3d9f01dc	0.077640265
142	0xbf048743	-0.51768893
143	0x3f0d654c	0.5523269
144	0x3e475710	0.19466805
145	0xbe21d4a8	-0.15803778
146	0x3b393d92	0.0028265459
147	0x3d6587e5	0.056037802
148	0x3f95c80a	1.1701672
149	0x3f3ee53e	0.74568546
150	0xbf1401ed	-0.5781544
151	0xbfa5b25d	-1.2945057
152	0xbe6c760f	-0.23091911
153	0xbfab9348	-1.3404322
154	0x3f5e1225	0.86746436
155	0xbf6b54c8	-0.9192624
156	0x3f52ece7	0.82392734
157	0x3d2d2d8f	0.042279776
158	0xbfb636f1	-1.4235517
159	0x3f92b647	1.1461877
160	0x3f3b76eb	0.7322833
161	0xbf28191e	-0.65663326
162	0x3f2abd4e	0.66695106
163	0x4004c88a	2.07474
164	0xbf73258d	-0.9497917
165	0xbf85a80c	-1.0441909
166	0x3d65fef1	0.056151334
167	0x3f587999	0.84560543
168	0x3f03f06f	0.5153875
169	0xbf34ee7a	-0.70676386
170	0xbe1bf91d	-0.15231748
171	0xbe38072b	-0.17971484
172	0xbfcb003c	-1.5859447
173	0xbf697433	-0.9119293
174	0xbf6a8c3d	-0.91620237
175	0xba4ce485	-0.00078160345
176	0xbef09188	-0.46986032
177	0xbfafefc6	-1.3745048
178	0xbee6c991	-0.45075658
179	0xbe8ff041	-0.28112987
180	0xbfc24133	-1.5176147
181	0xbf65dcb3	-0.89789885
182	0x3e011cd6	0.12608656
183	0xbf65f127	-0.89821094
184	0xbfa7109d	-1.3051945
185	0xbffdf734	-1.9841065
186	0x3f1b6d54	0.60713696
187	0x3ebb9795	0.36639085
188	0x3fc1a782	1.5129244
189	0xbed67fa2	-0.4189425
190	0x3f78236d	0.96929055
191	0x3f56828d	0.83792955
192	0x3f83b530	1.0289669
193	0x3f6a9634	0.9163544
194	0xbfb1475f	-1.3849906
195	0xbd9ded9b	-0.07711335
196	0xbfad28a9	-1.3528033
197	0x3e4f9121	0.20270206
198	0xbef1e00c	-0.47241247
199	0x3d654a29	0.055978928
200	0xbe6001f3	-0.21875744
201	0x3f7a69a3	0.9781744
202	0x3f765094	0.962167
203	0x3f248e49	0.6427961
204	0xbf3a9a5d	-0.7289179
205	0xbed90183	-0.42383966
206	0x3f049965	0.5179656
207	0xbfee148a	-1.8600018
208	0xbf29087a	-0.6602856
209	0x3f82c0ed	1.0215126
210	0x3f840009	1.0312511
211	0x3eba540d	0.3639225
212	0x3fc5d11c	1.545444
213	0xbea8f1a4	-0.32996857
214	0x3eb9cdc8	0.3628981
215	0xbfb0078c	-1.3752303
216	0x3e898dd1	0.2686601
217	0x3f9b1229	1.2114917
218	0xbf5c87ec	-0.861449
219	0x4003ed8a	2.0613732
220	0x3f6078ab	0.87684125
221	0x3a16438c	0.0005732111
222	0x3fb3cfcd	1.4047791
223	0x3e3ade41	0.18248846
224	0xbfa3e888	-1.2805338
225	0x3fd975c6	1.6989067
226	0x3d710090	0.058838427
227	0x3f084413	0.53228873
228	0x3fdd0611	1.7267476
229	0x3decb451	0.1155783
230	0xbd48eaef	-0.049052175
231	0x3f23fb81	0.6405564
232	0xbc63eee6	-0.013911938
233	0xbfaaef42	-1.3354266
234	0xbf59b145	-0.85036117
235	0x3f875a40	1.0574417
236	0xbe8f42c8	-0.27980638
237	0x3fd4ddff	1.6630248
238	0xbf7421f5	-0.95364314
239	0xbfa446e6	-1.2834136
240	0x3f4fca4b	0.8116805
241	0x3f826be2	1.0189173
242	0xbf3b859c	-0.73250747
243	0xbefa2370	-0.48855162
244	0x3fc3cc2f	1.5296687
245	0xbe7816e5	-0.24227484
246	0x3f4811cc	0.78152156
247	0x3f90629e	1.1280096
248	0x3f114355	0.56743366
249	0xbed6be7e	-0.4194221
250	0xbe7ec311	-0.248791
251	0x3f262a56	0.6490835
252	0xbe8e1e4a	-0.27757484
253	0xbecb147f	-0.39664075
254	0xbe0e8341	-0.13917257
255	0xbff0f68e	-1.8825243

b_fc f4 [256]
0	0x3dcc627c	0.09979722
1	0x3dcccccd	0.1
2	0x3dcab882	0.09898473
3	0x3dcc35ed	0.09971223
4	0x3dd051b2	0.10171832
5	0x3dca8af5	0.09889785
6	0x3dcd14a2	0.10013701
7	0x3dcb2743	0.09919598
8	0x3dca34ad	0.09873328
9	0x3dcc57e7	0.099777035
10	0x3dcccb42	0.09999706
11	0x3dcd380d	0.100204565
12	0x3dcc85fd	0.09986494
13	0x3dccddf8	0.10003275
14	0x3dccfbce	0.100089654
15	0x3dca4321	0.09876085
16	0x3dcc0913	0.09962668
17	0x3dcccc25	0.09999875
18	0x3dccbc42	0.09996845
19	0x3dcc4148	0.09973389
20	0x3dcbee67	0.09957581
21	0x3dccae20	0.09994149
22	0x3dccec12	0.10005964
23	0x3dcada61	0.09904934
24	0x3dcc3c0f	0.09972393
25	0x3dcaf433	0.099098586
26	0x3dccc883	0.09999182
27	0x3dcc1c69	0.09966356
28	0x3dcc4d91	0.09975732
29	0x3dce7603	0.10081103
30	0x3dcb2029	0.099182434
31	0x3dcbfef7	0.0996074
32	0x3dcc40c2	0.09973289
33	0x3dcc8fe9	0.09988386
34	0x3dcef44e	0.10105191
35	0x3dcddb74	0.10051623
36	0x3dcfaca3	0.1014035
37	0x3dc9d22b	0.098545395
38	0x3dce19c7	0.100635104
39	0x3dce1e23	0.10064342
40	0x3dcddddd	0.10052083
41	0x3dcccccd	0.1
42	0x3dcbcfee	0.09951769
43	0x3dcdf770	0.100569606
44	0x3dd00322	0.101568475
45	0x3dccccfb	0.100000344
46	0x3dcc85f2	0.099864855
47	0x3dcccccd	0.1
48	0x3dcbd9ea	0.09953673
49	0x3dcc0bf8	0.0996322
50	0x3dcca7b4	0.09992924
51	0x3dccc84e	0.099991426
52	0x3dcbb95c	0.09947464
53	0x3dccb345	0.099951304
54	0x3dcccbda	0.09999819
55	0x3dcbe4a5	0.0995572
56	0x3dcc9ee1	0.09991241
57	0x3dce0af2	0.100606814
58	0x3dcccccd	0.1
59	0x3dcb3a1f	0.09923195
60	0x3dcba341	0.099432476
61	0x3dcc20f2	0.09967221
62	0x3dca922b	0.098911606
63	0x3dce1b9a	0.10063858
64	0x3dcccccd	0.1
65	0x3dc98420	0.09839654
66	0x3dc940b3	0.098267935
67	0x3dcccf68	0.10000497
68	0x3dceaf17	0.100919895
69	0x3dccc85e	0.099991545
70	0x3dcc8611	0.09986509
71	0x3dcd7301	0.10031701
72	0x3dcdb8b8	0.10044998
73	0x3dcdb624	0.10044506
74	0x3dcc8133	0.0998558
75	0x3dcc027b	0.099614106
76	0x3dccdcf2	0.100030795
77	0x3dcccccd	0.1
78	0x3dcf062f	0.10108601
79	0x3dcb09f6	0.09914009
80	0x3dcc3481	0.09970952
81	0x3dcdfea7	0.10058337
82	0x3dcccc91	0.099999554
83	0x3dcba2d6	0.09943168
84	0x3dcc3457	0.099709205
85	0x3dcc764a	0.09983499
86	0x3dcb0a1c	0.099140376
87	0x3dcba76d	0.09944043
88	0x3dcdfc42	0.1005788
89	0x3dcbaec9	0.09945447
90	0x3dcccccd	0.1
91	0x3dca2975	0.098711886
92	0x3dcc5099	0.0997631
93	0x3dcd506b	0.10025104
94	0x3dccccfc	0.10000035
95	0x3dca862b	0.09888872
96	0x3dccaa1b	0.099933825
97	0x3dcd577e	0.100264534
98	0x3dcd85a8	0.100352585
99	0x3dcc063a	0.09962125
100	0x3dcc6e0e	0.09981929
101	0x3dcd2948	0.100176394
102	0x3dcc3425	0.09970883
103	0x3dcccb87	0.09999757
104	0x3dccd17d	0.10000894
105	0x3dcd4b44	0.100241214
106	0x3dcc358a	0.09971149
107	0x3dccb371	0.09995163
108	0x3dcce8af	0.100053184
109	0x3dcf20a4	0.101136476
110	0x3dcb61a2	0.09930731
111	0x3dcccccd	0.1
112	0x3dcdaae1	0.10042358
113	0x3dcb250f	0.09919178
114	0x3dcbfa9c	0.09959909
115	0x3dcccccd	0.1
116	0x3dcda7e1	0.10041786
117	0x3dcbb4f5	0.09946624
118	0x3dccf661	0.100079305
119	0x3dcced53	0.100062035
120	0x3dc99fa4	0.09844902
121	0x3dcacfa1	0.09902883
122	0x3dcd5f68	0.10027963
123	0x3dcdf51b	0.10056516
124	0x3dceb5ee	0.10093294
125	0x3dcd2168	0.10016137
126	0x3dce366b	0.10068973
127	0x3dcb50fa	0.099275544
128	0x3dcca299	0.099919505
129	0x3dccce51	0.10000289
130	0x3dcd926b	0.10037693
131	0x3dca42f1	0.09876049
132	0x3dcd26b5	0.100171484
133	0x3dccd2d9	0.100011535
134	0x3dcec3ce	0.100959405
135	0x3dcbf7c0	0.09959364
136	0x3dccd209	0.100009985
137	0x3dce4da5	0.10073403
138	0x3dcac77b	0.09901329
139	0x3dcbb5a6	0.09946756
140	0x3dcccf45	0.10000471
141	0x3dcc56cb	0.09977492
142	0x3dcce623	0.100048326
143	0x3dc99298	0.09842414
144	0x3dcb91ae	0.099398956
145	0x3dce1719	0.10062999
146	0x3dcd476a	0.10023387
147	0x3dcd948b	0.10038098
148	0x3dcc60dc	0.09979412
149	0x3dcccb7d	0.0999975
150	0x3dcce230	0.10004079
151	0x3dcbb94b	0.09947451
152	0x3dca791e	0.098863825
153	0x3dcbdd42	0.09954311
154	0x3dccb410	0.09995282
155	0x3dcc0c8d	0.09963331
156	0x3dccef85	0.10006622
157	0x3dcc428a	0.09973629
158	0x3dcb4dee	0.09926973
159	0x3dce8012	0.10083021
160	0x3dccf5d2	0.10007824
161	0x3dcc6182	0.09979536
162	0x3dcce473	0.10004511
163	0x3dcccc39	0.0999989
164	0x3dcd55ea	0.100261524
165	0x3dcd4393	0.100226544
166	0x3dcd5b93	0.10027232
167	0x3dcd6e76	0.100308344
168	0x3dcd6910	0.10029805
169	0x3dcdb6a7	0.10044604
170	0x3dcc3922	0.09971835
171	0x3dcc469c	0.09974405
172	0x3dcb8367	0.099371724
173	0x3dcc0e0d	0.099636175
174	0x3dcaa01a	0.09893818
175	0x3dcc6e3c	0.09981963
176	0x3dcc631b	0.0997984
177	0x3dcccccd	0.1
178	0x3dcc2282	0.09967519
179	0x3dcd17ea	0.10014327
180	0x3dccccdd	0.10000012
181	0x3dccbc40	0.09996843
182	0x3dcc77e7	0.09983807
183	0x3dccad35	0.09993974
184	0x3dce53f1	0.10074604
185	0x3dcc6826	0.09980802
186	0x3dc9d1e8	0.098544896
187	0x3dcb2354	0.09918848
188	0x3dcdeb37	0.10054629
189	0x3dcbfdc6	0.09960513
190	0x3dcd04ae	0.10010658
191	0x3dcc91e7	0.09988766
192	0x3dcc33c6	0.099708125
193	0x3dcf7f3a	0.101316884
194	0x3dcb4bbd	0.09926555
195	0x3dcacbcf	0.09902155
196	0x3dcbbe7c	0.099484414
197	0x3dcbaa6e	0.09944616
198	0x3dcccc1b	0.099998675
199	0x3dcb7291	0.09933961
200	0x3dce040b	0.10059365
201	0x3dcc473d	0.09974525
202	0x3dce252e	0.10065685
203	0x3dcb45fa	0.09925456
204	0x3dcd061f	0.10010933
205	0x3dd00e56	0.10158984
206	0x3dcccccd	0.1
207	0x3dcce21d	0.10004065
208	0x3dcd742e	0.10031925
209	0x3dcfe49e	0.10151027
210	0x3dccc8e2	0.09999253
211	0x3dcca9a8	0.09993297
212	0x3dccf0eb	0.10006889
213	0x3dcf3059	0.101166435
214	0x3dcba037	0.09942668
215	0x3dcccccd	0.1
216	0x3dcd2fa6	0.10018854
217	0x3dca7517	0.09885614
218	0x3dcbb7dc	0.09947178
219	0x3dcd3e54	0.10021654
220	0x3dc9b8f4	0.0984973
221	0x3dcccccd	0.1
222	0x3dcb8f9c	0.09939501
223	0x3dcb9b20	0.09941697
224	0x3dc7c128	0.097536385
225	0x3dcc9a5d	0.0999038
226	0x3dce14fd	0.10062597
227	0x3dccf549	0.10007722
228	0x3dcccccd	0.1
229	0x3dcd4367	0.100226216
230	0x3dcc85d6	0.09986465
231	0x3dccd3c5	0.10001329
232	0x3dcccccd	0.1
233	0x3dcbb332	0.09946288
234	0x3dcce0f1	0.10003842
235	0x3dccb27b	0.0999498
236	0x3dcff008	0.10153204
237	0x3dcd83cb	0.10034903
238	0x3dcaedf6	0.09908669
239	0x3dcccccd	0.1
240	0x3dcbc0ed	0.09948907
241	0x3dcbe7c7	0.099563174
242	0x3dce3443	0.10068562
243	0x3dcc7386	0.09982972
244	0x3dcdb91e	0.10045074
245	0x3dcb742b	0.09934267
246	0x3dcee0c5	0.10101465
247	0x3dcbebf2	0.09957112
248	0x3dccf388	0.100073874
249	0x3dccccd7	0.100000076
250	0x3dcc21c8	0.09967381
251	0x3dccd24d	0.10001049
252	0x3dcd0cf5	0.10012237
253	0x3dccbda8	0.099971116
254	0x3dd01f42	0.10162212
255	0x3dd04d9a	0.10171051

b_out f4 [5]
0	0x3dcb65d9	0.09931535
1	0x3dccfadc	0.10008785
2	0x3dcca7b6	0.09992926
3	0x3dcce0fe	0.10003851
4	0x3dcc21e9	0.09967405

W_out f4 [256, 5]
0	0x3fbee3ae	1.4913232
1	0xbf6201a9	-0.88283783
2	0xbd0c5b2d	-0.03426664
3	0xbcd162f0	-0.025559872
4	0xbc9565ef	-0.018237082
5	0xbf6431df	-0.891386
6	0xbf510f4a	-0.81663954
7	0x3f1d6bd9	0.6149269
8	0x3f53bdf3	0.82711715
9	0x3fcd81bd	1.6055218
10	0x3ecccd78	0.4000051
11	0xbf85af70	-1.0444164
12	0xbe1b99ff	-0.15195464
13	0xbe902603	-0.28154
14	0xbf9fb655	-1.2477518
15	0x3f26a9dc	0.65102935
16	0xbdb45f18	-0.088072
17	0x3ecc3be7	0.39889452
18	0xbf8bf3f0	-1.0933819
19	0x3fa2f918	1.2732267
20	0x3f8d287c	1.102798
21	0xbe8a24cd	-0.26981202
22	0x3ed2ee8c	0.41197622
23	0x3ebc76f7	0.36809513
24	0xbf92a0c1	-1.1455308
25	0xbf894769	-1.0724918
26	0xbcf3e077	-0.02977012
27	0x3ed9286c	0.42413652
28	0xbff1471c	-1.8849826
29	0x3f8649e3	1.0491298
30	0x3f88afee	1.067869
31	0x3da70389	0.08154971
32	0xbfd62ab8	-1.6731787
33	0xbdb437d1	-0.08799709
34	0xbf208bf0	-0.6271353
35	0xbf585944	-0.8451121
36	0xbf0febda	-0.56219256
37	0x3fab4b53	1.3382362
38	0xbdd3e37c	-0.103461236
39	0xbf5c02a9	-0.8594156
40	0x3f59e35f	0.85112566
41	0xbe0c272c	-0.13686818
42	0x3bbb78c4	0.0057211835
43	0xbf9a6af9	-1.2063895
44	0xbfbd4c41	-1.4788896
45	0x3f0dcfb9	0.55395085
46	0x3fc12afd	1.5091244
47	0x3f0c2822	0.5474874
48	0xbed12549	-0.4084876
49	0xbe4dda8a	-0.20102897
50	0x3effd863	0.49969777
51	0xbe7b8f16	-0.24566302
52	0x3fa5014a	1.2891018
53	0x3f004aca	0.5011412
54	0xbe8b2d31	-0.27182916
55	0xbed20d57	-0.41025802
56	0xbf378a86	-0.71695745
57	0x3d9a1281	0.075230606
58	0x3fcf2532	1.6183226
59	0xbe5f7dcb	-0.2182533
60	0xbe278297	-0.1635841
61	0xbe9871fa	-0.29774457
62	0xbee992eb	-0.45619902
63	0x3e45fe18	0.1933521
64	0x3e867a4e	0.26265186
65	0xbf9a0059	-1.2031356
66	0xbe9cac3e	-0.3060016
67	0xbf6bba46	-0.92081106
68	0x3ecb0d50	0.39658594
69	0xbf57b49d	-0.8425997
70	0x3e88b15a	0.26697809
71	0x3f206d34	0.6266663
72	0x3e0fd108	0.14044583
73	0xbf624c39	-0.88397557
74	0x3f5a6bd4	0.8532078
75	0xbfa966a6	-1.3234451
76	0x3e32b35f	0.17451237
77	0x3e75a694	0.23989326
78	0x3f837904	1.0271306
79	0xbe17b71a	-0.14815941
80	0xbe88f744	-0.2675115
81	0x3f51f31e	0.8201159
82	0xbddf16c2	-0.108930126
83	0x3f2f1f18	0.6840682
84	0x3ccde846	0.02513517
85	0xbfb9c807	-1.4514169
86	0xbf8474fa	-1.0348198
87	0x3f8976fe	1.0739439
88	0x3f490188	0.7851796
89	0x3fc6b618	1.5524321
90	0x3e77937b	0.24177353
91	0xbf8f3de8	-1.1190767
92	0x3df93156	0.12167613
93	0xbe961b1e	-0.29317564
94	0x3e42780b	0.18991105
95	0xbfd86f40	-1.6908951
96	0xbeb6284a	-0.35577613
97	0x3e0086bc	0.12551397
98	0x3f4d44a4	0.8018286
99	0x3f5dcba2	0.86638844
100	0x3fa3f5d6	1.2809398
101	0xbf477450	-0.77911854
102	0xbec3005f	-0.3808622
103	0xbfc38bcb	-1.5277036
104	0xbef7f11b	-0.48426136
105	0x3f134e6c	0.5754154
106	0xbf59fc52	-0.85150635
107	0x3f140133	0.5781433
108	0x3e1d4069	0.15356602
109	0xbea8d302	-0.32973486
110	0x3f63b3c3	0.8894617
111	0xbf9b0bf7	-1.2113026
112	0x3f6a20c9	0.91456276
113	0xbcce9b88	-0.025220647
114	0xbf137499	-0.5759979
115	0xbd900e2b	-0.07033952
116	0x3f138af4	0.576339
117	0x3f8a7bec	1.0819068
118	0x3ed8b49c	0.42325294
119	0xbf4f6229	-0.81009156
120	0xbde5c28b	-0.11218747
121	0xbfadb39b	-1.3570436
122	0x3edf4664	0.4360839
123	0x3eff5a0c	0.49873388
124	0xbeb68d70	-0.35654783
125	0x3fbc117b	1.4692835
126	0xbf58bf5e	-0.84667003
127	0x3d3e92be	0.046526663
128	0xbde803dc	-0.11328861
129	0x3fba00f2	1.4531538
130	0xbefab6e2	-0.48967654
131	0xbeb62b9b	-0.35580143
132	0xbf7f13b1	-0.9963942
133	0x3f8929d9	1.0715896
134	0x3e4a1fc7	0.19738685
135	0xbf2b981f	-0.67028993
136	0x3ebd1a2e	0.36934036
137	0xbf87bacc	-1.0603881
138	0xbfb92e9b	-1.4467348
139	0x3fed2270	1.8526134
140	0x3fed50c4	1.8540273
141	0xbf6499e5	-0.89297324
142	0x3f0c4172	0.5478736
143	0xbf4b1d00	-0.79341125
144	0xbdadf5de	-0.08494161
145	0xbf46f17d	-0.7771223
146	0xbfad8902	-1.3557436
147	0x3ea66725	0.32500568
148	0xbfac7281	-1.3472444
149	0xbe935be2	-0.2878104
150	0x3f5ab7d3	0.85436743
151	0x3eb14479	0.34622553
152	0xbfdefedc	-1.7421527
153	0x3f04c167	0.5185761
154	0x3fa0b289	1.2554485
155	0x3fef5f66	1.8700988
156	0xbfbf9b88	-1.4969339
157	0x3f006b2e	0.50163543
158	0xbfd328b1	-1.6496793
159	0x3f418ed9	0.75608593
160	0xbfb8a415	-1.4425074
161	0xbfc792d9	-1.5591689
162	0x3f7d6762	0.98985875
163	0xbe98cac4	-0.29842198
164	0x3fd0dde2	1.6317713
165	0xbe451799	-0.19247283
166	0x3e5197f4	0.20468122
167	0x3e5e9f7b	0.21740524
168	0xbe9e4295	-0.30910173
169	0xbf28102d	-0.6564968
170	0x3c0be70a	0.008538971
171	0x3fa96955	1.323527
172	0x3ec20cce	0.37900394
173	0x3d7a2212	0.06106765
174	0xbfd84349	-1.6895534
175	0xbfbaff0c	-1.4609084
176	0xbe5fba57	-0.21848427
177	0x3eec3afa	0.46138746
178	0xbf4a2f34	-0.78978276
179	0x3f8257ef	1.0183085
180	0xbf892816	-1.0715358
181	0xbf01b654	-0.50668836
182	0xbf1c383d	-0.6102331
183	0xbf83c885	-1.0295569
184	0xbe937265	-0.28798214
185	0x3e936b32	0.2879272
186	0xbf433ead	-0.7626751
187	0x3fc8ed9d	1.5697514
188	0x3d4a1e27	0.04934516
189	0xbfb4fe31	-1.4140073
190	0xbe8c45c9	-0.27396992
191	0xbef2cd47	-0.4742224
192	0x3ebca264	0.36842644
193	0x3febd5c0	1.8424606
194	0x3f335b6c	0.70061374
195	0xbec00294	-0.37501967
196	0xbf5e36e9	-0.86802536
197	0x3f98d599	1.1940185
198	0xbebbae9c	-0.36656654
199	0xbfcf9796	-1.6218135
200	0x3f89369b	1.0719789
201	0xbf1001cc	-0.5625274
202	0xbeed4a32	-0.4634567
203	0xbd870d55	-0.0659434
204	0xbe64c5b7	-0.22341047
205	0x3f740c6a	0.9533144
206	0xbc5dbd29	-0.013533869
207	0x3e502015	0.20324738
208	0x3e323d2f	0.17406152
209	0xbf1ca7f4	-0.61193776
210	0x3fb2a74b	1.3957304
211	0x3e141d96	0.14464411
212	0x3e9712a5	0.29506412
213	0x3f62119d	0.88308126
214	0xbfb5c228	-1.4199877
215	0xbedca70b	-0.43096194
216	0x3e8c5f83	0.2741662
217	0x3e2e73a7	0.17036305
218	0xbf1e4024	-0.6181662
219	0xbf48ba2b	-0.7840907
220	0x3fccdf88	1.6005716
221	0xbfe3b3c5	-1.7789236
222	0xbe3f7db6	-0.18700299
223	0xbfa69245	-1.3013388
224	0xbe627680	-0.22115517
225	0x3e970a28	0.29499936
226	0x3e71b725	0.2360502
227	0x3f529176	0.82253206
228	0x3cbf4920	0.023350298
229	0xbf0979f3	-0.53701705
230	0x3f223277	0.63358253
231	0xbe108eac	-0.14116925
232	0x3ea616c9	0.3243926
233	0x3ee6c78f	0.45074126
234	0x3dd74f8d	0.1051322
235	0xbf9b90bf	-1.2153548
236	0x3ea28608	0.31742883
237	0xbf0cd8cf	-0.55018324
238	0xbf64c58c	-0.8936393
239	0xbf88f968	-1.0701113
240	0x3f2f8d42	0.6857492
241	0x3f3784ba	0.716869
242	0x3f27d831	0.65564257
243	0xbf18d299	-0.59696347
244	0xbf0fcffb	-0.5617673
245	0x3db38b21	0.08766771
246	0x3ffbe793	1.9680046
247	0x3f727ce5	0.94721824
248	0x3f9bc4db	1.216945
249	0x3f8e06df	1.1095847
250	0x3f6076e8	0.87681437
251	0x3ff8e79e	1.9445684
252	0x3f2e89f4	0.6817925
253	0xbf89d0ed	-1.0766884
254	0x3de695a0	0.112590075
255	0x3e9a1c9e	0.30099958

W_conv1 f4 [3, 3, 3, 16]
0	0xbe82fdc0	-0.2558422
1	0x3df0b2ca	0.11752851
2	0x3e9eb7f9	0.30999735
3	0x3eba181e	0.36346525
4	0xbfa28ee1	-1.2699853
5	0xbf21f1ee	-0.6325978
6	0x3f35f20f	0.7107248
7	0x3dab21ba	0.08356042
8	0x3fe4e29c	1.7881656
9	0xbfb7cc4b	-1.435922
10	0xbf9678ab	-1.1755575
11	0xbff6a61f	-1.9269446
12	0x3fa91d76	1.3212116
13	0xbe6ccb04	-0.2312432
14	0xbe60a6f1	-0.21938683
15	0xbeb1170e	-0.34587902
16	0xbf6c23c4	-0.92242074
17	0x3e5ff4cc	0.21870726
18	0xbeec2234	-0.46119845
19	0xbf2d1c52	-0.6762134
20	0x3ed18676	0.40922898
21	0x3fe37c59	1.7772323
22	0x3d1597b0	0.036521614
23	0x3d159167	0.03651562
24	0x3fde3d60	1.736248
25	0x3fce8fa9	1.6137592
26	0xbfe9755a	-1.8238938
27	0xc0090bf2	-2.141354
28	0xbf2f6ebd	-0.6852835
29	0x4006b804	2.1049814
30	0xbf60e3b3	-0.8784744
31	0x3f75de45	0.9604228
32	0x3f1b2fb0	0.6061964
33	0x3f710ace	0.9415711
34	0x3fd953e2	1.6978724
35	0x3ff7162d	1.9303643
36	0x3ef3673d	0.47539702
37	0xbf04b581	-0.51839453
38	0xbfe46258	-1.7842512
39	0x3f87b63e	1.0602491
40	0xbe8e27f7	-0.27764866
41	0x3fe8bb4a	1.8182156
42	0xbf1b0056	-0.6054739
43	0xbfbb1bf9	-1.4617912
44	0x3f382574	0.7193215
45	0x3d455a15	0.048181612
46	0x3f56fce2	0.8397962
47	0x3fb988e2	1.4494898
48	0x3fedc291	1.8575002
49	0xbee6eeca	-0.45104057
50	0xbf54fdc0	-0.8319969
51	0xbf9dfee6	-1.2343414
52	0x3e8cae10	0.2747655
53	0x3e8a5698	0.2701919
54	0xbdc5caa1	-0.09657789
55	0xbec38311	-0.38185933
56	0xbef5d6ff	-0.48015592
57	0xbe9fff71	-0.31249574
58	0x3f8ba630	1.0910091
59	0xbfd9a08f	-1.7002124
60	0xbf7dc204	-0.9912417
61	0xbec9f35b	-0.39443478
62	0xbfbb17db	-1.4616655
63	0xbfdaac1b	-1.7083772
64	0xbfcc952f	-1.5983027
65	0x3f29c83e	0.6632117
66	0x3fe64693	1.7990288
67	0x3ede59d5	0.4342791
68	0x3fcddd7b	1.6083215
69	0xbf39d75f	-0.72594255
70	0xbf4a8a28	-0.7911706
71	0x3e1e9401	0.15486147
72	0x3fc821cc	1.5635314
73	0x3f50d221	0.8157063
74	0x3f3779ff	0.71670526
75	0x3f8d5af7	1.1043385
76	0x400134fc	2.018859
77	0xbf8387e8	-1.027585
78	0xbf20e7ca	-0.6285368
79	0xbf8fe34d	-1.1241242
80	0x3e431313	0.19050245
81	0xbf7eaa40	-0.9947853
82	0x3f8a862a	1.0822194
83	0xbe717967	-0.23581468
84	0x3f84bc5d	1.0369984
85	0xbf82520b	-1.0181288
86	0x3fa47c4d	1.2850434
87	0xbef936f3	-0.48674735
88	0xbe7c27e2	-0.24624589
89	0xbf8a0a2e	-1.0784357
90	0xbe622750	-0.22085309
91	0xbeaf1ced	-0.34201756
92	0x3e3957c9	0.18099894
93	0x3def6a67	0.116902165
94	0xbeba6105	-0.36402145
95	0x3e5bd2df	0.2146716
96	0xbf9bc49b	-1.2169374
97	0x3d373adc	0.044733867
98	0x3f26ed00	0.65205383
99	0xbdcf97f0	-0.10136402
100	0xbece2408	-0.40261865
101	0xbf466049	-0.7749067
102	0xbed8e01f	-0.4235849
103	0xbf9299bd	-1.1453167
104	0xbf78fbe9	-0.97259384
105	0x3e8673ca	0.26260215
106	0x3e945612	0.28971916
107	0xbf81562f	-1.0104426
108	0xbfa4421f	-1.2832679
109	0x3fc0e72f	1.5070552
110	0xbfb8906e	-1.4419076
111	0xbf708157	-0.93947357
112	0x3e8a9455	0.27066293
113	0x3fb9c21d	1.4512364
114	0x3ff9d6ab	1.9518636
115	0xbf9ecb16	-1.2405727
116	0x3f9c68c9	1.2219478
117	0xbd3e7ae1	-0.046503905
118	0x3fef18aa	1.8679402
119	0x3f55381e	0.83288753
120	0x4014a046	2.3222823
121	0xbd7b2cfc	-0.061322197
122	0xbf0c513b	-0.5481145
123	0xbf6561ca	-0.8960234
124	0x3fdad525	1.7096297
125	0x3e9c7bd9	0.30563238
126	0xbdaa4883	-0.08314612
127	0xbf0c0c33	-0.54706115
128	0xbfc8fb4b	-1.5701689
129	0xbda4ea7a	-0.08052535
130	0x3f2806a2	0.6563512
131	0xbf26fb8e	-0.6522759
132	0x3b5b0993	0.0033422455
133	0x3eefad2b	0.46811804
134	0x3e739d9c	0.23790592
135	0xbf263c41	-0.6493569
136	0xbe82f236	-0.25575417
137	0x3f012217	0.5044264
138	0x3fa9c8e4	1.3264432
139	0x3f436c99	0.7633758
140	0xbf9f5970	-1.2449169
141	0xbf0f4a5b	-0.5597283
142	0xbf10e1d6	-0.565946
143	0xbfe12886	-1.7590492
144	0x3eb9959f	0.36246964
145	0xbeee069e	-0.46489424
146	0xbfbaed00	-1.4603577
147	0xbf66da11	-0.9017649
148	0x3f8a6f4a	1.0815213
149	0x3f176030	0.59131145
150	0xbe5c9db6	-0.21544537
151	0x3f40553a	0.75130045
152	0x3dc3038a	0.095221594
153	0x3f0ecce2	0.55781376
154	0x3f1696d7	0.58823913
155	0xbfff4a9e	-1.9944646
156	0xbeb21982	-0.34785086
157	0x3f941a8e	1.1570604
158	0x3f7532cb	0.9578063
159	0xbf7697f5	-0.9632562
160	0xbeaf20f8	-0.3420484
161	0x3f09c790	0.53820133
162	0x3ed74635	0.4204575
163	0x3f91e6bd	1.1398541
164	0x3f10fa5c	0.5663202
165	0xbf1a23cc	-0.6021087
166	0xbd950f9c	-0.07278368
167	0xbf917550	-1.1363926
168	0xbf4b830b	-0.7949683
169	0x3f8b1120	1.0864601
170	0x3f7cc383	0.9873583
171	0x3f31434b	0.69243306
172	0x3f02367a	0.50864375
173	0xbec48fe9	-0.38391045
174	0xbdfc1159	-0.12307996
175	0xbb995d24	-0.0046802927
176	0xbf2a05db	-0.66415185
177	0x3f21a7ef	0.6314687
178	0xbe8bf3f3	-0.27334556
179	0xbf1683ca	-0.58794844
180	0xbdf26bc6	-0.118369624
181	0xbf249c33	-0.6430084
182	0x3edc4b91	0.43026403
183	0x3f756820	0.9586201
184	0xbeee1a99	-0.46504667
185	0x3f94d73d	1.1628186
186	0x3f7d5067	0.9895081
187	0xbf0f3335	-0.5593751
188	0x3f1a9f28	0.60399103
189	0xbed68452	-0.41897827
190	0x3bf0d42c	0.0073495116
191	0x3f2dd766	0.67906797
192	0x3fef23ac	1.8682761
193	0xbfcace5d	-1.5844227
194	0x3edb5628	0.4283917
195	0x3f1ce12a	0.61281073
196	0xbd593e06	-0.053037666
197	0xbec26ef4	-0.37975276
198	0xbfc2e593	-1.522631
199	0xbefc63a2	-0.49294764
200	0xbf26595b	-0.64980096
201	0xbdd104d8	-0.10206002
202	0x3fb52b60	1.4153862
203	0x3dc472ad	0.09592185
204	0xbea08c08	-0.31356835
205	0xbea0da24	-0.31416428
206	0x3decce22	0.11562754
207	0x3e8b9f4f	0.2726998
208	0x3fc4f71f	1.5387915
209	0x3fa5d34b	1.2955106
210	0xbfa41ddb	-1.2821611
211	0x3f0b3899	0.54383236
212	0xbea402d8	-0.3203342
213	0x3fc00df5	1.5004259
214	0x3ea69752	0.32537323
215	0x3f9d614d	1.2295319
216	0xbef97919	-0.48725203
217	0x3fa7e857	1.311778
218	0x3e467915	0.19382127
219	0x3f9769b0	1.1829128
220	0x3ea0b590	0.3138852
221	0xbec227d7	-0.3792102
222	0xbfcd55fa	-1.6041863
223	0xbf928122	-1.1445658
224	0xbf835be5	-1.0262419
225	0xbf4ada00	-0.7923889
226	0x3f422435	0.758365
227	0x3f1e4a77	0.61832374
228	0xbf627eda	-0.8847481
229	0x3efd91f0	0.49525404
230	0xbdd84b2e	-0.105612144
231	0x3e8662e6	0.2624733
232	0x3f95acb3	1.1693329
233	0xbf5b00b8	-0.8554797
234	0xbecfc7dd	-0.4058217
235	0xbeeb5b31	-0.4596801
236	0x3f7638ff	0.9618072
237	0xbfbaabf2	-1.4583724
238	0x3fcd98b3	1.6062225
239	0x3edf8069	0.43652657
240	0x3fd5cfa4	1.6703992
241	0xbf3a6004	-0.7280276
242	0xbe321aa1	-0.1739297
243	0xbf618b0c	-0.88102794
244	0x3afd38c9	0.0019319291
245	0xbf9d7b26	-1.2303207
246	0x3eec1801	0.46112064
247	0x3e2c4283	0.16822247
248	0xbf93f342	-1.1558611
249	0x3edffd76	0.43748063
250	0xbedbeb18	-0.429528
251	0x3e905101	0.281868
252	0xbfd0b5f0	-1.6305523
253	0x3f0b46fd	0.54405195
254	0x3f0b11ba	0.54323924
255	0x3ef3038b	0.4746364

b_conv2 f4 [32]
0	0x3dcccccd	0.1
1	0x3dcccccd	0.1
2	0x3dcccccd	0.1
3	0x3dcccccd	0.1
4	0x3dcccccd	0.1
5	0x3dcccccd	0.1
6	0x3dcccccd	0.1
7	0x3dcccccd	0.1
8	0x3dcccccd	0.1
9	0x3dcccccd	0.1
10	0x3dcccccd	0.1
11	0x3dcccccd	0.1
12	0x3dcccccd	0.1
13	0x3dcccccd	0.1
14	0x3dcccccd	0.1
15	0x3dcccccd	0.1
16	0x3dcccccd	0.1
17	0x3dcccccd	0.1
18	0x3dcccccd	0.1
19	0x3dcccccd	0.1
20	0x3dcccccd	0.1
21	0x3dcccccd	0.1
22	0x3dcccccd	0.1
23	0x3dcccccd	0.1
24	0x3dcccccd	0.1
25	0x3dcccccd	0.1
26	0x3dcccccd	0.1
27	0x3dcccccd	0.1
28	0x3dcccccd	0.1
29	0x3dcccccd	0.1
30	0x3dcccccd	0.1
31	0x3dcccccd	0.1

b_conv1 f4 [16]
0	0x3dcccccd	0.1
1	0x3dcccccd	0.1
2	0x3dcccccd	0.1
3	0x3dcccccd	0.1
4	0x3dcccccd	0.1
5	0x3dcccccd	0.1
6	0x3dcccccd	0.1
7	0x3dcccccd	0.1
8	0x3dcccccd	0.1
9	0x3dcccccd	0.1
10	0x3dcccccd	0.1
11	0x3dcccccd	0.1
12	0x3dcccccd	0.1
13	0x3dcccccd	0.1
14	0x3dcccccd	0.1
15	0x3dcccccd	0.1

W_fc f4 [512, 256]
0	0xbf4e0969	-0.8048311
1	0xbe495789	-0.19662298
2	0x3e084a71	0.13309647
3	0xbf9ca329	-1.2237293
4	0xbe284c29	-0.16435303
5	0xbfe56611	-1.7921773
6	0xbec7a8ca	-0.38995963
7	0xbe10101b	-0.14068644
8	0xbf87bbfd	-1.0604244
9	0x3ee0368b	0.43791613
10	0xbd2f7f88	-0.042846233
11	0x3e7c832d	0.24659415
12	0xbcac06b5	-0.020999292
13	0x3f4d95c7	0.8030667
14	0x3e8a722e	0.27040237
15	0x3f0e3bf0	0.5556021
16	0xbd9c5004	-0.07632449
17	0xbe2dc0f2	-0.16968134
18	0x3dc0ccc7	0.09414058
19	0x3ff98c95	1.9496027
20	0x3e96c022	0.2944346
21	0xbd862c10	-0.06551373
22	0xbd81bea7	-0.06335192
23	0x3fe7c803	1.8107914
24	0x3ebf90d5	0.37415186
25	0xbe53a69a	-0.20669022
26	0x3ed80605	0.42192093
27	0xbf06afee	-0.526122
28	0x3f42eeee	0.7614583
29	0x3ff761f0	1.9326763
30	0x3db1e80c	0.086868376
31	0x3f2b6f70	0.66966915
32	0x3e968330	0.29396963
33	0xbe523274	-0.20527059
34	0x3eaa6d00	0.33286285
35	0xbf170de6	-0.5900558
36	0xbeddb894	-0.43304884
37	0x3fbd5548	1.4791651
38	0xbfe3d1e2	-1.7798426
39	0xbf9f66d9	-1.2453262
40	0x3fd81808	1.6882334
41	0xbfc00e4c	-1.5004363
42	0xbe7504b9	-0.23927583
43	0xbd10c38e	-0.035342745
44	0xbf789ddf	-0.9711589
45	0x3e320e7a	0.17388335
46	0x3d9fb9aa	0.077990845
47	0x3edd81ab	0.4326299
48	0xbec9dfe3	-0.39428625
49	0xc0017670	-2.0228539
50	0xbfda19d6	-1.7039135
51	0xbe81f167	-0.25379488
52	0xbf50ca43	-0.81558627
53	0x3fdb6d57	1.7142743
54	0xbeef64db	-0.46756634
55	0xbed73551	-0.42032865
56	0xbf82ba36	-1.0213077
57	0xbe647071	-0.22308518
58	0x3f3e1eeb	0.7426593
59	0xbe42b411	-0.19014002
60	0x3f8c489f	1.0959662
61	0x3fe5f68b	1.7965864
62	0xbd335e1a	-0.043790914
63	0x3f5551fa	0.8332821
64	0xbe3e5fea	-0.18591276
65	0xbea09e4d	-0.31370774
66	0x3f85f591	1.0465566
67	0x3f11d429	0.56964356
68	0xbfd283a7	-1.6446427
69	0x3f7bd1c4	0.9836695
70	0x3f83cf18	1.0297575
71	0x3e57d904	0.21078879
72	0xbfa5c16a	-1.294965
73	0x3ec593ab	0.38589224
74	0x3fd5bcbb	1.6698221
75	0xbda53f4c	-0.080687135
76	0xbf554d01	-0.83320624
77	0x3ed9b3ac	0.4251989
78	0x3f3a18d7	0.7269415
79	0x3f8b7af2	1.0896895
80	0x3f5938af	0.8485212
81	0x3f11c878	0.56946516
82	0x3fb597f3	1.4186996
83	0x3f405cd8	0.7514167
84	0x3cd46423	0.025926655
85	0xbf81d191	-1.014208
86	0xbeff49f6	-0.49861115
87	0x3f3c55c9	0.735684
88	0xbf4def13	-0.80442923
89	0xbdf0fc6b	-0.11766895
90	0xbe7104d9	-0.23537005
91	0xbf9e7076	-1.237807
92	0x3fbf754e	1.4957674
93	0xbf5d6f1f	-0.8649768
94	0x3e6315fe	0.22176358
95	0xbffbddea	-1.9677098
96	0x3f38487e	0.71985614
97	0xbea89c97	-0.3293197
98	0xbec22c5f	-0.37924477
99	0x3f7383a2	0.9512273
100	0x3e71fa4d	0.23630638
101	0x3f5c4e6c	0.8605716
102	0x3f970b28	1.180028
103	0x3e2d60a7	0.16931401
104	0x3e0ed238	0.1394738
105	0xbe78201a	-0.24230996
106	0x3f257386	0.646294
107	0xbfd44409	-1.6583263
108	0xbf54acf6	-0.8307642
109	0xbe43fcf3	-0.19139461
110	0x3f9fc48e	1.2481859
111	0x3f48cc30	0.78436565
112	0xbf53d0c3	-0.8274042
113	0x3f27ad74	0.65499043
114	0x3f6375ef	0.8885183
115	0x3da39dad	0.07989059
116	0x3f95a671	1.1691419
117	0xbdb84a6e	-0.08998571
118	0xbfc72568	-1.555829
119	0x3fd1ff7e	1.6406095
120	0x3eb093fc	0.34487903
121	0xbf20bc17	-0.62787
122	0xbfba918b	-1.4575666
123	0xbd97d4a0	-0.07413602
124	0xbeb4a195	-0.35279527
125	0xbf08fb5d	-0.5350855
126	0x3e7072c7	0.23481284
127	0xbf5dd001	-0.86645514
128	0x3f2f3b66	0.6845001
129	0x3ee5aab8	0.4485681
130	0x3f95882d	1.1682183
131	0xbe3b5237	-0.18293081
132	0x3f48178a	0.7816092
133	0xbd52ee90	-0.051497042
134	0x3f353217	0.70779556
135	0x3fe19952	1.7624915
136	0x3fb4b879	1.4118797
137	0x3f389b36	0.72111833
138	0xbfd7eb33	-1.6868652
139	0xbd408b8f	-0.047008093
140	0xbe915c35	-0.2839066
141	0x3f7d94a1	0.99054915
142	0x3f73519b	0.95046395
143	0xbe197714	-0.14986831
144	0xbe4093a5	-0.18806322
145	0xbdf5a7f6	-0.11994927
146	0x3ec19666	0.37810057
147	0xbf235e5a	-0.63815844
148	0xbec67f1a	-0.38768846
149	0x3e7c1e67	0.24620973
150	0x3f41a89a	0.7564789
151	0x3eb5075b	0.35357174
152	0x3f29340a	0.6609503
153	0x3fb2b0d9	1.396022
154	0x3f5a898c	0.8536613
155	0x3f6326d4	0.8873112
156	0x3fae2c61	1.3607293
157	0xbf25ff18	-0.6484237
158	0x3dd3229b	0.10309335
159	0xbfa4c22b	-1.2871755
160	0x3f2f97ee	0.685912
161	0x3f3c6a66	0.7359985
162	0xbed69ba7	-0.41915628
163	0x3f638e93	0.88889426
164	0x3f99970f	1.1999224
165	0x3f11e1f6	0.56985414
166	0x3dcb1566	0.09916191
167	0xbecd2e5f	-0.4007444
168	0xbe6f7e4b	-0.2338802
169	0x3f844fcd	1.0336853
170	0xbf9b9810	-1.2155781
171	0xbea6e71b	-0.32598194
172	0x3eb9bcfb	0.36276993
173	0x3fcaa135	1.5830446
174	0xbf424949	-0.75893074
175	0xbf838a5e	-1.0276601
176	0xbe2cf7b2	-0.16891363
177	0x3cf48513	0.029848611
178	0x3e825321	0.25454047
179	0x3eafa450	0.34305048
180	0xbd9433ac	-0.07236418
181	0xbf30e5d2	-0.6910068
182	0xbf296da6	-0.66182935
183	0xbf2fff66	-0.6874908
184	0x3e1aac3a	0.15104762
185	0xbeb35615	-0.35026613
186	0xbea4fd57	-0.32224533
187	0x3fd44e50	1.6586399
188	0x3e6557e0	0.22396803
189	0xbeb47fd8	-0.35253787
190	0xbf8e80ee	-1.1133096
191	0x3f5bdaaa	0.8588053
192	0xbf33e6de	-0.7027415
193	0xbeccb61c	-0.39982688
194	0x3e74777a	0.23873702
195	0xbf0ec91d	-0.55775625
196	0xbed9aac3	-0.42513093
197	0x3ec14988	0.37751412
198	0xbf2483f7	-0.6426386
199	0x3ea35a4e	0.31904835
200	0xbe23a0d7	-0.15979324
201	0xbe19a316	-0.15003619
202	0xbf966ced	-1.1751992
203	0x3eb8d888	0.361027
204	0x3fae8e3e	1.3637159
205	0x3c94de0b	0.018172285
206	0xbdf66747	-0.12031417
207	0xbe115e25	-0.1419607
208	0xbee8bed9	-0.45458105
209	0x3f524987	0.82143444
210	0x3f32e7be	0.6988486
211	0xbfb07d82	-1.3788302
212	0xbf171e8f	-0.59031004
213	0xbf7d78b7	-0.9901232
214	0x3e44c447	0.19215499
215	0x3f121747	0.5706677
216	0x3f91547e	1.135391
217	0x3bc80b54	0.006104866
218	0xbfc9e77b	-1.5773767
219	0x3f22306f	0.63355154
220	0x3f86e123	1.0537456
221	0x3e30855e	0.17238376
222	0x3ce64a59	0.028111624
223	0xbf9c4c1b	-1.2210726
224	0x3faa0942	1.3284075
225	0x3df969aa	0.12178357
226	0x3e75cc4a	0.24003711
227	0xbf694d2c	-0.9113338
228	0x3f0235e1	0.5086346
229	0xbf4bee11	-0.79660136
230	0xbf868417	-1.0509061
231	0xbeefc0a5	-0.46826664
232	0xbf4b01a5	-0.79299384
233	0x3fcb0757	1.5861615
234	0xbf84d475	-1.0377337
235	0x3fda5197	1.7056149
236	0x3fa968d2	1.3235114
237	0x3fd16cb5	1.63613
238	0xbe3869b6	-0.18009076
239	0x3f97e0f0	1.186552
240	0x3e5f16c7	0.21786033
241	0x3f8a1d3e	1.0790174
242	0x3e58e654	0.21181613
243	0x3f50a86d	0.81507
244	0xbfb05eb4	-1.3778901
245	0xbf65da49	-0.897862
246	0x3ec7094f	0.3887429
247	0xbfeb0a16	-1.8362453
248	0xbdb118f7	-0.0864734
249	0x3f1ada4e	0.60489357
250	0x3e1fb248	0.15595353
251	0xbf9cd982	-1.2253878
252	0xbf94e832	-1.163336
253	0xbfb00555	-1.3751627
254	0xbdd9919d	-0.10623477
255	0x3ff67dae	1.9257104
