Models/Tensorflow/model_local9_zombie.npz (npz, 552614 bytes, 8 tensors)

W_out f4 [256, 5]
0	0x3fd1d9fd	1.639465
1	0xbf4eeaea	-0.808272
2	0xbdd4eb27	-0.10396414
3	0xbc053331	-0.008129881
4	0x3c31fcbd	0.01086348
5	0xbf6431df	-0.891386
6	0xbf510f4a	-0.81663954
7	0x3f1d6bd9	0.6149269
8	0x3f53bdf3	0.82711715
9	0x3fcd81bd	1.6055218
10	0x3ecaff3a	0.39647847
11	0xbf844300	-1.0332947
12	0xbe1bd8f2	-0.15219477
13	0xbe91fd34	-0.2851349
14	0xbf9f5ad0	-1.2449589
15	0x3f265572	0.6497413
16	0xbde7b690	-0.11314118
17	0x3eeaa656	0.4583003
18	0xbf89a4f3	-1.0753464
19	0x3fa4b600	1.2868042
20	0x3fa5893a	1.2932503
21	0xbee4aa5d	-0.44661227
22	0x3ef49e78	0.47777152
23	0x3e8d2320	0.2756586
24	0xbf94aedf	-1.1615866
25	0xbf8d5c0c	-1.1043715
26	0x3d9627e5	0.07331828
27	0x3f07c877	0.5304026
28	0xbff4d467	-1.912732
29	0x3f7f6b66	0.9977325
30	0x3f84730a	1.0347607
31	0xbdc04923	-0.0938895
32	0xbfb77dab	-1.4335226
33	0x3d77fca9	0.06054369
34	0xbf17cf6f	-0.59300894
35	0xbf829b9c	-1.0203738
36	0xbf8f29e3	-1.1184658
37	0x3f8131a2	1.0093272
38	0xbe9d838e	-0.3076443
39	0xbf39ab04	-0.72526574
40	0x3f480a96	0.7814115
41	0xbddbd191	-0.10733331
42	0x3e5d3479	0.21602048
43	0xbfa16750	-1.2609653
44	0xbfc44bc8	-1.5335627
45	0x3f3742b1	0.7158614
46	0x3fc460b1	1.5342008
47	0x3ee2ca44	0.4429494
48	0xbed9a980	-0.4251213
49	0x3bc3311f	0.0059567834
50	0x3f006a08	0.5016179
51	0xbe72ecc0	-0.23723125
52	0x3fa4c0fd	1.2871395
53	0x3f009a56	0.502355
54	0xbe8a14a3	-0.2696887
55	0xbee1501a	-0.44006425
56	0xbf2a0e57	-0.6642813
57	0x3d524339	0.05133364
58	0x3fd21675	1.6413103
59	0xbef18fc7	-0.47180006
60	0xbdb35391	-0.087561734
61	0xbeaf993d	-0.342966
62	0xbefc68f8	-0.49298835
63	0x3e9876ca	0.2977813
64	0x3e8e7db9	0.27830294
65	0xbf976595	-1.1827875
66	0xbe815c7b	-0.2526587
67	0xbf575bda	-0.8412453
68	0x3e7b84f4	0.24562436
69	0xbf689f69	-0.9086824
70	0x3e9fce27	0.3121197
71	0x3f1f4652	0.62216675
72	0x3ddf26b2	0.108960524
73	0xbf68ce55	-0.9093984
74	0x3f3e6817	0.7437758
75	0xbf946009	-1.1591808
76	0x3d3abef1	0.045592252
77	0x3dd26f4f	0.10275137
78	0x3f88520b	1.0650038
79	0xbe86e4bd	-0.26346388
80	0xbea0f39b	-0.31435856
81	0x3f41bb2b	0.7567622
82	0xbe213e16	-0.1574634
83	0x3f299e2b	0.6625697
84	0xbe795c71	-0.2435167
85	0xbfb9b6e2	-1.4508936
86	0xbf846ec1	-1.03463
87	0x3f896b2e	1.0735834
88	0x3f48cce9	0.7843767
89	0x3fc6b967	1.552533
90	0x3e7d2849	0.24722399
91	0xbf8fc110	-1.1230793
92	0x3e03f8b0	0.12887836
93	0xbe889dd0	-0.266829
94	0x3e499f7a	0.19689742
95	0xbfdbe1e3	-1.717831
96	0xbf0689d9	-0.5255409
97	0xbde9eea9	-0.11422474
98	0x3f3b9be7	0.73284763
99	0x3f37f641	0.7186013
100	0x3fa4bb78	1.2869711
101	0xbf704a43	-0.93863314
102	0xbe9f8466	-0.311557
103	0xbfda106d	-1.7036263
104	0xbecc3666	-0.39885253
105	0x3f11b017	0.56909317
106	0xbf4ab3c8	-0.79180574
107	0x3efbe854	0.4920069
108	0xbcad8bdb	-0.021184852
109	0xbe8f620c	-0.2800449
110	0x3f71ab18	0.94401693
111	0xbf8e71e7	-1.112851
112	0x3f636095	0.8881925
113	0x3c13db54	0.00902446
114	0xbefbf733	-0.49212036
115	0xbd93a2c9	-0.07208783
116	0x3f11313d	0.56715757
117	0x3f8e0b71	1.1097242
118	0x3ecf8c52	0.40536743
119	0xbf4a4ee1	-0.7902661
120	0xbddd413b	-0.10803457
121	0xbfac7622	-1.3473551
122	0x3edb3ed2	0.42821366
123	0x3efb05ba	0.49027807
124	0xbeb8cd48	-0.36094117
125	0x3fbc4064	1.470715
126	0xbf55b29a	-0.8347565
127	0x3d10af09	0.035323177
128	0xbdc18ad4	-0.094503075
129	0x3fb8f0f5	1.4448534
130	0xbef8f019	-0.4862068
131	0xbeb82990	-0.3596921
132	0xbf800fd0	-1.0004826
133	0x3f87e123	1.0615581
134	0x3e48e8d3	0.19620065
135	0xbef4e480	-0.47830582
136	0x3ee6c1fd	0.45069876
137	0xbf641783	-0.89098376
138	0xbfa2898f	-1.269823
139	0x3fde2986	1.7356422
140	0x40123b85	2.2848828
141	0xbf344e45	-0.7043193
142	0x3eee6437	0.46560833
143	0xbf4bfd12	-0.7968303
144	0x3e8f62fc	0.28005207
145	0xbf477dd0	-0.7792635
146	0xbfa43cff	-1.2831115
147	0x3e6963d9	0.22791995
148	0xbfa5fa91	-1.2967092
149	0xbe10ed44	-0.1415301
150	0x3f6a15ad	0.91439325
151	0x3efb77a3	0.49114713
152	0xbfc32947	-1.5246972
153	0x3f2154ec	0.63020205
154	0x3fa76411	1.3077413
155	0x3ff2e94b	1.8977445
156	0xbfb9ff66	-1.4531066
157	0x3ef6fed1	0.48241284
158	0xbfd7a491	-1.6847097
159	0x3f4d2bec	0.80145144
160	0xbfd2fb22	-1.648289
161	0xbfc94899	-1.572528
162	0x3f50911a	0.8147141
163	0xbe960e82	-0.29307944
164	0x3fb7c59a	1.4357178
165	0xbe231703	-0.15926747
166	0x3e84d7b3	0.25945815
167	0x3e7620ba	0.24035922
168	0xbe57308f	-0.21014617
169	0xbf54553f	-0.82942575
170	0x3db1d8d2	0.08683933
171	0x3f9c2c6f	1.220106
172	0x3eaccbf9	0.3374937
173	0x3db20a2c	0.086933464
174	0xbfa6589f	-1.2995795
175	0xbfe0ceec	-1.7563148
176	0xbdd08a30	-0.10182607
177	0x3ee88033	0.45410308
178	0xbf7bdd94	-0.98384976
179	0x3f4d0ca2	0.800974
180	0xbf802cd2	-1.0013678
181	0xbe8f2bed	-0.279632
182	0xbf4dbab1	-0.80362993
183	0xbf71ea91	-0.94498545
184	0xbed16dad	-0.40903988
185	0x3e954998	0.2915771
186	0xbf3d7ca6	-0.74018323
187	0x3fc7802f	1.5585994
188	0x3d9ca245	0.07648138
189	0xbfb54e07	-1.4164437
190	0xbeed84e0	-0.46390438
191	0xbf1d4929	-0.6143976
192	0x3e01516e	0.12628719
193	0x3ffdd749	1.9831325
194	0x3ef84b04	0.48494732
195	0xbef83fc9	-0.48486164
196	0xbf4a2f60	-0.7897854
197	0x3f83509e	1.0258977
198	0xbf0a9e61	-0.5414792
199	0xbfcad82b	-1.5847219
200	0x3f98cb2e	1.1937006
201	0xbdb88119	-0.090089984
202	0xbe1ffb0c	-0.1562311
203	0xbe1e9e63	-0.15490107
204	0xbe9244e8	-0.28568196
205	0x3f740c6a	0.9533144
206	0xbc5dbd29	-0.013533869
207	0x3e502015	0.20324738
208	0x3e323d2f	0.17406152
209	0xbf1ca7f4	-0.61193776
210	0x3fb31985	1.3992163
211	0x3e2a7fb8	0.16650283
212	0x3e887485	0.26651397
213	0x3f5e163e	0.8675269
214	0xbfb6eb43	-1.4290546
215	0xbf0d5df8	-0.5522151
216	0x3ea5aaea	0.3235696
217	0x3e4ac167	0.1980034
218	0xbf447d35	-0.7675355
219	0xbee9482f	-0.45562884
220	0x3fed74b5	1.8551241
221	0xbfd8a4e1	-1.6925317
222	0x3d08d411	0.033405367
223	0xbfa1e5f4	-1.2648301
224	0xbe078814	-0.13235503
225	0x3e970a28	0.29499936
226	0x3e71b725	0.2360502
227	0x3f529176	0.82253206
228	0x3cbf4920	0.023350298
229	0xbf0979f3	-0.53701705
230	0x3f270e14	0.65255857
231	0xbd9c44c2	-0.07630302
232	0x3e5680e4	0.20947605
233	0x3f005381	0.50127417
234	0x3dc3ff20	0.095701456
235	0xbf9b84f7	-1.2149953
236	0x3ea23d01	0.31687167
237	0xbf0cdd7a	-0.55025446
238	0xbf64fee0	-0.8945141
239	0xbf88d588	-1.0690165
240	0x3f32dad8	0.6986518
241	0x3f31e6cf	0.6949281
242	0x3f42e0d0	0.76124287
243	0xbf16083d	-0.5860632
244	0xbf0010ae	-0.5002545
245	0x3e2302c8	0.1591903
246	0x3fe5fd0d	1.796785
247	0x3f27164c	0.652684
248	0x3f7eae54	0.99484754
249	0x3f8d3a04	1.103333
250	0x3f8e2c05	1.1107184
251	0x3fee38fc	1.861114
252	0x3f3632d6	0.7117132
253	0xbf80169f	-1.0006903
254	0x3c7e5395	0.015522857
255	0x3ddfef86	0.10934357

b_conv1 f4 [16]
0	0x3dcccccd	0.1
1	0x3dcccccd	0.1
2	0x3dcccccd	0.1
3	0x3dcccccd	0.1
4	0x3dcccccd	0.1
5	0x3dcccccd	0.1
6	0x3dcccccd	0.1
7	0x3dcccccd	0.1
8	0x3dcccccd	0.1
9	0x3dcccccd	0.1
10	0x3dcccccd	0.1
11	0x3dcccccd	0.1
12	0x3dcccccd	0.1
13	0x3dcccccd	0.1
14	0x3dcccccd	0.1
15	0x3dcccccd	0.1

b_fc f4 [256]
0	0x3dcc348e	0.099709615
1	0x3dcccccd	0.1
2	0x3dc9ca4c	0.09853038
3	0x3dcbcf62	0.099516645
4	0x3dd005c0	0.10157347
5	0x3dca4f56	0.098784134
6	0x3dcd9c6f	0.10039603
7	0x3dc9b20e	0.09848414
8	0x3dca86d8	0.09889001
9	0x3dcce2db	0.10004207
10	0x3dcc4242	0.09973575
11	0x3dcb416a	0.09924586
12	0x3dcdb4b8	0.10044235
13	0x3dcd5f63	0.10027959
14	0x3dcd2c17	0.10018175
15	0x3dca5296	0.09879033
16	0x3dcb4a77	0.099263124
17	0x3dccb3b3	0.099952124
18	0x3dccfe9f	0.100095026
19	0x3dcb4c5c	0.09926674
20	0x3dcae669	0.099072285
21	0x3dcdbb55	0.100454964
22	0x3dcd2c26	0.10018186
23	0x3dcaf646	0.09910254
24	0x3dcbd227	0.09952193
25	0x3dca0018	0.09863299
26	0x3dcc7fc9	0.099853106
27	0x3dcc8d9f	0.099879496
28	0x3dccb93d	0.09996269
29	0x3dcf599e	0.10124515
30	0x3dca23b9	0.09870095
31	0x3dcb2c9a	0.099206164
32	0x3dcbaf41	0.099455364
33	0x3dcb2206	0.09918599
34	0x3dcf6e57	0.101284675
35	0x3dccf01b	0.10006734
36	0x3dce666e	0.10078131
37	0x3dc821a4	0.097720414
38	0x3dccff6b	0.100096546
39	0x3dce46e2	0.100721136
40	0x3dcdf094	0.10055652
41	0x3dcccccd	0.1
42	0x3dcbe85c	0.099564284
43	0x3dcf435c	0.1012027
44	0x3dd26685	0.1027346
45	0x3dccccfb	0.100000344
46	0x3dcc4272	0.09973611
47	0x3dccc7b9	0.099990316
48	0x3dcb01ff	0.0991249
49	0x3dcabac7	0.09898906
50	0x3dcb7be6	0.09935741
51	0x3dcd1a4b	0.100147806
52	0x3dcc1016	0.09964006
53	0x3dccb345	0.099951304
54	0x3dcb32db	0.09921809
55	0x3dca77ce	0.09886132
56	0x3dcc9ee1	0.09991241
57	0x3dccfc5c	0.10009071
58	0x3dcccccd	0.1
59	0x3dc945f7	0.09827798
60	0x3dcbaafd	0.09944723
61	0x3dcac214	0.09900299
62	0x3dcbe37f	0.09955501
63	0x3dce5033	0.100738905
64	0x3dcccccd	0.1
65	0x3dca02dd	0.098638274
66	0x3dc835d8	0.09775895
67	0x3dcc1dec	0.09966645
68	0x3dcdf606	0.10056691
69	0x3dccb008	0.09994513
70	0x3dcc79d1	0.09984172
71	0x3dcd0eda	0.10012598
72	0x3dcfa9d8	0.10139817
73	0x3dccf6b1	0.1000799
74	0x3dcc3851	0.09971679
75	0x3dca679f	0.098830454
76	0x3dcc2bd1	0.09969295
77	0x3dccf237	0.10007136
78	0x3dcf93d9	0.101356216
79	0x3dcb23dd	0.0991895
80	0x3dcb4bc3	0.0992656
81	0x3dce4bc2	0.100730434
82	0x3dcccc91	0.099999554
83	0x3dcbf3c5	0.09958605
84	0x3dcdaf80	0.100432396
85	0x3dcb947c	0.099404305
86	0x3dca6ba8	0.09883815
87	0x3dca3347	0.098730616
88	0x3dcd3e52	0.10021652
89	0x3dcd41e2	0.10022332
90	0x3dcccccd	0.1
91	0x3dc9296f	0.09822356
92	0x3dcc6049	0.099793024
93	0x3dccdd5a	0.10003157
94	0x3dcccd7a	0.10000129
95	0x3dca5540	0.098795414
96	0x3dcd2bf4	0.10018149
97	0x3dcdb28c	0.10043821
98	0x3dce1fb2	0.10064639
99	0x3dcb83e7	0.09937268
100	0x3dcb3394	0.09921947
101	0x3dcde124	0.10052708
102	0x3dcb9875	0.09941188
103	0x3dccc909	0.09999282
104	0x3dcc9cd3	0.09990849
105	0x3dcd9a6a	0.10039218
106	0x3dcbb0ce	0.09945832
107	0x3dcc24b9	0.09967942
108	0x3dcce961	0.10005451
109	0x3dcde04e	0.10052548
110	0x3dc9ea51	0.098591454
111	0x3dcccccd	0.1
112	0x3dcd6dfd	0.10030744
113	0x3dca1ed5	0.09869162
114	0x3dcb16cd	0.09916458
115	0x3dcccccd	0.1
116	0x3dcdb0be	0.100434765
117	0x3dcb7246	0.09933905
118	0x3dcca058	0.09991521
119	0x3dcc864c	0.099865526
120	0x3dcc1f5f	0.09966921
121	0x3dcc982c	0.09989962
122	0x3dccf4a0	0.10007596
123	0x3dcdf565	0.10056571
124	0x3dcef2ee	0.10104929
125	0x3dce2a9c	0.10066721
126	0x3dce00fe	0.10058783
127	0x3dca22cd	0.09869919
128	0x3dcc998f	0.099902265
129	0x3dcc7ce0	0.099847555
130	0x3dce048a	0.100594595
131	0x3dc99a69	0.098439045
132	0x3dcc1c5f	0.09966349
133	0x3dccf9a3	0.10008552
134	0x3dce83f2	0.1008376
135	0x3dcb2438	0.099190176
136	0x3dcc2f54	0.099699646
137	0x3dcdf2f3	0.100561045
138	0x3dca75cc	0.09885749
139	0x3dc9ecaa	0.09859593
140	0x3dcd1ac1	0.100148685
141	0x3dcbfbbc	0.09960124
142	0x3dcd0f05	0.100126304
143	0x3dc912b7	0.09818023
144	0x3dccbca6	0.09996919
145	0x3dcda21b	0.10040685
146	0x3dcc58cf	0.099778764
147	0x3dcee03f	0.10101365
148	0x3dcb9b95	0.09941784
149	0x3dcccb7d	0.0999975
150	0x3dcc37fc	0.09971616
151	0x3dc9728e	0.09836303
152	0x3dca7778	0.09886068
153	0x3dcb05ad	0.09913192
154	0x3dcc387f	0.09971713
155	0x3dcb42c9	0.09924848
156	0x3dccfce9	0.10009176
157	0x3dcc4703	0.09974482
158	0x3dca3dcd	0.09875069
159	0x3dcd8858	0.10035771
160	0x3dccf973	0.10008516
161	0x3dcb6369	0.0993107
162	0x3dcd45a7	0.10023051
163	0x3dcc9419	0.09989185
164	0x3dcc4504	0.09974101
165	0x3dcd4945	0.10023741
166	0x3dcc8b16	0.09987466
167	0x3dcfc248	0.10144478
168	0x3dcd83e5	0.100349225
169	0x3dcdc03b	0.10046431
170	0x3dca3adc	0.09874508
171	0x3dcbc8cb	0.099504076
172	0x3dca38e0	0.09874129
173	0x3dcc07b2	0.09962405
174	0x3dc9e448	0.09857994
175	0x3dcbf750	0.099592805
176	0x3dccc4a0	0.09998441
177	0x3dcccccd	0.1
178	0x3dcc08dd	0.09962628
179	0x3dcbcb40	0.09950876
180	0x3dccc744	0.099989444
181	0x3dcb7e26	0.0993617
182	0x3dcbd23b	0.09952208
183	0x3dccf248	0.10007149
184	0x3dcfee11	0.101528294
185	0x3dccebee	0.100059375
186	0x3dc8bd71	0.09801758
187	0x3dca11ff	0.09866714
188	0x3dcc01a6	0.09961252
189	0x3dcc7312	0.099828854
190	0x3dccd3a6	0.10001306
191	0x3dcbd2e1	0.09952331
192	0x3dcb4385	0.09924988
193	0x3dd237ee	0.10264574
194	0x3dca9735	0.09892122
195	0x3dca47dd	0.09876988
196	0x3dc9f397	0.09860914
197	0x3dcb7963	0.09935262
198	0x3dcd9041	0.1003728
199	0x3dcbfa76	0.09959881
200	0x3dce4f5f	0.100737326
201	0x3dcbe77e	0.09956263
202	0x3dce8323	0.10083606
203	0x3dca13e4	0.09867075
204	0x3dcc5eab	0.09978994
205	0x3dd2672f	0.10273587
206	0x3dcccccd	0.1
207	0x3dccf583	0.10007765
208	0x3dcdcf11	0.100492604
209	0x3dd187e7	0.102309994
210	0x3dcd5115	0.10025231
211	0x3dcbf8ed	0.09959588
212	0x3dcca75c	0.09992859
213	0x3dd117ea	0.10209639
214	0x3dca6b43	0.0988374
215	0x3dcccccd	0.1
216	0x3dcde006	0.10052495
217	0x3dca1029	0.098663636
218	0x3dcab64c	0.098980516
219	0x3dcd4f57	0.100248985
220	0x3dc902eb	0.0981501
221	0x3dcccccd	0.1
222	0x3dca9711	0.09892095
223	0x3dcacbb9	0.09902138
224	0x3dc5fbb0	0.09667146
225	0x3dcc43df	0.09973883
226	0x3dcee10c	0.10101518
227	0x3dcb7a62	0.09935452
228	0x3dcccccd	0.1
229	0x3dccfd8f	0.100093
230	0x3dcd2415	0.10016648
231	0x3dcceacd	0.10005722
232	0x3dcccccd	0.1
233	0x3dcb9f68	0.09942514
234	0x3dcd7eb0	0.10033929
235	0x3dcba490	0.09943497
236	0x3dd0161f	0.10160469
237	0x3dcd06f2	0.1001109
238	0x3dca5996	0.098803684
239	0x3dcccccd	0.1
240	0x3dccaa74	0.09993449
241	0x3dcaaa17	0.09895723
242	0x3dce4fc1	0.100738056
243	0x3dcbede5	0.09957484
244	0x3dcc739d	0.09982989
245	0x3dcb7dd3	0.099361084
246	0x3dd1d0ba	0.102448896
247	0x3dcbb7ca	0.09947164
248	0x3dcc934f	0.099890344
249	0x3dcc9735	0.09989778
250	0x3dcc2704	0.09968379
251	0x3dccb9bb	0.09996363
252	0x3dcd0fa1	0.100127466
253	0x3dccdfe2	0.1000364
254	0x3dd236d8	0.10264367
255	0x3dd0174c	0.101606935

b_out f4 [5]
0	0x3dc85b6a	0.09783061
1	0x3dcd0903	0.100114845
2	0x3dcca784	0.099928886
3	0x3dccc24c	0.09997997
4	0x3dcbdb49	0.09953935

W_conv2 f4 [3, 3, 16, 32]
0	0xbf367d70	-0.7128515
1	0x3f9836cf	1.1891726
2	0x3eab2422	0.33426005
3	0x3d9c7b22	0.07640673
4	0x3ebb53e8	0.36587453
5	0x3fef441a	1.8692658
6	0x3dc431cf	0.09579813
7	0xbfc8da95	-1.5691706
8	0x3fa665e2	1.2999842
9	0x3f11d628	0.569674
10	0xbf2e8d7f	-0.68184656
11	0x3e033a6e	0.12815258
12	0x3f2fbf47	0.6865124
13	0xbe6fdfea	-0.2342526
14	0xbe8e2656	-0.27763623
15	0x3f47c60b	0.78036565
16	0xbeedaaa7	-0.4641926
17	0xbec2e584	-0.38065732
18	0x3ede9cb6	0.43478936
19	0x3f08a8b1	0.533824
20	0xbf078da9	-0.5295053
21	0xbdab736f	-0.083716266
22	0xbe6fdc41	-0.23423864
23	0x3d5a10b4	0.053238586
24	0xbf5186c4	-0.8184626
25	0x3f12bf8b	0.5732352
26	0x3e2c5ec7	0.1683303
27	0x3fb7cdf2	1.4359725
28	0xbfb11384	-1.3834081
29	0xbdc0b4a8	-0.094094574
30	0xbf1ae096	-0.6049894
31	0x3e0544ac	0.13014477
32	0xbfeb6148	-1.8389063
33	0x3e5cf603	0.21578221
34	0x3eda3cc1	0.42624477
35	0xbeadd063	-0.3394805
36	0x3f88e686	1.069535
37	0x3f25810b	0.6465003
38	0x3e90fd91	0.28318456
39	0x3ea12a86	0.31477755
40	0xbf24e793	-0.64415854
41	0xbe99efe5	-0.30065838
42	0x3fe0f832	1.7575743
43	0x3f152238	0.5825534
44	0xbf0a37d7	-0.53991455
45	0xbf9184d4	-1.1368661
46	0xbf63958d	-0.8890007
47	0xc0046e18	-2.0692196
48	0x3ed62ebc	0.4183253
49	0x3e95d8d5	0.29266992
50	0x3ea9bb67	0.3315079
51	0xbfcb7738	-1.5895758
52	0x3f1b40be	0.60645664
53	0x3f5af06b	0.855231
54	0xbe09dce4	-0.1346317
55	0xbfb93afb	-1.4471124
56	0x3f28935a	0.6584984
57	0xbfd6dd15	-1.6786219
58	0xbfb88738	-1.4416265
59	0x3f2bf1b6	0.67165697
60	0x3f85503e	1.0415113
61	0x3e19d0a2	0.15020993
62	0xbf34d9b4	-0.7064469
63	0x3f9d3606	1.2282112
64	0x3e752c51	0.23942687
65	0xbfe8f80a	-1.8200696
66	0xbf92375e	-1.1423147
67	0xbfac7971	-1.3474561
68	0x4000cc50	2.0124702
69	0x3f1963ba	0.59917796
70	0x3ed9546a	0.42447215
71	0x3f1b1499	0.60578305
72	0x3ed97967	0.42475435
73	0xbf5c8ee4	-0.86155534
74	0xbe50040f	-0.20314048
75	0x3f08af82	0.53392804
76	0x3e8e210f	0.27759597
77	0xbf83bae9	-1.0291415
78	0xbf3e3655	-0.74301654
79	0xbf8668ea	-1.0500767
80	0xbf3a4607	-0.72763103
81	0xbe9a71d6	-0.30164975
82	0x3f1abec6	0.6044735
83	0xbe779829	-0.24179138
84	0xbe99fff9	-0.30078104
85	0xbe79e08b	-0.24402063
86	0x3f07139d	0.527643
87	0xbec64779	-0.38726404
88	0x3f10066a	0.5625979
89	0x3e77c2a3	0.24195342
90	0x3f00eb21	0.5035878
91	0xbe34659a	-0.17616883
92	0x3fe240be	1.7676008
93	0xbfea3745	-1.8298117
94	0x3c2a25df	0.010385006
95	0xbfed370f	-1.8532428
96	0xbecd8ebf	-0.4014797
97	0x3f3ff3c1	0.74981314
98	0x3efc6172	0.49293095
99	0xbff0d16e	-1.8813913
100	0xbe2b2b85	-0.1671582
101	0x3f871b44	1.0555196
102	0x3e391243	0.18073373
103	0x3f9755f2	1.1823103
104	0x3f1c037d	0.6094282
105	0x3f1761dd	0.591337
106	0x3eb0d2ea	0.34535915
107	0x3eb665be	0.35624498
108	0x3ea7e67e	0.3279304
109	0xbeb9833e	-0.36232942
110	0x3ebe95fa	0.37223798
111	0xbf76cac0	-0.9640312
112	0x3d74176e	0.059592657
113	0xbe09ea69	-0.13468327
114	0xbf2c8b75	-0.67400295
115	0xbf7f69f6	-0.9977106
116	0xbf8b48fc	-1.0881648
117	0xbf866104	-1.0498357
118	0xbee9040e	-0.45510906
119	0xbd035b1a	-0.032069303
120	0x3fc6b691	1.5524465
121	0x3e5e32b6	0.21699032
122	0x3f87abe6	1.0599334
123	0xbfa9ad12	-1.3255942
124	0xbef86d17	-0.4852073
125	0xbeab66d3	-0.33476886
126	0xbf48e765	-0.7847808
127	0x3f6cc970	0.9249487
128	0xbf8ad056	-1.0844829
129	0x3edb6052	0.42846924
130	0xbfaf40a0	-1.3691597
131	0x3f1b0fbe	0.60570896
132	0xbe936445	-0.28787437
133	0xbdc2ac7d	-0.09505556
134	0xbfb2f251	-1.3980199
135	0x3fbc7dde	1.4725912
136	0x3f99f753	1.2028602
137	0xbea29a69	-0.3175843
138	0xbfad6dab	-1.3549093
139	0x3e432970	0.19058776
140	0xbe8df69a	-0.27727205
141	0x3dcb60b8	0.09930557
142	0xbf18eb79	-0.597343
143	0x3f0bcc1d	0.5460833
144	0x3e1b899a	0.1518921
145	0xbdefa424	-0.11701229
146	0xbd5ac432	-0.053409763
147	0x3e46198e	0.19345686
148	0x3f9819c1	1.188286
149	0x3f3015a1	0.68783003
150	0xbf03d65f	-0.5149898
151	0xbf9d3109	-1.2280589
152	0xbe8065ab	-0.25077567
153	0xbfaaf254	-1.3355203
154	0x3f6ddd0d	0.9291542
155	0xbf7189fd	-0.9435118
156	0x3f482cb4	0.7819321
157	0x3d7cfb7a	0.061763264
158	0xbfae02bb	-1.3594583
159	0x3f98b276	1.1929462
160	0x3f33a1da	0.7016884
161	0xbf2ca41d	-0.67437917
162	0x3f273f7c	0.65331244
163	0x40050a9f	2.0787733
164	0xbf8c1293	-1.0943168
165	0xbf8323ca	-1.0245297
166	0x3de4d8e0	0.11174178
167	0x3f560fc4	0.83617806
168	0x3efa058e	0.48832363
169	0xbf41d96b	-0.7572238
170	0xbe062b44	-0.13102442
171	0xbe7a9ea1	-0.24474575
172	0xbfd035d7	-1.6266431
173	0xbf62cfd8	-0.88598394
174	0xbf7fc798	-0.9991393
175	0x3d13fa1d	0.0361272
176	0xbee8cf64	-0.45470726
177	0xbfbc5418	-1.4713163
178	0xbefb8a80	-0.49129105
179	0xbe837e5d	-0.25682345
180	0xbfc26e4c	-1.518991
181	0xbf73cff8	-0.9523921
182	0x3d5ea70d	0.05435853
183	0xbf5bb7c5	-0.85827285
184	0xbfa8a077	-1.317397
185	0xbff8f4b2	-1.9449675
186	0x3f0eb957	0.55751556
187	0x3edba294	0.42897475
188	0x3fba46dd	1.4552876
189	0xbec09351	-0.37612393
190	0x3f7e69af	0.9938001
191	0x3f497250	0.7869005
192	0x3f72999e	0.9476565
193	0x3f754c13	0.95819205
194	0xbfab9e50	-1.3407688
195	0xbdba622b	-0.09100755
196	0xbfb330ee	-1.3999307
197	0x3ec3c5b6	0.3823678
198	0xbed9d07c	-0.42541873
199	0x3da21fe0	0.07916236
200	0xbe8687fb	-0.2627562
201	0x3f6c76a5	0.9236854
202	0x3f867ef0	1.0507488
203	0x3f1ba9a7	0.60805744
204	0xbf3a1a97	-0.7269682
205	0xbeb36910	-0.35041094
206	0x3eff759b	0.49894413
207	0xbff91aba	-1.9461281
208	0xbf323e66	-0.6962646
209	0x3f7c9dbd	0.9867819
210	0x3f8cc6f6	1.0998218
211	0x3f000989	0.5001455
212	0x3fbcb897	1.4743832
213	0xbee70660	-0.4512205
214	0x3ed68d2d	0.41904584
215	0xbfb6ffc3	-1.4296802
216	0x3e4e3c36	0.20140156
217	0x3f93b186	1.1538551
218	0xbf7cf56d	-0.9881199
219	0x3ffcd626	1.9752853
220	0x3f3bd68b	0.7337424
221	0xbc76b105	-0.015056853
222	0x3fbcf718	1.4762907
223	0x3dfe9d2b	0.12432321
224	0xbf9db70c	-1.2321486
225	0x3fd6cd7f	1.6781462
226	0x3cb8c4a0	0.022554696
227	0x3f0543f8	0.5205684
228	0x3fd93e16	1.6972072
229	0x3d511c95	0.05105265
230	0xbc69df17	-0.01427438
231	0x3f35630a	0.70854247
232	0x3c4106d7	0.011781416
233	0xbfa071bc	-1.2534709
234	0xbf5757ac	-0.8411815
235	0x3f848a68	1.0354738
236	0xbe8e3be0	-0.27780056
237	0x3fd438d3	1.6579841
238	0xbf6d481f	-0.92688173
239	0xbfa0a54f	-1.2550448
240	0x3f575a20	0.84121895
241	0x3f725172	0.94655526
242	0xbf250c1a	-0.6447159
243	0xbef9eb66	-0.48812407
244	0x3fc02718	1.501193
245	0xbe5c5ea6	-0.2152048
246	0x3f6ca1ce	0.92434394
247	0x3f8ae6ea	1.0851719
248	0x3f04e380	0.5190964
249	0xbee04802	-0.43804938
250	0xbe6d0d39	-0.23149575
251	0x3f1db0d2	0.6159793
252	0xbe8bfd39	-0.2734163
253	0xbea4519b	-0.3209351
254	0xbe1dc53a	-0.15407267
255	0xbfea029a	-1.8282044

W_fc f4 [512, 256]
0	0xbf475544	-0.7786448
1	0xbe495789	-0.19662298
2	0x3e05059a	0.12990418
3	0xbf9cbde7	-1.2245454
4	0xbe1ff52e	-0.15620872
5	0xbfe4cce9	-1.7875034
6	0xbec0a480	-0.37625504
7	0xbe186586	-0.14882478
8	0xbf874397	-1.0567502
9	0x3edfa8f2	0.43683583
10	0xbd392ee9	-0.045210753
11	0x3e7dcf06	0.24786004
12	0xbc7e2bbb	-0.015513356
13	0x3f4d0337	0.8008303
14	0x3e8c7f0a	0.27440673
15	0x3f0b8bca	0.54510176
16	0xbdb6f95c	-0.0893428
17	0xbe2e07e1	-0.16995193
18	0x3dc1db4a	0.09465654
19	0x3ff9400a	1.9472668
20	0x3e94c725	0.29058185
21	0xbd620378	-0.05517909
22	0xbd4f4284	-0.050600544
23	0x3fe7c6ed	1.8107582
24	0x3ebecd02	0.37265784
25	0xbe57a73f	-0.21059893
26	0x3ed728d9	0.42023352
27	0xbf0333ad	-0.51250726
28	0x3f4b6f6a	0.7946688
29	0x3ff76fc5	1.9330984
30	0x3df2663e	0.118359074
31	0x3f2ab181	0.666771
32	0x3e90e53c	0.28299892
33	0xbe591be4	-0.21202046
34	0x3ea2da68	0.31807256
35	0xbf1c42e2	-0.61039555
36	0xbee19361	-0.44057754
37	0x3fbcf7ee	1.4763162
38	0xbfe44161	-1.7832452
39	0xbfa0e931	-1.2571164
40	0x3fd7aa1e	1.6848791
41	0xbfc00e4c	-1.5004363
42	0xbe73e1e8	-0.23816645
43	0xbd0ac5bd	-0.033879984
44	0xbf6e5fc3	-0.9311487
45	0x3e320e7a	0.17388335
46	0x3d9af85d	0.07566903
47	0x3edd7d6c	0.43259752
48	0xbecac8b3	-0.39606246
49	0xc002392b	-2.0347393
50	0xbfd96b2b	-1.698583
51	0xbe80696d	-0.25080433
52	0xbf48e917	-0.78480667
53	0x3fdb6d57	1.7142743
54	0xbeed4d14	-0.46347868
55	0xbed89865	-0.42303768
56	0xbf82ba36	-1.0213077
57	0xbe84afe7	-0.25915453
58	0x3f3e1eeb	0.7426593
59	0xbe5b86fc	-0.21438211
60	0x3f8ca62b	1.098821
61	0x3fe873dc	1.8160357
62	0xbd26f753	-0.04076321
63	0x3f52aecb	0.8229796
64	0xbe3e5fea	-0.18591276
65	0xbea08e24	-0.31358445
66	0x3f8631dc	1.0483966
67	0x3f136c76	0.57587373
68	0xbfd3e513	-1.6554283
69	0x3f7bbb81	0.98332983
70	0x3f8358a2	1.0261424
71	0x3e595fd8	0.21227968
72	0xbfa5993c	-1.2937388
73	0x3eb882f0	0.36037397
74	0x3fd56076	1.6670063
75	0xbdaabf20	-0.083372355
76	0xbf556abd	-0.83365995
77	0x3ed9b9fa	0.425247
78	0x3f40f1fc	0.7536924
79	0x3f8d8327	1.105565
80	0x3f54f1f1	0.83181673
81	0x3f14865f	0.58017534
82	0x3fb597f3	1.4186996
83	0x3f3f5e69	0.74753433
84	0x3cf9486c	0.030430041
85	0xbf84482b	-1.0334524
86	0xbefd37bf	-0.49456593
87	0x3f3e9e96	0.7446073
88	0xbf502732	-0.8130981
89	0xbdd1a0a1	-0.10235716
90	0xbe7104d9	-0.23537005
91	0xbf9deed3	-1.2338508
92	0x3fbe8c5d	1.4886585
93	0xbf5f24e4	-0.87165666
94	0x3e6316e2	0.22176698
95	0xbffa6062	-1.9560664
96	0x3f38cebb	0.72190446
97	0xbe9e7b55	-0.3095347
98	0xbebafd51	-0.3652139
99	0x3f72fd5e	0.9491786
100	0x3e73f70e	0.23824713
101	0x3f59f13a	0.8513371
102	0x3f968d50	1.1761875
103	0x3e2e9d9c	0.1705231
104	0x3e0e9448	0.13923752
105	0xbe7a73d0	-0.24458241
106	0x3f253b5c	0.645437
107	0xbfd4cb40	-1.6624527
108	0xbf54acbf	-0.8307609
109	0xbe2320f9	-0.15930547
110	0x3f9e7bcb	1.2381529
111	0x3f48cc30	0.78436565
112	0xbf54c676	-0.8311533
113	0x3f2670b8	0.65015745
114	0x3f62b514	0.88557553
115	0x3da39dad	0.07989059
116	0x3f975e32	1.1825621
117	0xbd980ab4	-0.074239165
118	0xbfc83e73	-1.5644058
119	0x3fd1e9bc	1.6399455
120	0x3eae40c2	0.3403378
121	0xbf2379a3	-0.6385748
122	0xbfbb506e	-1.463392
123	0xbdc9e16c	-0.09857449
124	0xbeab8942	-0.33503157
125	0xbf090039	-0.53515965
126	0x3e6257c6	0.22103795
127	0xbf5ef9f2	-0.87100136
128	0x3f2f381b	0.68444985
129	0x3ee4edd4	0.44712698
130	0x3f957352	1.1675818
131	0xbe3590a2	-0.17730954
132	0x3f4788c8	0.77943087
133	0xbd58f2ec	-0.052966043
134	0x3f326877	0.6969065
135	0x3fe0bc2a	1.7557423
136	0x3fb4749e	1.4098089
137	0x3f400a91	0.75016123
138	0xbfd7cf55	-1.6860148
139	0xbda80c1b	-0.08205434
140	0xbe8fdd69	-0.2809861
141	0x3f7d4b09	0.9894262
142	0x3f6e6cde	0.9313487
143	0xbe2d872c	-0.16946095
144	0xbe0f2f1b	-0.13982813
145	0xbe04835f	-0.12940739
146	0x3eb42bfb	0.35189804
147	0xbf1e070e	-0.61729515
148	0xbec53547	-0.3851721
149	0x3e7c1e67	0.24620973
150	0x3f4210c8	0.75806856
151	0x3ea3e7f3	0.320129
152	0x3f2a35d8	0.6648841
153	0x3fb27b44	1.3943868
154	0x3f5a3bf7	0.8524775
155	0x3f630db3	0.8869278
156	0x3fad40c1	1.3535386
157	0xbf25c2e5	-0.6475051
158	0x3dd715e9	0.10502226
159	0xbfa3c2c4	-1.2793813
160	0x3f2fa0d0	0.68604755
161	0x3f3966f3	0.72422713
162	0xbed6109a	-0.4180954
163	0x3f636fae	0.88842285
164	0x3f94181c	1.1569858
165	0x3f0d3bfa	0.5516964
166	0x3dc5147b	0.09623047
167	0xbec59465	-0.3858978
168	0xbe82c77e	-0.25542825
169	0x3f853d95	1.0409418
170	0xbf9f7826	-1.2458541
171	0xbeae1523	-0.340005
172	0x3eb45c2a	0.35226566
173	0x3fc7da91	1.5613576
174	0xbf42f04a	-0.761479
175	0xbf7e1faa	-0.99267066
176	0xbe29c14e	-0.16577646
177	0x3cf48513	0.029848611
178	0x3e81d943	0.2536107
179	0x3eae0b44	0.3399297
180	0xbd944882	-0.07240392
181	0xbf31d30c	-0.69462657
182	0xbf29f8ad	-0.66395074
183	0xbf2febb9	-0.6871906
184	0x3e0fb9ee	0.1403577
185	0xbeb2567b	-0.34831604
186	0xbea7662c	-0.32695138
187	0x3fd3c772	1.6545241
188	0x3e3d0eff	0.18462752
189	0xbeb2f7ff	-0.3495483
190	0xbf8e8230	-1.113348
191	0x3f5d89a6	0.8653816
192	0xbf34fb25	-0.70695716
193	0xbeb624a6	-0.35574836
194	0x3e674fb8	0.22589004
195	0xbf0fca1d	-0.56167775
196	0xbedce1ea	-0.4314111
197	0x3ebfe1a0	0.37476826
198	0xbf22094d	-0.6329544
199	0x3ea74386	0.32668704
200	0xbe17c997	-0.14822994
201	0xbe1e4df3	-0.15459423
202	0xbf9776d9	-1.1833144
203	0x3eb6b676	0.35686082
204	0x3faf572e	1.369848
205	0x3d43113b	0.047623854
206	0xbdf66747	-0.12031417
207	0xbe1f6739	-0.1556672
208	0xbeed3e37	-0.4633653
209	0x3f538a16	0.8263258
210	0x3f329346	0.6975597
211	0xbfb13c32	-1.3846495
212	0xbf17d262	-0.59305394
213	0xbf781c96	-0.9691862
214	0x3e497813	0.19674711
215	0x3f121747	0.5706677
216	0x3f9580e0	1.1679955
217	0x3bd37609	0.00645328
218	0xbfca3a77	-1.5799092
219	0x3f1f863b	0.62314194
220	0x3f869ae9	1.0516025
221	0x3e30855e	0.17238376
222	0x3c72027e	0.014771102
223	0xbf9d3988	-1.2283182
224	0x3fa96b25	1.3235823
225	0x3e062d59	0.13103236
226	0x3e8215a9	0.2540715
227	0xbf6c7b82	-0.9237596
228	0x3f0235e1	0.5086346
229	0xbf4c521f	-0.79812807
230	0xbf80d8b6	-1.0066135
231	0xbeeedd91	-0.46653417
232	0xbf4b01a5	-0.79299384
233	0x3fca48a6	1.580342
234	0xbf839f00	-1.0282898
235	0x3fda1023	1.7036175
236	0x3facb8ba	1.3493874
237	0x3fd0a01e	1.6298864
238	0xbe328cb9	-0.17436494
239	0x3f97e0f0	1.186552
240	0x3e6527c0	0.22378445
241	0x3f8b4824	1.088139
242	0x3e5fd0cf	0.21856998
243	0x3f503737	0.8133425
244	0xbfb017f1	-1.3757306
245	0xbf65d690	-0.8978052
246	0x3ed3e710	0.41387224
247	0xbfeb291d	-1.8371922
248	0xbdb2a61d	-0.0872309
249	0x3f1ac1f0	0.60452175
250	0x3e1a4a54	0.15067416
251	0xbf9cdd41	-1.2255021
252	0xbf94e7b5	-1.1633211
253	0xbfb0125a	-1.37556
254	0xbdd0c9bc	-0.10194728
255	0x3ff236bd	1.8922955

W_conv1 f4 [3, 3, 3, 16]
0	0xbe892ab7	-0.267904
1	0xbd924259	-0.07141561
2	0x3edbf444	0.42959797
3	0x3ec78982	0.38972098
4	0xbfaddef1	-1.3583661
5	0xbf3abba8	-0.7294259
6	0x3f075267	0.5286011
7	0x3e9f8a11	0.31160024
8	0x4005811d	2.0860054
9	0xbfdb962b	-1.7155203
10	0xbf90df87	-1.1318215
11	0xc000386d	-2.003444
12	0x3fe0de37	1.7567815
13	0x3e093110	0.13397622
14	0xbe01c2c3	-0.12671952
15	0x3d4eb34f	0.05046397
16	0xbf611852	-0.87927735
17	0x3e0e9185	0.13922699
18	0xbf100d62	-0.5627042
19	0xbf5e8f90	-0.8693781
20	0x3e82f376	0.2557637
21	0x3fe2b9f9	1.7713004
22	0x3e1cae33	0.15300827
23	0x3e5c1f8e	0.21496412
24	0x3fdc7384	1.7222753
25	0x3fbed912	1.4909995
26	0xbfed5750	-1.8542271
27	0xc00e2481	-2.220978
28	0xbf1d5644	-0.61459756
29	0x40190b9c	2.3913336
30	0xbf1fcd30	-0.62422466
31	0x3f8c352e	1.0953729
32	0x3f035e02	0.5131532
33	0x3f5221d9	0.820829
34	0x3fcb70d9	1.5893813
35	0x4001b52d	2.026683
36	0x3ee31914	0.4435507
37	0xbef12f7e	-0.47106546
38	0xbfed78e8	-1.8552523
39	0x3f76c250	0.9639025
40	0xbceaf905	-0.028683195
41	0x3feaaddf	1.8334311
42	0xbf2631dc	-0.6491983
43	0xbfd02786	-1.6262062
44	0x3f2a15e0	0.6643963
45	0x3dde7fc1	0.10864211
46	0x3f26d4ce	0.65168464
47	0x3fa61035	1.2973696
48	0x3fe86e93	1.8158745
49	0xbf03da99	-0.5150543
50	0xbf6ce581	-0.92537695
51	0xbface56f	-1.3507518
52	0x3eaf7889	0.3427165
53	0x3ec43d15	0.38327852
54	0xbe24c8a0	-0.16092157
55	0xbece97e0	-0.40350246
56	0xbecb8a0c	-0.3975376
57	0xbeb8bdda	-0.36082345
58	0x3f950a4d	1.1643769
59	0xbfe59ee9	-1.793912
60	0xbf735050	-0.9504442
61	0xbd22efc7	-0.03977945
62	0xbfa588d9	-1.2932388
63	0xbfd199b1	-1.6375028
64	0xbfcdda98	-1.6082335
65	0x3f33b28c	0.70194316
66	0x3fe68aa4	1.801106
67	0x3ed3cecb	0.41368708
68	0x3fe3cd8b	1.7797102
69	0xbf4006a5	-0.7501014
70	0xbf2d18ce	-0.67615974
71	0x3ed84372	0.42238957
72	0x3fd866f9	1.6906425
73	0x3f3e596c	0.74355197
74	0x3f583c52	0.8446704
75	0x3f86e6cc	1.0539184
76	0x3ffdeaf4	1.9837327
77	0xbf47b8b9	-0.7801624
78	0xbf4272b5	-0.7595628
79	0xbf80d223	-1.0064129
80	0x3e106fae	0.14105102
81	0xbf5fca99	-0.87418514
82	0x3f76c4cc	0.9639404
83	0xbe5df154	-0.2167409
84	0x3f5d8695	0.8653348
85	0xbf4f934c	-0.8108413
86	0x3f9c1318	1.2193327
87	0xbf440333	-0.7656738
88	0xbed0ca07	-0.40779135
89	0xbf5b9f2c	-0.8578975
90	0xbea0d4ae	-0.31412262
91	0xbf40b95f	-0.75282854
92	0x3ee0bd1b	0.43894276
93	0xbe78a777	-0.24282633
94	0xbee055c3	-0.4381543
95	0x3e8fc486	0.28079623
96	0xbfa564a3	-1.2921337
97	0xbe1ca631	-0.15297772
98	0x3f3356c6	0.7005428
99	0xbdb08c97	-0.086205654
100	0xbf24fb3c	-0.64445853
101	0xbf34ab26	-0.7057365
102	0xbe4ea808	-0.20181286
103	0xbf87355b	-1.0563158
104	0xbf7ae029	-0.9799829
105	0xbcada593	-0.021197116
106	0x3eecf7b4	0.46282732
107	0xbf7db058	-0.99097204
108	0xbfa942f0	-1.3223553
109	0x3fc56aad	1.542318
110	0xbfd31b1c	-1.6492648
111	0xbf988eab	-1.1918539
112	0xbcd84ce1	-0.026403846
113	0x3fc018eb	1.5007604
114	0x3fe9b4d0	1.8258305
115	0xbfb7329c	-1.431232
116	0x3fb1cf83	1.3891453
117	0xbdfd83ac	-0.1237863
118	0x40009d0b	2.0095851
119	0x3f18baec	0.5966022
120	0x401cc2bd	2.449386
121	0x3d85ce70	0.065335155
122	0xbf2d2e05	-0.67648345
123	0xbf8d5778	-1.1042318
124	0x3ffbf0d7	1.9682873
125	0x3db70afa	0.089376405
126	0xbda9c84d	-0.082901575
127	0xbf59efe7	-0.85131687
128	0xbfe83e32	-1.814398
129	0x3e22485a	0.15847912
130	0x3f27262f	0.6529264
131	0xbf5ca18f	-0.8618402
132	0x3dad82e8	0.08472234
133	0x3ed8b865	0.42328182
134	0xbe00ae02	-0.12566379
135	0xbf2f226c	-0.684119
136	0xbd44700f	-0.04795843
137	0x3eb106d5	0.34575525
138	0x3fb53ef6	1.4159839
139	0x3f37187b	0.7152173
140	0xbf99a663	-1.2003902
141	0xbdc1f157	-0.0946986
142	0xbf2ab345	-0.66679794
143	0xbfe0d8e1	-1.7566186
144	0x3e61ce8c	0.22051448
145	0xbeb5ce54	-0.35508978
146	0xbfccd034	-1.6001039
147	0xbf55b0db	-0.83472985
148	0x3fa4cf66	1.2875793
149	0x3f331685	0.6995624
150	0xbd81c4a1	-0.06336332
151	0x3f79c168	0.9756074
152	0x3e8843ec	0.2661432
153	0x3f39ecb8	0.7262683
154	0x3f1b3a2d	0.60635644
155	0xc000bc47	-2.0114915
156	0xbeaa3eaa	-0.33250934
157	0x3f6359f6	0.88809144
158	0x3f9867d6	1.1906688
159	0xbf37730e	-0.71659935
160	0xbf1bf43a	-0.60919535
161	0x3ebf1f78	0.37328696
162	0x3e96ca7f	0.29451367
163	0x3f92bf4f	1.1464633
164	0x3f083a37	0.5321383
165	0xbf360cd0	-0.711133
166	0x3cbb989f	0.022899924
167	0xbf9293c6	-1.1451347
168	0xbf4e2ead	-0.8053997
169	0x3f8250bf	1.0180892
170	0x3f8566d7	1.0422009
171	0x3f2f0da8	0.6838021
172	0x3f46cc01	0.77655035
173	0xbf00a54f	-0.5025224
174	0xbdc8fa97	-0.09813421
175	0xbe29f5ab	-0.16597621
176	0xbf3f7e5c	-0.74802184
177	0x3f3953cb	0.7239348
178	0xbe963caa	-0.29343158
179	0xbe907bfb	-0.2821959
180	0x3ba9974d	0.005175507
181	0xbf66e19a	-0.9018799
182	0x3ec4327d	0.3831977
183	0x3f9a86a9	1.2072345
184	0xbe40d16e	-0.18829891
185	0x3f70c30d	0.94047624
186	0x3f8cb029	1.099126
187	0xbf07c839	-0.5303989
188	0x3f5a9f36	0.85399187
189	0xbea1ae0b	-0.31578097
190	0x3d04110d	0.032242823
191	0x3f2611b7	0.6487078
192	0x4002eb33	2.0456054
193	0xbfc4ab34	-1.5364747
194	0x3e922f5f	0.28551766
195	0x3ed3eb98	0.4139068
196	0xbda97840	-0.08274889
197	0xbe6289f7	-0.22122942
198	0xbfb2d3bd	-1.3970867
199	0xbf264c30	-0.6496
200	0xbf1bf7cf	-0.60925
201	0xbe3fcee3	-0.18731265
202	0x3fb54d85	1.4164282
203	0x3de6b87d	0.11265657
204	0xbdb6f076	-0.08932583
205	0xbef82b52	-0.4847055
206	0x3e2b4734	0.1672638
207	0x3ef7b524	0.48380387
208	0x3fc6b67f	1.5524443
209	0x3f8b5532	1.0885375
210	0xbfaee171	-1.3662549
211	0x3f2ecfc3	0.6828577
212	0xbeb402c2	-0.35158354
213	0x3fbb9f78	1.4658041
214	0x3ee79b38	0.4523561
215	0x3fae75ed	1.3629738
216	0xbedbde24	-0.42942917
217	0x3f9bb8bd	1.2165753
218	0x3f074482	0.5283891
219	0x3f842734	1.0324464
220	0x3edfd5c9	0.43717793
221	0xbefd36ce	-0.49455875
222	0xbfc9a55a	-1.5753586
223	0xbf898bab	-1.0745748
224	0xbf6576d7	-0.8963446
225	0xbf59d1ca	-0.8508574
226	0x3f868494	1.050921
227	0x3eb0b544	0.34513295
228	0xbf9112f3	-1.1333908
229	0x3e4adb27	0.19810162
230	0xbe21e3ac	-0.15809506
231	0x3f063f2e	0.52440155
232	0x3fb53edf	1.4159812
233	0xbf6c6905	-0.9234775
234	0xbeaec90f	-0.3413777
235	0xbefed7aa	-0.49773914
236	0x3f969ce7	1.1766633
237	0xbfc48438	-1.535285
238	0x3fec6b70	1.8470287
239	0x3db51ab7	0.08842986
240	0x3fabcb30	1.3421383
241	0xbf3223b1	-0.6958571
242	0xbee124a0	-0.43973255
243	0xbf5216de	-0.8206614
244	0xbe4e3dfe	-0.20140836
245	0xbf9c88ac	-1.2229209
246	0x3f194d7f	0.59883875
247	0xbd6be75c	-0.05759369
248	0xbf4d6b7f	-0.8024215
249	0x3e8a0617	0.2695777
250	0xbf08cc34	-0.5343659
251	0x3f1c9add	0.611738
252	0xbfd98780	-1.6994476
253	0x3ecd20e3	0.40064153
254	0x3f0d2c89	0.5514608
255	0x3dc327ea	0.095290974

b_conv2 f4 [32]
0	0x3dcccccd	0.1
1	0x3dcccccd	0.1
2	0x3dcccccd	0.1
3	0x3dcccccd	0.1
4	0x3dcccccd	0.1
5	0x3dcccccd	0.1
6	0x3dcccccd	0.1
7	0x3dcccccd	0.1
8	0x3dcccccd	0.1
9	0x3dcccccd	0.1
10	0x3dcccccd	0.1
11	0x3dcccccd	0.1
12	0x3dcccccd	0.1
13	0x3dcccccd	0.1
14	0x3dcccccd	0.1
15	0x3dcccccd	0.1
16	0x3dcccccd	0.1
17	0x3dcccccd	0.1
18	0x3dcccccd	0.1
19	0x3dcccccd	0.1
20	0x3dcccccd	0.1
21	0x3dcccccd	0.1
22	0x3dcccccd	0.1
23	0x3dcccccd	0.1
24	0x3dcccccd	0.1
25	0x3dcccccd	0.1
26	0x3dcccccd	0.1
27	0x3dcccccd	0.1
28	0x3dcccccd	0.1
29	0x3dcccccd	0.1
30	0x3dcccccd	0.1
31	0x3dcccccd	0.1
