Models/Tensorflow/model_local9_zombie.npz (npz, 552614 bytes, 8 tensors)

W_conv1 f4 [3, 3, 3, 16]
000000 05 7f 33 be ba 54 82 be 5c 56 09 3f 95 69 09 3f
       -0.17528923 -0.25455266 0.536474 0.5367673
000010 82 31 a2 bf ff 65 0f bf df 56 f4 3e dd 52 b0 3e
       -1.2671359 -0.5601501 0.47722527 0.3443822
000020 f2 79 11 40 19 75 02 c0 6b 81 97 bf 12 69 ec bf
       2.273068 -2.038397 -1.183637 -1.8469565
000030 a6 05 e7 3f d7 6c 50 3e 26 aa 2a be d1 6e 91 3e
       1.8048599 0.20354019 -0.16666469 0.2840486
000040 1b c2 5c bf c2 5c 09 3e fe 61 0f bf 97 51 74 bf
       -0.8623368 0.1341429 -0.560089 -0.95436996
000050 2c 97 e9 3d b9 d9 e7 3f 6b fd 4b 3e fc b0 b6 3e
       0.11405787 1.8113319 0.1992089 0.35681903
000060 4d e1 d4 3f 7d 35 c0 3f 3c 3e eb bf 47 f5 06 c0
       1.6631256 1.5016323 -1.8378367 -2.1087205
000070 2b 92 1c bf 78 ad 1e 40 d4 c7 06 bf ca ef 95 3f
       -0.61160535 2.4793377 -0.52648664 1.1713803
000080 8e a1 24 3f 06 00 49 3f 0d 7e cb 3f e3 5d fc 3f
       0.6430901 0.7851566 1.5897843 1.9716152
000090 e3 d1 dd 3e de e6 e5 be 74 8f 01 c0 53 6c 88 3f
       0.43324193 -0.449027 -2.0243807 1.0658058
0000a0 a2 5f c2 bd a9 04 f2 3f 5e 1c ee be 48 2d 02 c0
       -0.09490897 1.8907672 -0.46506017 -2.0340137
0000b0 03 a6 2a 3f 92 c3 a5 3d 64 ff 40 3f 85 ac c2 3f
       0.66659564 0.08093943 0.75389695 1.5208899
0000c0 3d 5e e1 3f c2 d9 d2 be 95 0f 87 bf 80 fc b3 bf
       1.7606884 -0.4118176 -1.055163 -1.4061432
0000d0 3c 71 50 3e 08 d4 9c 3e ae 7f 3f be d2 27 dc be
       0.20355695 0.30630517 -0.1870105 -0.4299913
0000e0 0a 8c 8e be 13 48 9b be 86 41 89 3f 35 26 ef bf
       -0.27841216 -0.30328426 1.0723121 -1.8683535
0000f0 b6 1e 77 bf c2 00 47 bd 93 f1 b4 bf f5 23 dc bf
       -0.96531236 -0.048584707 -1.4136223 -1.7198473
000100 af 9d cc bf 97 32 22 3f cb 84 db 3f 91 7a ae 3e
       -1.5985621 0.63358444 1.71499 0.34077886
000110 89 b1 f3 3f 18 ec 25 bf 94 31 1f bf 56 62 ad 3e
       1.9038554 -0.64813375 -0.62185025 0.33864087
000120 0d f2 d0 3f 47 c9 3e 3f 05 86 65 3f 28 59 79 3f
       1.6323868 0.74525875 0.8965762 0.97401667
000130 96 9d ff 3f f9 d2 7a bf 4c 9e 56 bf 5f 24 9d bf
       1.9969966 -0.9797817 -0.8383529 -1.2276725
000140 a9 25 78 3e 95 92 4e bf ad a7 7a 3f 8f 0c ca be
       0.24233116 -0.80692416 0.979121 -0.39462706
000150 e1 94 24 3f 05 e3 50 bf fe a2 9e 3f f8 a3 4a bf
       0.6428967 -0.81596404 1.2393491 -0.79156446
000160 8b b1 ee be 93 76 61 bf 24 b5 a5 be eb fc 47 bf
       -0.4661983 -0.88071555 -0.32364762 -0.781203
000170 f1 88 c4 3e c2 3f 97 be 36 d0 e3 be 06 47 82 3e
       0.38385728 -0.2954083 -0.4449479 0.25444812
000180 71 f3 b2 bf bb f6 25 be 30 af 3d 3f 8e c0 02 be
       -1.3980542 -0.16207401 0.7409544 -0.12768766
000190 38 bf 2b bf 7c e7 2a bf ea 7c 3f be 80 06 83 bf
       -0.6708865 -0.6675947 -0.18699995 -1.0236359
0001a0 41 25 87 bf a5 d9 09 be 7d e1 1e 3f 00 de 6b bf
       -1.0558244 -0.13461931 0.6206282 -0.9213562
0001b0 44 f6 ad bf 30 58 dd 3f ca 18 d8 bf 0c 77 a5 bf
       -1.3590779 1.7292538 -1.6882565 -1.2926955
0001c0 94 b4 0a be 90 b5 bc 3f 7a e4 e9 3f 15 3f b4 bf
       -0.13545448 1.4742908 1.827285 -1.4081751
0001d0 05 fb b6 3f 36 63 3d be 4c de 03 40 ea 40 fd 3e
       1.4295355 -0.18494877 2.060443 0.49463588
0001e0 14 aa 1f 40 68 32 f1 3d 27 19 26 bf d6 c4 90 bf
       2.4947557 0.11777192 -0.6488213 -1.131007
0001f0 1a 41 02 40 92 2d d9 3d fa d8 31 be b3 41 78 bf
       2.0352235 0.10604395 -0.17367926 -0.9697525
000200 3d bd f6 bf 98 14 23 3e 77 10 2d 3f 90 62 73 bf
       -1.9276501 0.15925825 0.6760325 -0.9507227
000210 5d 66 e3 3d ee 63 b9 3e 81 f5 0c be b6 40 5b bf
       0.111035086 0.36209053 -0.13765527 -0.85645616
000220 f0 f3 1d bd e8 93 8b 3e 5a 3e a9 3f a9 c6 6f 3f
       -0.038562715 0.2726128 1.3222153 0.93662506
000230 f1 ae a2 bf 34 38 7b be e4 73 32 bf f4 f7 e4 bf
       -1.2709638 -0.24533159 -0.69708085 -1.7888169
000240 ca b7 89 3e 2f f2 b4 be 79 64 df bf 46 ef 4b bf
       0.26898032 -0.3534102 -1.7452537 -0.7966198
000250 e7 45 b3 3f 96 fe 54 3f bf b2 08 3e d1 48 9c 3f
       1.4005708 0.8320097 0.13349436 1.2209722
000260 4c be e8 3e aa de 82 3f 7e 24 4b 3f 6d 1a 0a c0
       0.45457685 1.0224202 0.7935256 -2.157863
000270 78 a1 e2 be eb d8 37 3f cb f2 a7 3f 5b c4 0c bf
       -0.44263816 0.71815366 1.312097 -0.54987115
000280 65 7b 4e bf d8 8f ad 3e 0e b6 9e 3e e5 09 8a 3f
       -0.80657035 0.33898807 0.30998272 1.078427
000290 c2 fd e2 3e c5 b3 55 bf 5e 72 8e 3d c2 15 8b bf
       0.44334227 -0.8347743 0.069554076 -1.0866015
0002a0 b2 40 4d bf fc 14 45 3f dd 1e 88 3f 59 e8 1f 3f
       -0.8017684 0.76985145 1.0634419 0.6246391
0002b0 bc c5 5d 3f 54 44 0a bf 15 37 08 be 9d eb 6c be
       0.86629844 -0.5401051 -0.13302262 -0.23136754
0002c0 6d 99 7f bf 6b da 21 3f 4a 40 90 be fc aa 56 be
       -0.99843484 0.63223904 -0.2817405 -0.20963663
0002d0 2b d1 fb 3d c6 af 94 bf df d5 8b 3e 25 25 a2 3f
       0.12295755 -1.1616142 0.27311608 1.2667586
0002e0 55 97 36 be f1 2d 46 3f b8 26 8b 3f 9d 47 f6 be
       -0.17831166 0.7741385 1.0871191 -0.48101512
0002f0 1f b7 36 3f 32 44 3a be c9 75 98 3d eb 77 2e 3f
       0.7137317 -0.18190077 0.07444341 0.6815173
000300 b7 57 02 40 58 71 bb bf bb 7d b7 3e 11 f4 a6 3e
       2.0366037 -1.4643965 0.35838112 0.32608083
000310 c1 e8 c1 bc 66 6f 6f be 9c 4a bd bf 6f 00 03 bf
       -0.023670556 -0.23382339 -1.4788394 -0.51172537
000320 2e 45 0d bf f5 3d ad be 41 3d 9e 3f f4 e4 a3 3d
       -0.55183685 -0.33836332 1.2362443 0.08002654
000330 ed c3 d6 3c 75 67 06 bf a8 c0 43 3e 73 e9 fd 3e
       0.026216472 -0.5250161 0.19116461 0.4959217
000340 2d e1 d3 3f cd 6f 88 3f 1b e3 b0 bf 9f bf 2d 3f
       1.6553093 1.0659119 -1.3819307 0.67870516
000350 98 8b b8 be 5a e4 bc 3f 99 72 d5 3e 2e e9 b4 3f
       -0.36044002 1.4757187 0.41688994 1.4133661
000360 9d 70 bf be ac 77 9d 3f 59 a3 0a 3f e6 8f 89 3f
       -0.37390605 1.2302146 0.541555 1.0747039
000370 1b c9 e3 3e bd 6f 1b bf 0a cd d1 bf 2e 87 95 bf
       0.4448937 -0.60717374 -1.6390698 -1.1681879
000380 c3 2d 4a bf 8a 52 65 bf 26 cb 88 3f c1 ab cd 3e
       -0.78976077 -0.8957907 1.0686996 0.401701
000390 1a c4 a1 bf c2 c4 83 3e e7 8b 39 bd 39 57 e7 3e
       -1.263797 0.25736052 -0.045299437 0.45183733
0003a0 86 19 b3 3f 6e b9 84 bf 22 a8 b8 bd e3 d0 01 bf
       1.3992164 -1.0369089 -0.09016444 -0.5070936
0003b0 74 65 b6 3f 94 e9 d9 bf 0b e8 fc 3f fe 8d 8f 3d
       1.4249711 -1.7024407 1.9758314 0.07009505
0003c0 ac 70 9d 3f e0 87 1a bf f8 76 2a bf fa d5 4c bf
       1.230001 -0.6036358 -0.6658778 -0.80014
0003d0 e1 48 38 be d7 19 bd bf cc fb 1d 3f 2d 40 3e be
       -0.17996551 -1.4773511 0.61712337 -0.18579169
0003e0 48 b5 36 bf fa de 2e 3e 05 9b 39 bf 5d 74 27 3f
       -0.71370363 0.17077246 -0.72502166 0.6541193
0003f0 c9 90 c8 bf 77 b8 eb 3e 87 64 0b 3f 6a eb 3e bd
       -1.5669185 0.46039173 0.5445027 -0.046611227

W_conv2 f4 [3, 3, 16, 32]
000000 3e a0 2f bf a0 f4 96 3f a0 a4 d4 3e 2e 2b ec 3d
       -0.68603885 1.1793404 0.4153185 0.11531673
000010 82 10 05 3f 31 72 f9 3f 0f 71 bf 3d d3 3c c7 bf
       0.51978314 1.9487973 0.09347736 -1.5565437
000020 82 de a7 3f 10 bd 15 3f 02 14 2d bf 42 9c 39 3e
       1.3114779 0.5849161 -0.67608654 0.18126014
000030 de 16 32 3f bb 62 ad be 23 52 78 be fe ad 45 3f
       0.6956614 -0.33864388 -0.24250083 0.77218616
000040 41 ef e6 be 92 0a 05 bf a6 52 f3 3e e4 6c 0a 3f
       -0.4510441 -0.51969254 0.47523993 0.54072404
000050 ee c9 e9 be bd 7e 19 be b2 13 3e be bc 17 95 3c
       -0.45661873 -0.14989753 -0.185622 0.018199794
000060 fc d9 76 bf de bc 27 3f 96 1d 17 3e 65 5b b9 3f
       -0.9642637 0.65522563 0.1475738 1.4481016
000070 9a 5e a8 bf 25 7e fc bc b9 eb 2c bf 8d 64 9c 3d
       -1.315387 -0.03082187 -0.67547184 0.07636366
000080 8c 2d f3 bf 15 3e 40 3e 95 0a c2 3e ce 31 b8 be
       -1.8998275 0.18773682 0.37898698 -0.35975498
000090 12 fb 7e 3f 0e 24 22 3f e7 a8 83 3e ce 21 b0 3e
       0.9960185 0.63336265 0.257148 0.3440079
0000a0 67 6e 27 bf 8c d1 88 be f9 95 dc 3f 12 75 fa 3e
       -0.65402836 -0.26722372 1.7233268 0.48917443
0000b0 02 71 15 bf e1 f6 8d bf 7c 22 64 bf a6 77 02 c0
       -0.5837556 -1.1090966 -0.8911512 -2.0385528
0000c0 4a c4 e8 3e 20 fd 8f 3e cc fc c2 3e f8 79 cb bf
       0.45462257 0.28122807 0.38083494 -1.5896597
0000d0 3e eb 17 3f d4 5d 69 3f 50 c6 96 bd 92 e0 b6 bf
       0.59343326 0.91158795 -0.07362044 -1.4287283
0000e0 6c 38 33 3f af 38 d4 bf 67 d1 b5 bf 57 c9 2f 3f
       0.7000797 -1.6579798 -1.420453 0.68666595
0000f0 41 79 85 3f ad f8 f5 3d 52 e7 30 bf c8 09 9d 3f
       1.0427629 0.12010322 -0.69102967 1.226861
000100 0f 02 cf 3e d0 71 e9 bf 33 ae 95 bf 68 46 ad bf
       0.40431258 -1.8237858 -1.1693786 -1.3537111
000110 75 0a 01 40 32 0a 14 3f ce a5 c5 3e f4 34 09 3f
       2.0162632 0.57828057 0.3860306 0.53596425
000120 fb 0a eb 3e b0 22 59 bf 6f f8 9e be dd b6 23 3f
       0.45906815 -0.84818554 -0.31048915 0.639509
000130 72 f5 86 3e 7f b2 8c bf 57 26 34 bf 91 8f 75 bf
       0.26359135 -1.0991973 -0.70371 -0.9592219
000140 b9 71 3d bf 6f e2 a0 be 15 a9 47 3f 3c 99 50 be
       -0.7400165 -0.31422755 0.77992374 -0.20370954
000150 8c 28 e0 be c9 a5 6b be 80 73 1c 3f 6b cb dc be
       -0.43780935 -0.23012461 0.6111374 -0.43123946
000160 38 99 fd 3e 40 ae 2a 3e 92 23 18 3f 51 f6 11 be
       0.4953096 0.16668034 0.59429276 -0.14254119
000170 d7 b7 da 3f e1 fe f0 bf d3 ad f1 3c 7f 30 f3 bf
       1.7087353 -1.8827783 0.029501831 -1.8999175
000180 32 82 a5 be 40 77 2c 3f d7 4f e5 3e 61 28 ef bf
       -0.32325894 0.6736946 0.44787475 -1.8684198
000190 08 5e 30 be cf e5 81 3f 5d 91 1b 3e 5a e2 91 3f
       -0.1722337 1.0148257 0.1519217 1.1397202
0001a0 3a 96 1f 3f 83 ee 1e 3f eb 34 a7 3e 89 1b bf 3e
       0.623386 0.6208269 0.3265756 0.37325695
0001b0 54 1b 99 3e 14 c5 c8 be 64 90 c8 3e cc 3a 5c bf
       0.29903662 -0.3921286 0.3917266 -0.86027217
0001c0 5d 44 81 3d e9 d6 23 be 37 83 1d bf 50 a4 77 bf
       0.063118674 -0.1599995 -0.6152834 -0.96735096
0001d0 f0 fc 8f bf 1a 0f 80 bf b4 bf fa be 02 6a 1b bd
       -1.1249065 -1.0004609 -0.48974383 -0.037942894
0001e0 81 bc c4 3f 8c 33 59 3e a1 06 98 3f 83 2a 9a bf
       1.5370027 0.2121107 1.1877023 -1.2044224
0001f0 47 d1 cb be a7 ae cc be e8 25 4e bf 0e 5b 5e 3f
       -0.39808103 -0.39977 -0.8052659 0.8685769
000200 9f 98 97 bf 89 fd f9 3e 8c 8f b1 bf a9 c3 31 3f
       -1.1843451 0.48826244 -1.3871932 0.6943918
000210 fa 7b 6d be c6 5c 06 bd 27 98 b4 bf 30 7b c9 3f
       -0.23191825 -0.03280332 -1.4108933 1.5740719
000220 ed 80 92 3f dd 0c 99 be 0a 6b a8 bf d7 b3 eb 3d
       1.1445595 -0.29892626 -1.3157666 0.11508911
000230 a4 7e a6 be 2f 6a bf 3d dc c1 25 bf 53 76 fb 3e
       -0.32518494 0.09346425 -0.6474893 0.49113712
000240 6c bc 19 3e 21 9d bb bd 80 b4 02 be fb 3b 6e 3e
       0.15013283 -0.09160829 -0.12764168 0.23265068
000250 8d 08 9a 3f 2a 27 28 3f 84 7d dc be 0c 9c 8e bf
       1.203386 0.6568476 -0.4306451 -1.1141372
000260 06 e8 74 be 4b 82 ac bf f8 8e 72 3f 16 e7 81 bf
       -0.23916635 -1.3477262 0.94749403 -1.0148647
000270 6e 86 4e 3f 5d d3 e9 3d 1c 78 a2 bf 82 e7 9f 3f
       0.80673873 0.114172675 -1.2692904 1.2492526
000280 64 a6 32 3f 71 08 29 bf 7c 84 24 3f 88 1e 03 40
       0.6978514 -0.66028506 0.64264655 2.0487385
000290 78 0f 8e bf 45 3c 82 bf 1b c7 2b 3e 83 0c 57 3f
       -1.1098471 -1.0174643 0.16775171 0.84003466
0002a0 cc af fa 3e 8e 4a 42 bf c2 3a 05 be 7c f8 9f be
       0.48962247 -0.7589501 -0.13010696 -0.31244266
0002b0 0a 79 d2 bf 0f 96 51 bf 0b 00 83 bf 12 aa 62 3d
       -1.6443188 -0.81869596 -1.0234388 0.055337973
0002c0 77 03 ee be c7 27 be bf c2 6c 1e bf 46 a6 8c be
       -0.46487018 -1.4855889 -0.618847 -0.27470607
0002d0 d1 2e be bf 05 13 67 bf 52 36 93 3b 9a 82 5e bf
       -1.4858037 -0.90263397 0.0044925595 -0.8691803
0002e0 d6 df 9d bf 48 a3 f7 bf 87 45 01 3f c4 57 f7 3e
       -1.2333934 -1.9346704 0.50496715 0.48309147
0002f0 47 cd bb 3f 79 4f 8f be 8f 72 79 3f 27 4b 36 3f
       1.4672021 -0.2799032 0.9744043 0.71208423
000300 d8 45 60 3f 4e 70 73 3f 4a 1b ac bf 42 8e 16 be
       0.87606573 0.9509324 -1.3445828 -0.14702705
000310 1d 96 b5 bf f5 80 cf 3e ad 66 a4 be 1e 59 9f 3d
       -1.4186436 0.40528074 -0.32109585 0.0778067
000320 55 54 9a be ec 71 5f 3f ab 0e 84 3f b8 b2 10 3f
       -0.30142465 0.87283206 1.0316976 0.56522703
000330 89 ad 2d bf b0 06 a9 be 7e a8 00 3f 43 c8 fb bf
       -0.6784292 -0.33012915 0.502571 -1.967049
000340 62 2f 2f bf 29 25 71 3f 5a ec 95 3f 7d f2 f6 3e
       -0.68431675 0.94197327 1.1712754 0.4823188
000350 e4 7a ba 3f 13 ae f7 be 9a d2 df 3e 70 a2 b8 bf
       1.4568753 -0.48374996 0.43715364 -1.4424572
000360 72 00 e3 3d ed 2f 94 3f 2e aa 88 bf a8 20 f7 3f
       0.11084069 1.1577126 -1.0676935 1.9306841
000370 7b bd 31 3f 8c 10 d0 bc c2 7b c5 3f 62 cd 1c 3e
       0.6942975 -0.025398515 1.5428393 0.15312722
000380 2f 90 98 bf 0e e3 d1 3f fd e1 fc 3b d7 50 00 3f
       -1.1919001 1.6397417 0.0077173696 0.5012335
000390 54 2a e1 3f 9a 61 35 3c 4c b8 4c bd 5a 5b 4d 3f
       1.7591043 0.011070633 -0.049980447 0.80217516
0003a0 31 ad 41 3d fb cf 9f bf 6c 77 5d bf 92 4a 82 3f
       0.04728431 -1.2485346 -0.8651035 1.0179007
0003b0 70 04 92 be 5f dd d7 3f 95 55 77 bf 6c a5 9b bf
       -0.2851901 1.6864432 -0.9661496 -1.2159858
0003c0 5c 07 5c 3f 9e 03 65 3f 67 8f 29 bf 45 f0 f7 be
       0.8594873 0.89458644 -0.6623444 -0.484255
0003d0 fa 11 cb 3f 3d 30 4d be b7 19 7c 3f b3 03 86 3f
       1.5864861 -0.20037933 0.9847674 1.0469879
0003e0 4d 79 fb 3e 3f 6e e7 be e7 41 67 be d1 1f 1a 3f
       0.49115983 -0.452013 -0.22583733 0.602048
0003f0 5d 52 81 be 64 15 6f be cd c5 38 be 82 05 e9 bf
       -0.2525815 -0.23348004 -0.18044205 -1.8204806

W_fc f4 [512, 256]
000000 ec 13 4b bf 89 57 49 be 2f 13 04 3e 42 37 9d bf
       -0.79327273 -0.19662298 0.12897943 -1.2282488
000010 3e c3 20 be 5c 51 e3 bf 57 e7 b9 be 96 fd 1f be
       -0.15699479 -1.7759204 -0.3630931 -0.15624079
000020 d8 39 8a bf 85 10 e7 3e 36 b4 3f bd 2e 14 78 3e
       -1.0798903 0.4512979 -0.046802722 0.24226448
000030 b2 f2 7c bc 3a ec 4c 3f 0c a0 93 3e 7f 53 0a 3f
       -0.015438722 0.80047953 0.28833044 0.54033655
000040 76 04 bc bd ab 6f 2f be 30 83 c3 3d e4 27 fd 3f
       -0.09180538 -0.17132442 0.095465064 1.9777799
000050 86 fb 92 3e e4 d8 61 bd 14 11 74 bd 8f ee e7 3f
       0.28707522 -0.055138484 -0.0595866 1.8119677
000060 3e 6e bf 3e 40 6a 5a be 0e fa d5 3e 74 4c fa be
       0.37388796 -0.21329594 0.4179234 -0.48886454
000070 b5 c6 49 3f f4 8f ee 3f 85 74 1d 3e 71 a1 29 3f
       0.7881883 1.8637681 0.1537648 0.66261965
000080 26 2f 7f 3e 5c 5b 5d be 47 64 a2 3e 64 37 21 bf
       0.2492033 -0.21616882 0.3171713 -0.62975144
000090 51 4f e0 be bd ca bc 3f e2 ce e0 bf ad 14 a9 bf
       -0.43810514 1.4749371 -1.7563136 -1.3209435
0000a0 c0 f1 cc 3f e0 0d c0 bf 5f 2f 72 be b4 5a 0c bd
       1.6011276 -1.5004234 -0.23650883 -0.03426619
0000b0 3e 1b 6c bf 7a 0e 32 3e 8e 96 97 3d 1b 68 dd 3e
       -0.9222907 0.17388335 0.07401763 0.4324349
0000c0 4a da cb be d8 fe ff bf a5 be d0 bf 67 f1 7b be
       -0.3981498 -1.9999647 -1.630818 -0.24603806
0000d0 b8 7f 40 bf 57 6d db 3f 6e 62 ed be b2 00 e0 be
       -0.75194883 1.7142743 -0.46364158 -0.4375053
0000e0 8f be 82 bf 08 0c 89 be 2d 21 3e 3f 50 e7 76 be
       -1.0214404 -0.26766992 0.7426937 -0.24111676
0000f0 7f 19 8c 3f f7 0b e5 3f 47 e8 4c bd 1f 79 52 3f
       1.0945281 1.7894276 -0.050026204 0.82216066
000100 ea 5f 3e be d9 a8 9f be 0f 72 86 3f 10 4b 14 3f
       -0.18591276 -0.31183508 1.0503558 0.57927036
000110 47 6c d5 bf e2 96 7b 3f 71 5c 86 3f 6b d9 49 3e
       -1.6673669 0.98277104 1.0496961 0.19711845
000120 e3 cb 9d bf a6 08 ae 3e 4d 68 ce 3f 6a 69 a4 bd
       -1.2327846 0.33990973 1.612558 -0.08027919
000130 bf ae 5e bf 2e bb d9 3e f1 1f 48 3f 9c 92 88 3f
       -0.8698539 0.4252562 0.7817374 1.0669742
000140 9f 82 52 3f db 6a 12 3f 63 97 b5 3f 03 41 3b 3f
       0.8223056 0.571943 1.4186825 0.73146075
000150 ab 2f 24 3d ff fe 7f bf db ae fd be de ce 45 3f
       0.040084522 -0.9999847 -0.49547467 0.7726878
000160 a5 b2 55 bf 16 c6 bb bd 25 0b 71 be 18 d2 9c bf
       -0.83475715 -0.09168641 -0.23539408 -1.2251616
000170 1d 33 b8 3f d5 66 62 bf e2 16 63 3e 9a 8c f7 bf
       1.4390599 -0.8843816 0.22176698 -1.9339783
000180 44 78 39 3f 22 cd 94 be dd 40 ac be 84 0e 73 3f
       0.72449136 -0.29062754 -0.33643237 0.94944024
000190 70 63 75 3e ec df 59 3f 29 0a 96 3f e7 81 2f 3e
       0.23963714 0.851073 1.1721851 0.17139398
0001a0 a1 8d 0f 3e 71 ea 7f be ba e6 23 3f 34 c7 d5 bf
       0.14018871 -0.24991776 0.64023936 -1.6701417
0001b0 f4 af 54 bf ee b3 10 be eb 2b 9c 3f 30 cc 48 3f
       -0.83080983 -0.14131138 1.2200903 0.78436565
0001c0 de 62 55 bf c3 72 25 3f 43 88 62 3f ad 9d a3 3d
       -0.83353984 0.6462824 0.8848917 0.07989059
0001d0 2c 7e 98 3f 45 75 85 bd 3f 3c c2 bf fa f1 d1 3f
       1.1913505 -0.06516508 -1.5174636 1.640197
0001e0 39 e9 ad 3e ef 67 28 bf de 27 b8 bf 8d fd d1 bd
       0.33966997 -0.6578359 -1.4387167 -0.10253439
0001f0 f9 99 a4 be 25 53 06 bf 92 c5 5e 3e b8 04 5b bf
       -0.32148722 -0.5247062 0.21755055 -0.85554075
000200 c9 3d 2f 3f 15 22 e4 3e b1 9d 97 3f 1d b1 30 be
       0.6845365 0.44557253 1.1844999 -0.17255063
000210 af 94 47 3f a5 ee 60 bd 96 5d 30 3f 02 70 e3 3f
       0.7796125 -0.05491509 0.688928 1.7768557
000220 ae ae b4 3f c6 42 45 3f da 35 d9 bf a1 e8 da bd
       1.4115808 0.77055013 -1.6969559 -0.10688902
000230 ad df 8e be 49 1a 7d 3f 5f b5 72 3f 77 5e 2f be
       -0.27905026 0.9886823 0.94808 -0.17125879
000240 33 ac e7 bd 19 99 fd bd cd e5 ae 3e cc f9 14 bf
       -0.11312141 -0.12382717 0.341597 -0.5819366
000250 bf 14 c8 be 67 1e 7c 3e 58 17 42 3f cd d1 a0 3e
       -0.39078328 0.24620973 0.7581687 0.31410065
000260 2d e2 29 3f 1c 47 b2 3f 2a 08 5a 3f e6 14 63 3f
       0.6636074 1.3927951 0.8516871 0.88703763
000270 65 5c a6 3f 45 83 24 bf 62 71 bf 3d 77 e4 a3 bf
       1.2996947 -0.642628 0.09347798 -1.2804097
000280 58 a0 2f 3f 9c c9 36 3f 6c 3e d5 be 52 45 63 3f
       0.6860404 0.7140138 -0.41649187 0.8877765
000290 7e 98 8a 3f 67 ca 0b 3f 72 d7 c2 3d 7b 0f c4 be
       1.0827787 0.54605716 0.09513749 -0.3829306
0002a0 15 cb 81 be 45 5c 8c 3f 25 31 9a bf ff bb b1 be
       -0.25350252 1.0965658 -1.2046248 -0.34713742
0002b0 dc cf b5 3e c9 2d ca 3f c2 a7 42 bf 06 9d 77 bf
       0.35510147 1.5795223 -0.7603723 -0.96723974
0002c0 62 4a 25 be 13 85 f4 3c 62 c8 81 3e 18 64 ae 3e
       -0.16141656 0.029848611 0.25348192 0.3406074
0002d0 bd 59 94 bd 7f 97 2d bf 4a c1 2a bf e6 52 2c bf
       -0.07243679 -0.6780929 -0.66701186 -0.6731399
0002e0 0b af 04 3e 3b b7 b1 be 9b bd aa be 69 47 d3 3f
       0.12957399 -0.34710106 -0.33347782 1.6506168
0002f0 5d 59 3c 3e f0 61 b2 be 72 83 8d bf 51 65 57 3f
       0.18393464 -0.34840345 -1.1055739 0.8413897
000300 4a b9 31 bf 94 bd a5 be 62 3f 69 3e 99 55 10 bf
       -0.69423354 -0.323712 0.22778085 -0.5638061
000310 dd ea df be 09 7c c0 3e 29 40 23 bf 1f 06 aa 3e
       -0.43733874 0.3759463 -0.63769776 0.33207795
000320 9f d6 10 be 60 db 25 be 97 ad 99 bf fd 46 b5 3e
       -0.14144371 -0.16196966 -1.20061 0.35405722
000330 00 7c b9 3f 07 d6 61 3d 47 67 f6 bd 6b d3 24 be
       1.4490967 0.055135753 -0.12031417 -0.16096275
000340 9e 25 eb be e0 1c 58 3f 4e 1d 32 3f ff 75 b0 bf
       -0.45927137 0.8441906 0.69575965 -1.378601
000350 2f 61 17 bf 02 eb 78 bf 71 50 59 3e 47 17 12 3f
       -0.59132665 -0.97233593 0.21222092 0.5706677
000360 7c 50 91 3f 4d ce 43 3c 09 68 ca bf 2d f7 1e 3f
       1.1352687 0.011951041 -1.5812999 0.6209591
000370 42 89 86 3f 5e 85 30 3e c8 16 0c 3b b8 f6 9c bf
       1.0510638 0.17238376 0.0021375883 -1.2262793
000380 94 e3 a8 3f cc 4c 07 3e b7 d5 82 3e 53 e8 71 bf
       1.3194451 0.1321289 0.25553676 -0.94495124
000390 e1 35 02 3f fe 0b 49 bf 02 32 7f bf b9 14 ef be
       0.5086346 -0.78533924 -0.9968568 -0.46695498
0003a0 a5 01 4b bf 1e 65 ca 3f 72 6e 86 bf 53 1e da 3f
       -0.79299384 1.5812109 -1.0502455 1.7040504
0003b0 96 16 aa 3f 17 23 c9 3f 53 53 2f be 0e e7 97 3f
       1.3288143 1.5713834 -0.1712163 1.1867387
0003c0 9d 31 64 3e 05 a4 8a 3f 95 e1 5a 3e 94 fe 4e 3f
       0.22284551 1.0831305 0.21375115 0.80857205
0003d0 81 91 b8 bf 7b 30 66 bf ab 56 d8 3e b5 f8 eb bf
       -1.4419404 -0.89917725 0.42253622 -1.8435274
0003e0 87 d6 b1 bd d7 8c 1a 3f d6 1c 22 3e e3 df 9c bf
       -0.08683496 0.60371155 0.15831313 -1.2255825
0003f0 ef e6 94 bf f8 17 b1 bf 53 1e e2 bd 41 df f2 3f
       -1.1632975 -1.383544 -0.1104094 1.8974382

W_out f4 [256, 5]
000000 e1 84 dc 3f f7 b8 53 bf 9e d2 c7 bd 16 a8 3f 3e
       1.7228051 -0.8270411 -0.09756969 0.18716463
000010 d5 52 75 3d df 31 64 bf 4a 0f 51 bf d9 6b 1d 3f
       0.059893448 -0.891386 -0.81663954 0.6149269
000020 f3 bd 53 3f bd 81 cd 3f bf d3 ca 3e 41 08 84 bf
       0.82711715 1.6055218 0.39614674 -1.0315019
000030 62 e8 1a be be 46 92 be 89 28 9f bf d9 07 27 3f
       -0.1512771 -0.28569597 -1.2434245 0.6524635
000040 c4 20 0a be eb e7 f0 3e 52 4e 92 bf c0 38 a8 3f
       -0.13489062 0.4705194 -1.1430151 1.3142319
000050 f7 5c b5 3f 8a 2a 13 bf 9f e7 bd 3e 0c b4 c1 3e
       1.4168996 -0.57486784 0.37090775 0.37832677
000060 3a 9e 86 bf e2 b4 8e bf e8 31 4e 3e 1e bb 12 3f
       -1.0517037 -1.1148951 0.20136225 0.5731677
000070 00 52 f8 bf b5 22 83 3f bd 7c 7c 3f 83 d2 9c 3b
       -1.9400024 1.0244967 0.98627836 0.004785837
000080 36 b9 a3 bf 9f d9 e7 3d 6e cc 06 bf 49 a3 76 bf
       -1.2790897 0.11320805 -0.52655685 -0.96342903
000090 21 cf bd bf be 6a 8c 3f be 67 4c bd 48 bc 56 bf
       -1.4828836 1.0970075 -0.049903624 -0.83881044
0000a0 fe fa 33 3f 50 03 1f bc 3c a6 dc 3e 95 77 9d bf
       0.7030486 -0.00970538 0.43095577 -1.2302119
0000b0 66 be c0 bf ee fe 56 3f 3c 97 b8 3f dd 17 11 3f
       -1.5058105 0.8398274 1.4421153 0.5667704
0000c0 ff 93 b5 be fb b7 b7 bc 96 60 00 3f 95 ba 62 be
       -0.35464475 -0.022426596 0.5014738 -0.22141488
0000d0 b5 83 a3 3f dc 9a 03 3f be 06 93 be 9e 15 f7 be
       1.2774569 0.5140817 -0.2871608 -0.4825868
0000e0 23 3a 4f bf 4b 0a e9 3d ea 80 dd 3f cf f8 2a bf
       -0.80948085 0.11378916 1.7304966 -0.667859
0000f0 90 69 90 bd 5c 33 bc be bf 2f 0c bf 71 85 ac 3e
       -0.070513844 -0.36757934 -0.54760355 0.33695558
000100 c5 78 68 3e 66 e9 95 bf 01 f3 bf be 60 5d 14 bf
       0.2270232 -1.1711853 -0.37490085 -0.5795498
000110 01 24 8f 3e ea 58 65 bf ad 7d e3 3e 97 e6 19 3f
       0.27957156 -0.895888 0.4443182 0.6011748
000120 82 45 1e 3e c3 7d 36 bf 34 1c 20 3f 6d 49 89 bf
       0.15456203 -0.7128565 0.62543035 -1.0725533
000130 d8 70 a2 bc fa b3 d2 3d 79 26 77 3f db 86 62 be
       -0.019829199 0.10288234 0.9654308 -0.22121756
000140 ec cb 49 be b3 69 29 3f 4c 9d 64 be a4 b1 43 3f
       -0.19706696 0.6617691 -0.22325629 0.76442933
000150 7a ee 92 be 4d 9d b9 bf cc 5f 84 bf 86 69 89 3f
       -0.28697568 -1.4501129 -1.0341735 1.0735328
000160 50 72 48 3f ff b4 c6 3f b3 d8 83 3e 7e 1b 91 bf
       0.7829943 1.5523986 0.25751266 -1.1336515
000170 77 fd e6 3d 6c 11 76 be 64 bc 43 3e cf f6 d1 bf
       0.11278813 -0.24030083 0.19114834 -1.6403445
000180 b1 14 33 bf fa 05 3e be 57 88 33 3f bc 19 24 3f
       -0.6995345 -0.18556967 0.70129913 0.6410177
000190 a3 c0 a6 3f 25 8e 6d bf 20 61 4f be df 3f d7 bf
       1.3027538 -0.9279502 -0.20251894 -1.6816367
0001a0 8d 2a d2 be 73 4e 12 3f 27 cf 35 bf 6c cd 06 3f
       -0.4104809 0.57150954 -0.71019214 0.526572
0001b0 4f f5 83 bc 45 26 6f be 4b 57 72 3f c5 d2 79 bf
       -0.016108183 -0.23354442 0.9466445 -0.97587234
0001c0 f5 3d 58 3f 32 77 55 3e 02 f7 df be b9 70 90 bd
       0.8446954 0.2084625 -0.4374314 -0.0705275
0001d0 0e 1d 09 3f f0 85 92 3f 72 64 cf 3e b8 3c 45 bf
       0.5355996 1.1447124 0.4050632 -0.77045774
0001e0 da 5a ba bd 6c 23 ab bf 19 2b d3 3e 76 94 f1 3e
       -0.0909936 -1.3370185 0.41243818 0.4718358
0001f0 5a 23 c1 be 22 25 bc 3f cb 15 53 bf 4d 00 9f 3c
       -0.37722284 1.4698832 -0.8245513 0.019409323
000200 3d 43 d0 bd 36 26 b8 3f 89 63 f7 be 1d 82 bb be
       -0.10169075 1.4386661 -0.48318127 -0.36622706
000210 ff 11 80 bf 8c 55 86 3f e1 df 4b 3e e2 0a fa be
       -1.0005492 1.0494857 0.19909622 -0.48836428
000220 eb 0a d2 3e dd a8 48 bf 30 85 9c bf c6 07 e4 3f
       0.41023955 -0.78382665 -1.2228146 1.7814872
000230 99 07 1e 40 fb 59 db be 8c d1 17 3f f3 2c 2c bf
       2.4692137 -0.42842087 0.5930412 -0.6725609
000240 7e 8d ea 3e 95 4a 46 bf 43 92 aa bf 00 b7 ae 3e
       0.45811075 -0.77457553 -1.3325886 0.34123993
000250 1f cb 93 bf 36 ab 78 bd 4e 7c 6f 3f bb 50 e2 3e
       -1.1546363 -0.060710154 0.9354905 0.44202217
000260 99 53 dd bf 2b aa 48 3f b5 75 96 3f f3 cc ef 3f
       -1.7291137 0.78384656 1.1754671 1.873442
000270 a8 fe b0 bf f2 d9 fd 3e 9d f4 d4 bf ab 23 63 3f
       -1.3827715 0.49580342 -1.663715 0.887263
000280 79 41 d7 bf 38 d4 da bf cc 6d 5f 3f 61 b4 66 be
       -1.6816856 -1.7096014 0.8727691 -0.22529747
000290 76 aa a8 3f 84 14 41 be 80 50 ab 3e 1c 50 2d 3e
       1.317702 -0.18855482 0.33459854 0.1692509
0002a0 f5 60 0c be ef 7a 65 bf 6e 25 f0 3d ce 05 95 3f
       -0.13708861 -0.89640707 0.11725889 1.1642396
0002b0 23 cc 21 3e 63 ef 2b 3e d5 58 89 bf ed 30 f1 bf
       0.15800528 0.16790538 -1.0730234 -1.8843056
0002c0 91 f2 9f be f2 a3 0c 3f e9 30 8e bf 3e 09 1b 3f
       -0.3123975 0.5493766 -1.1108676 0.6056098
0002d0 52 e0 89 bf f3 67 93 bc 40 77 5a bf 21 72 7c bf
       -1.0771582 -0.017993903 -0.8533821 -0.98611647
0002e0 df 8e b2 be 27 ec 9b 3e dd 43 37 bf 46 04 c4 3f
       -0.34874627 0.30453607 -0.71587926 1.5313804
0002f0 9b b9 b6 3d fa 71 b8 bf 59 ce 07 bf 28 73 1f bf
       0.0892212 -1.4409783 -0.53049237 -0.6228509
000300 8d a5 ea 3d ed d3 05 40 83 e9 99 3e b9 ad ff be
       0.114573576 2.09106 0.30060968 -0.49937227
000310 f8 87 1d bf 4b c2 81 3f e2 2a fe be 88 5b c4 bf
       -0.61535597 1.0137419 -0.49642092 -1.5340433
000320 08 f3 90 3f 12 cb 50 3e 28 d3 b0 be 82 c3 2b be
       1.1324167 0.20389965 -0.345361 -0.16773799
000330 5d bf a1 be d4 0b 74 3f bb 17 5e bc 1a 23 50 3e
       -0.3159131 0.9533055 -0.0135554625 0.2032589
000340 3f 3f 32 3e 92 ac 1c bf c2 96 b3 3f 63 7e 19 3e
       0.17406939 -0.6120082 1.4030383 0.14989619
000350 31 06 81 3e 59 7d 58 3f e7 57 b6 bf c2 73 1b bf
       0.25200036 0.84566265 -1.4245576 -0.6072351
000360 6e 7c d8 3e b8 fe 91 3e 67 14 50 bf e5 80 3a be
       0.42282432 0.28514647 -0.8128113 -0.18213232
000370 36 cb 02 40 8c 01 c3 bf 46 7f 7b 3e 0b 40 9d bf
       2.043653 -1.5234847 0.2456027 -1.2285169
000380 e1 43 77 bd 28 0a 97 3e 25 b7 71 3e 76 91 52 3f
       -0.06036747 0.29499936 0.2360502 0.82253206
000390 20 49 bf 3c f3 79 09 bf 30 91 20 3f f9 86 35 bd
       0.023350298 -0.53701705 0.6272154 -0.044318173
0003a0 ed 54 2b 3e 1c f2 09 3f 0c 7c 90 3d 71 62 9b bf
       0.16731615 0.53885055 0.0705491 -1.2139417
0003b0 29 a3 a0 3e 8a b8 0c bf dc 9d 65 bf b9 69 88 bf
       0.3137448 -0.54969084 -0.89694 -1.0657264
0003c0 1d 11 34 3f d8 cb 23 3f cf 70 54 3f bf b6 25 bf
       0.7033861 0.63982916 0.8298463 -0.64731973
0003d0 84 e5 df be c5 0c 8c 3e 62 97 d2 3f 0a 89 1f 3f
       -0.43729794 0.27353492 1.6452448 0.6231848
0003e0 f6 73 1b 3f 2f 7a 7e 3f 12 0f 9a 3f ec b5 e7 3f
       0.6072382 0.9940519 1.2035849 1.8102393
0003f0 5c c8 2f 3f be 8a 50 bf 5f 30 62 3c b6 ed 2a bd
       0.686651 -0.81461704 0.013805478 -0.041730605

b_conv1 f4 [16]
000000 cd cc cc 3d cd cc cc 3d cd cc cc 3d cd cc cc 3d
       0.1 0.1 0.1 0.1
000010 cd cc cc 3d cd cc cc 3d cd cc cc 3d cd cc cc 3d
       0.1 0.1 0.1 0.1
000020 cd cc cc 3d cd cc cc 3d cd cc cc 3d cd cc cc 3d
       0.1 0.1 0.1 0.1
000030 cd cc cc 3d cd cc cc 3d cd cc cc 3d cd cc cc 3d
       0.1 0.1 0.1 0.1

b_conv2 f4 [32]
000000 cd cc cc 3d cd cc cc 3d cd cc cc 3d cd cc cc 3d
       0.1 0.1 0.1 0.1
000010 cd cc cc 3d cd cc cc 3d cd cc cc 3d cd cc cc 3d
       0.1 0.1 0.1 0.1
000020 cd cc cc 3d cd cc cc 3d cd cc cc 3d cd cc cc 3d
       0.1 0.1 0.1 0.1
000030 cd cc cc 3d cd cc cc 3d cd cc cc 3d cd cc cc 3d
       0.1 0.1 0.1 0.1
000040 cd cc cc 3d cd cc cc 3d cd cc cc 3d cd cc cc 3d
       0.1 0.1 0.1 0.1
000050 cd cc cc 3d cd cc cc 3d cd cc cc 3d cd cc cc 3d
       0.1 0.1 0.1 0.1
000060 cd cc cc 3d cd cc cc 3d cd cc cc 3d cd cc cc 3d
       0.1 0.1 0.1 0.1
000070 cd cc cc 3d cd cc cc 3d cd cc cc 3d cd cc cc 3d
       0.1 0.1 0.1 0.1

b_fc f4 [256]
000000 0e 51 cd 3d cd cc cc 3d 88 71 c9 3d 5b 42 cc 3d
       0.100252256 0.1 0.098361075 0.09973594
000010 42 05 d1 3d c8 df c9 3d cf cd cb 3d 5d ca c8 3d
       0.10206081 0.09857136 0.09951364 0.09804223
000020 24 46 ca 3d 5e 10 cd 3d 58 74 cc 3d 3a 90 ca 3d
       0.098766595 0.100128874 0.09983128 0.0989079
000030 b9 a2 cc 3d 8f 99 cd 3d 5f b1 ce 3d aa 7c c9 3d
       0.099919744 0.100390546 0.100924246 0.09838231
000040 6c 32 ca 3d 72 2f cc 3d 23 ff cd 3d fd c9 ca 3d
       0.098728985 0.09969987 0.10058429 0.099018075
000050 cf 94 ca 3d 06 2e cc 3d 07 5a cc 3d d9 0a cb 3d
       0.09891664 0.09969716 0.09978109 0.099141784
000060 81 3d cc 3d fd 78 c9 3d a1 0f cc 3d 43 98 cc 3d
       0.099726684 0.0983753 0.099639185 0.09989979
000070 42 6b cc 3d 2b 5e cf 3d c3 1b ca 3d fc 7e cb 3d
       0.09981395 0.10125383 0.098685764 0.0993633
000080 0f d9 ca 3d 5d e7 c9 3d ff 49 cf 3d b4 ae cc 3d
       0.09904682 0.09858582 0.101215355 0.099942595
000090 a5 6c ce 3d 30 5a c7 3d 69 21 cc 3d f2 68 cf 3d
       0.10079316 0.09733999 0.0996731 0.101274386
0000a0 28 13 d2 3d f0 cc cc 3d 80 ae ca 3d 2e c9 cd 3d
       0.1025756 0.10000026 0.098965645 0.100481376
0000b0 02 d9 d3 3d fb cc cc 3d 4a 0e cc 3d 56 b2 cc 3d
       0.10344125 0.100000344 0.09963663 0.099949524
0000c0 1a eb c9 3d d5 6b ca 3d 3b cd ca 3d 47 21 ce 3d
       0.09859295 0.098838486 0.09902426 0.10064941
0000d0 89 db cc 3d 45 b3 cc 3d 4c 37 ca 3d db c5 c8 3d
       0.100028105 0.099951304 0.09873828 0.09803363
0000e0 fd 8b cc 3d 3f e0 d0 3d 9e d1 cc 3d d1 d0 c7 3d
       0.09987638 0.101990215 0.10000919 0.097566254
0000f0 f3 fb c9 3d 65 e9 ca 3d 8c 2c cb 3d 91 1e cd 3d
       0.098625086 0.09907798 0.09920606 0.10015596
000100 cd cc cc 3d 3c b8 cb 3d eb 1a c7 3d 64 ea ca 3d
       0.1 0.09947249 0.09721931 0.09907988
000110 ed ed cc 3d 22 85 cc 3d 2d c8 cb 3d 0e 65 cc 3d
       0.10006318 0.099863306 0.0995029 0.09980212
000120 4e 7e cd 3d 6c d8 cc 3d 37 59 cd 3d e5 40 ca 3d
       0.10033856 0.10002217 0.10026782 0.09875659
000130 de a8 ca 3d 3a 03 cd 3d bd 02 d0 3d 7a 35 ca 3d
       0.0989549 0.10010381 0.10156772 0.09873481
000140 a4 84 c9 3d 9e dd cd 3d bd cb cc 3d 7b d5 ca 3d
       0.09839752 0.10052036 0.099997975 0.099039994
000150 e0 9a ce 3d a2 67 cc 3d 4c a8 c9 3d 71 55 c9 3d
       0.10088134 0.09980704 0.09846553 0.0983075
000160 8b db cc 3d 28 b7 cd 3d 1f c9 cc 3d f2 39 c8 3d
       0.10002812 0.100447 0.09999298 0.09776677
000170 62 9b cc 3d 23 f6 cb 3d 7a cd cc 3d 25 26 ca 3d
       0.099905744 0.09959056 0.10000129 0.09870557
000180 22 7d cc 3d 05 93 cd 3d 5d ff ce 3d 43 c6 ca 3d
       0.09984805 0.100378074 0.101073004 0.09901097
000190 dc 1c cb 3d c2 40 cd 3d 8e ce ca 3d a6 e1 cd 3d
       0.09917614 0.10022117 0.099026784 0.10052805
0001a0 63 a0 cd 3d 94 3b ce 3d 7c 34 cc 3d 2a 99 cb 3d
       0.10040357 0.100699574 0.09970948 0.09941323
0001b0 93 e0 cc 3d 87 7d cc 3d c5 26 c9 3d cd cc cc 3d
       0.10003772 0.0998488 0.09821848 0.1
0001c0 11 ca cd 3d 49 53 ca 3d 99 c3 ca 3d cd cc cc 3d
       0.10048307 0.09879167 0.099005885 0.1
0001d0 56 34 ce 3d bd 7e cc 3d dd 93 cc 3d 55 ab cc 3d
       0.10068576 0.09985111 0.0998914 0.099936165
0001e0 69 a3 cb 3d 8d 07 cc 3d 82 6e cc 3d 41 bc cd 3d
       0.099432774 0.09962378 0.09982015 0.10045672
0001f0 89 90 ce 3d 1b 49 ce 3d 2b 08 ce 3d 9e cb c9 3d
       0.10086162 0.100725375 0.10060152 0.0985329
000200 5c 9e cc 3d bf fa cb 3d 68 6b ce 3d 7f 0a c9 3d
       0.09991142 0.099599354 0.1007908 0.09816455
000210 f3 25 cb 3d b5 8d cc 3d 13 88 ce 3d 28 73 c9 3d
       0.099193476 0.09987966 0.10084548 0.098364174
000220 e4 4c cc 3d fd c2 cc 3d 6c 6e c9 3d 40 ff c8 3d
       0.09975603 0.099981286 0.098355144 0.0981431
000230 e5 47 cd 3d 16 ac cb 3d 7d 96 d3 3d 76 7f c8 3d
       0.100234784 0.09944932 0.10331438 0.09789936
000240 98 3a cd 3d 54 dd cc 3d d1 36 ce 3d d5 d2 ce 3d
       0.100209415 0.100031525 0.10069049 0.10098807
000250 ec 1c cc 3d 7d cb cc 3d 0b 7a cb 3d 14 49 c7 3d
       0.09966454 0.0999975 0.09935387 0.097307354
000260 46 12 c9 3d 6a 60 ca 3d 91 58 cb 3d 74 1e cc 3d
       0.098179385 0.09881671 0.09929002 0.09966746
000270 aa e3 cc 3d 65 86 cb 3d 5c 3e c9 3d dd a2 ce 3d
       0.10004361 0.09937743 0.09826347 0.100896575
000280 56 f8 cc 3d bb f2 c9 3d 15 77 cd 3d 66 45 cc 3d
       0.10008304 0.0986075 0.10032479 0.09974174
000290 85 0e cb 3d 1e 4f cb 3d bc 09 cd 3d ea 78 d0 3d
       0.09914879 0.099272 0.10011622 0.101793125
0002a0 0f 8e cd 3d 4e e4 cd 3d f2 cc c9 3d fa df cb 3d
       0.10036861 0.10053311 0.09853543 0.099548295
0002b0 3c 2d cb 3d 06 11 cb 3d 71 a9 c9 3d 6a 58 cc 3d
       0.09920737 0.09915356 0.098467715 0.09977801
0002c0 ce c3 cc 3d cd cc cc 3d 59 03 cc 3d 32 27 cb 3d
       0.09998284 0.1 0.09961576 0.09919585
0002d0 79 c2 cc 3d 73 0f cd 3d 30 dd ca 3d eb 64 cc 3d
       0.0999803 0.10012712 0.099054694 0.09980186
0002e0 f7 0f d0 3d 0d 60 cd 3d 3a 78 c7 3d 8e 2f c9 3d
       0.10159295 0.10028086 0.09739728 0.098235235
0002f0 b5 1d cc 3d 07 97 cc 3d 4b bc cc 3d 62 e6 c5 3d
       0.09966604 0.09989744 0.099968515 0.09663083
000300 9c 7f ca 3d e5 54 d6 3d c7 4c c9 3d 15 ee c9 3d
       0.09887621 0.10465411 0.09829097 0.09859864
000310 22 cf c8 3d d1 86 cb 3d 9d c3 cb 3d 9e 5a cd 3d
       0.098051324 0.099378236 0.0994942 0.100270495
000320 0f 07 cf 3d d1 56 ca 3d 94 ac cf 3d a8 7b c9 3d
       0.10108768 0.0987984 0.101403385 0.09838039
000330 fb cb ca 3d 7e 0a d3 3d cd cc cc 3d de 8a c7 3d
       0.099021874 0.103047356 0.1 0.09743284
000340 55 3c ce 3d 63 39 d1 3d dd 4f cd 3d dd de cb 3d
       0.10070101 0.10216024 0.10024998 0.09954617
000350 71 c4 cc 3d 85 8b d1 3d b1 f6 cb 3d cd cc cc 3d
       0.09998406 0.10231689 0.09959162 0.1
000360 20 f4 cd 3d 1f ab ca 3d 1f 21 c9 3d b2 6d cc 3d
       0.10056329 0.0989592 0.098207705 0.0998186
000370 21 c4 c8 3d cd cc cc 3d 7e 6b ca 3d 6a e3 ca 3d
       0.098030336 0.1 0.09883784 0.09906657
000380 a5 fe c5 3d 05 6c d0 3d ef db d1 3d c5 0d c9 3d
       0.0966771 0.10176853 0.10247027 0.098170795
000390 cd cc cc 3d b6 17 cc 3d ec 6e cd 3d 83 9a cd 3d
       0.1 0.0996546 0.10030922 0.100392364
0003a0 cd cc cc 3d 0c b8 cc 3d 20 e2 cc 3d 1f 82 cb 3d
       0.1 0.09996042 0.100040674 0.09936928
0003b0 40 ac d0 3d d3 fd cb 3d 3b 28 ca 3d a8 db cc 3d
       0.10189104 0.099605225 0.098709546 0.100028336
0003c0 ca 70 cb 3d 05 c6 c9 3d 1c 12 d1 3d b0 32 cc 3d
       0.09933622 0.09852222 0.10208532 0.099706054
0003d0 e2 a2 cd 3d 75 d9 ca 3d 69 4d d2 3d c5 ad cb 3d
       0.10040833 0.09904758 0.10268671 0.09945253
0003e0 94 b2 cc 3d 35 44 cc 3d 21 e4 cb 3d 05 a6 cc 3d
       0.099949986 0.09973947 0.099556215 0.09992603
0003f0 f9 11 cd 3d 2b 84 cd 3d e0 f7 d3 3d ff 27 cf 3d
       0.10013194 0.10034975 0.10350013 0.101150505

b_out f4 [5]
000000 d3 3d be 3d b6 eb cb 3d 1e a8 ca 3d 54 c3 ca 3d
       0.09289136 0.09957068 0.09895347 0.09900537
000010 c4 20 ca 3d
       0.09869531
